ecg/CL_trial_3_best_model.pth (torch, 142416 bytes, 15 tensors)

conv1.weight f4 [64, 1, 50]
0.11771664 0.124257416 -0.029565508 0.12990102 -0.034190737 0.022082852 -0.0785049 0.07158018
0.1011661 -0.12819098 0.10023432 0.0045193485 0.08448835 0.0020730407 0.05331875 -0.03133986
0.10150047 0.01630262 -0.06734444 0.037321076 -0.062290456 -0.012839197 -0.052033033 0.09887659
-0.109250136 -0.06391207 -0.03911045 -0.083852045 0.014403356 -0.13881512 0.1314142 -0.114686325
0.11624582 0.0307981 -0.03866628 0.09300386 0.025366267 0.11572521 0.015336001 -0.046197873
0.03794406 -0.03799851 0.066975735 0.15103398 0.10671313 -0.037446085 0.10677167 0.050237224
0.08585719 -0.07298058 -0.14069833 -0.054766502 -0.10698465 0.12140441 0.048742294 0.06659585
0.054668978 0.009246456 0.12151441 -0.091618076 0.018314755 -0.085729055 0.05523681 -0.02548308
0.06762048 -0.006141693 0.13968092 -0.06316318 -0.06659209 -0.066069596 0.14742288 0.0680526
0.15552233 -0.10193796 -0.12770815 -0.09784706 -0.08000356 0.07538302 0.07028567 0.13771461
-0.05546039 -0.07886492 0.09445248 -0.03842923 0.10580002 -0.012133412 0.101435915 -0.09292561
-0.054636683 0.06259584 0.04965973 -0.02949952 0.088470824 0.09843349 -0.1045212 -0.07813608
0.12881467 -0.037743513 -0.04190315 -0.12835257 -0.08386448 0.03457506 -0.018830627 -0.10161221
0.005603741 -0.09458983 -0.10740417 -0.06481961 -0.1109122 -0.07729107 0.14586157 0.04205496
0.060227334 -0.11688266 -0.07873725 -0.03237203 0.03546894 -0.12275954 -0.04971396 -0.083599746
0.00147419 -0.052173827 -0.009577462 -0.09621346 -0.09812778 -0.08374948 -0.04945486 -0.11166324
0.12040652 -0.025867885 0.12418229 0.04500308 -0.12004842 0.09865201 -0.03893213 -0.057090756
-0.12123877 -0.14355402 0.03840968 -0.032021053 0.05431245 -0.1162555 0.10578167 -0.104180604
-0.025516331 0.029697789 0.074488826 0.11637419 0.12879294 -0.115351826 0.05754987 -0.045475706
-0.005657463 -0.0937735 0.14835627 -0.08656178 0.09327222 0.07181148 0.0686955 -0.054838452
0.15364979 0.055674672 0.031335246 -0.11311084 0.07574252 -0.004490103 -0.045102168 0.14723183
0.055425882 -0.05093015 -0.04664782 0.02166204 0.10619334 -0.018700797 -0.069218695 -0.03708675
-0.09367973 0.068329036 0.12846363 -0.11900021 0.05606367 0.0937122 0.04408269 -0.033141762
0.09146847 0.09392028 0.0734247 -0.008246918 -0.02105654 0.035874274 -0.0032327485 -0.017210076
0.122455366 0.15450001 0.0049782335 -0.018199777 0.0029174865 -0.009442547 0.034450952 0.041951187
-0.13484661 -0.056397066 0.11825387 0.055809043 -0.0071911192 -0.0854219 -0.086192325 -0.1256081
-0.042871673 0.053183313 0.09685637 0.07059931 -0.121194124 -0.080604844 -0.017828558 0.14019237
0.023316156 -0.033087894 0.06270184 -0.050625846 -0.08833399 0.10728945 -0.061053645 -0.025380416
-0.1373185 0.09879317 0.1105803 0.054258037 -0.09596266 -0.13753322 -0.11184363 0.119326055
0.08264826 0.1364098 0.09162951 0.051410954 0.00052711304 -0.10818697 -0.12302117 -0.13444062
0.056376603 -0.07195155 -0.032327835 -0.08514836 -0.029013595 -0.10155728 -0.09147056 0.05736661
-0.031624164 0.08783339 -0.001375442 -0.061128557 0.01862295 -0.02631449 -0.0031249183 -0.09488536
00000000: 6c15 f13d ac7a fe3d 5d33 f2bc c604 053e
00000010: 960b 0cbd 19e7 b43c 2dc7 a0bd a198 923d
00000020: 2c30 cf3d 7f44 03be a747 cd3d 0b17 943b
00000030: 3a08 ad3d dadb 073b c364 5a3d 3a5e 00bd
00000040: 7adf cf3d 128d 853c e2eb 89bd fcdd 183d
00000050: 4724 7fbd 7f5b 52bc 9720 55bd cf7f ca3d
00000060: 89be dfbd 55e4 82bd 4732 20bd 9fba abbd
00000070: 0efc 6b3c 8d25 0ebe 7291 063e aae0 eabd
00000080: 4a12 ee3d 4c4c fc3c 8960 1ebd cf78 be3d
00000090: ebcc cf3c 5701 ed3d da43 7b3c fb39 3dbd
000000a0: 3b6b 1b3d 53a4 1bbd 932a 893d a7a8 1a3e
000000b0: 6a8c da3d 1161 19bd 1bab da3d 8cc5 4d3d
000000c0: e5d5 af3d d876 95bd 3913 10be d752 60bd
000000d0: c51a dbbd e0a2 f83d 00a6 473d 6863 883d
000000e0: 94ec 5f3d 737e 173c 8cdc f83d 42a2 bbbd
000000f0: d308 963c b792 afbd fe3f 623d e4c1 d0bc
00000100: 9b7c 8a3d 4140 c9bb 8408 0f3e b35b 81bd
00000110: 6f61 88bd 7f4f 87bd 06f6 163e 295f 8b3d
00000120: 3f41 1f3e d9c4 d0bd edc5 02be 0a64 c8bd
00000130: e8d8 a3bd 6a62 9a3d eff1 8f3d 0f05 0d3e
00000140: 6f2a 63bd ee83 a1bd 4d70 c13d f867 1dbd
00000150: aead d83d 38cb 46bc a2bd cf3d c84f bebd
00000160: b7ca 5fbd 3f32 803d 0068 4b3d faa8 f1bc
00000170: 3130 b53d 7f97 c93d 360f d6bd cf05 a0bd
00000180: fee7 033e f198 1abd a3a2 2bbd db6e 03be
00000190: 24c1 abbd 949e 0d3d b042 9abc 101a d0bd
000001a0: 969f b73b 50b8 c1bd b8f6 dbbd 25c0 84bd
000001b0: ef25 e3bd c84a 9ebd bc5c 153e d241 2c3d
000001c0: f0b0 763d 2d60 efbd ff40 a1bd 8998 04bd
000001d0: e147 113d 5b69 fbbd dea0 4bbd 5836 abbd
000001e0: 9c39 c13a 39b4 55bd caea 1cbc 900b c5bd
000001f0: 38f7 c8bd d984 abbd 2e91 4abd b2af e4bd
00000200: b297 f63d e3e8 d3bc 4953 fe3d 2655 383d
00000210: f2db f5bd 110a ca3d 4c77 1fbd ffd7 69bd
00000220: 084c f8bd d3ff 12be 7853 1d3d 8228 03bd
00000230: bb76 5e3d 5d17 eebd 0fa4 d83d a45c d5bd
00000240: a007 d1bc c748 f33c 998d 983d 9755 ee3d
00000250: 4ce2 033e 943d ecbd 6ab9 6b3d bc44 3abd
00000260: 3d62 b9bb 520c c0bd b5ea 173e 4d47 b1bd
00000270: 8105 bf3d e611 933d 3ab0 8c3d 499e 60bd
00000280: 5f56 1d3e 200b 643d 6359 003d a8a6 e7bd
00000290: e51e 9b3d b721 93bb 0dbd 38bd f1c3 163e
000002a0: 4006 633d 229c 50bd c911 3fbd 9774 b13c
000002b0: e57b d93d 6a32 99bc 88c2 8dbd 47e8 17bd
000002c0: 29db bfbd 18f0 8b3d f88b 033e 62b6 f3bd
000002d0: 05a3 653d 2fec bf3d 0d90 343d a8bf 07bd
000002e0: d253 bb3d 4759 c03d b05f 963d 151e 07bc
000002f0: c47e acbc e7f0 123d 85dc 53bb 25fc 8cbc
00000300: e1c9 fa3d 4035 1e3e 7320 a33b b317 95bc
00000310: 4d33 3f3b eab4 1abc 711c 0d3d 02d5 2b3d
00000320: 3b15 0abe 9c00 67bd 162f f23d 0698 643d
00000330: 7ba3 ebbb adf1 aebd 9a85 b0bd 699f 00be
00000340: 359a 2fbd bfd6 593d a25c c63d 5f96 903d
00000350: a034 f8bd 2714 a5bd 320d 92bc 978e 0f3e
00000360: 8601 bf3c 2c87 07bd d369 803d 0c5d 4fbd
00000370: 73e8 b4bd 92ba db3d 6313 7abd 97ea cfbc
00000380: 399d 0cbe 1354 ca3d ed77 e23d ad3d 5e3d
00000390: 1288 c4bd 82d5 0cbe 460e e5bd 3861 f43d
000003a0: 7e43 a93d 03af 0b3e 41a8 bb3d 4b94 523d
000003b0: f52d 0a3a 2191 ddbd 86f2 fbbd cdaa 09be
000003c0: 27eb 663d 565b 93bd 316a 04bd 4362 aebd
000003d0: ebad edbc 43fd cfbd eb54 bbbd 40f9 6a3d
000003e0: 5788 01bd fee1 b33d 2d48 b4ba f061 7abd
000003f0: 288f 983c 7c91 d7bc 6ecb 4cbb 4153 c2bd

conv1.bias f4 [64]
-0.07509672 0.09383696 0.12937458 0.1713384 -0.09449839 0.1609165 0.14428462 0.18929495
0.122264504 -0.018707316 0.13910134 0.18309069 -0.03462597 0.03343429 0.13729335 0.14665382
0.1287083 0.16537441 -0.023604432 0.010272969 -0.028986791 0.11936888 0.058665648 -0.066444986
-0.0013829306 -0.09598409 -0.12839226 0.18342458 -0.03016361 0.10232499 0.0006313832 0.008315508
0.030730212 0.15007378 0.03548924 0.17006537 0.12861095 0.14033648 -0.09194354 -0.052321587
-0.07334496 0.019136 0.024183605 0.05658418 0.18123756 0.11796918 -0.071256414 -0.06916433
0.1633439 0.071237184 0.09901544 -0.02675536 0.020258395 0.074399486 -0.06426001 0.1266419
0.12563367 -0.045118876 -0.023295706 0.018117804 0.06644061 8.465668e-05 0.1889378 -0.108054705
00000000: 4fcc 99bd 982d c03d c57a 043e 5573 2f3e
00000010: 5f88 c1bd 4cc7 243e 59bf 133e 89d6 413e
00000020: d065 fa3d 1640 99bc 9570 0e3e 207c 3b3e
00000030: f6d3 0dbd 65f2 083d a196 0c3e 6b2c 163e
00000040: 1ccc 033e e957 293e 155e c1bc f44f 283c
00000050: b575 edbc ac77 f43d 644b 703d 4f14 88bd
00000060: 7343 b5ba 4e93 c4bd 4379 03be a7d3 3b3e
00000070: ad19 f7bc c48f d13d 6983 253a c53d 083c
00000080: edbd fb3c f1ac 193e 2a5d 113d 9e25 2e3e
00000090: 97b2 033e 5eb4 0f3e e54c bcbd 294f 56bd
000000a0: e235 96bd 1ac3 9c3c b21c c63c d0c4 673d
000000b0: 5796 393e d399 f13d e2ee 91bd 07a6 8dbd
000000c0: a043 273e cde4 913d 9bc8 ca3d 0f2e dbbc
000000d0: eff4 a53c c25e 983d c19a 83bd 6aae 013e
000000e0: 1da6 003e 92ce 38bd a3d6 bebc ca6b 943c
000000f0: 0412 883d b689 b138 e978 413e c94b ddbd

conv2.weight f4 [32, 64, 10]
0.01447223 0.013242141 0.049893115 0.03881154 0.026204417 0.06471754 0.002633926 0.04844891
0.017451864 0.026201766 0.012605002 0.019193683 0.01703299 0.06947344 0.035620403 0.07070267
0.028377794 0.039582353 0.053870372 0.08196332 0.041716713 0.074314944 0.064498715 0.07698382
0.07598655 0.06801075 0.040588237 0.038138516 0.06755844 0.0748172 0.06295709 0.08585786
0.041790847 0.08803539 0.06408426 0.039843522 0.047993056 0.037177574 0.07529744 0.0442888
0.028524475 0.037741877 0.014512193 0.04021697 0.03603367 0.053089853 0.06995038 0.01810956
0.06399514 0.039618112 0.032221243 0.03683002 0.06570299 0.062328365 0.055038046 0.033892922
0.07426911 0.060820427 0.016622378 0.04934434 0.039645307 0.034823682 0.029840365 0.020686697
0.09137672 0.017060308 0.09033189 0.022762079 0.04569365 0.039287236 0.038819015 0.07261269
0.081140816 0.032432817 0.04055825 0.07893538 0.05439861 0.069333866 0.07922952 0.04294953
0.03511802 0.06885606 0.041418493 0.027964763 0.034182753 0.036647078 0.09348772 0.061976235
0.07179874 0.060580224 0.0079969065 0.06740097 0.03390631 0.03521068 0.07212223 0.023053588
0.052849248 0.01611966 0.06789632 0.065040335 0.032706544 0.08688026 0.07010008 0.04404326
0.09872421 0.0820157 0.079656176 0.050048474 0.043922342 0.04539977 0.06885389 0.06457051
0.030288888 0.08967226 0.07746571 0.038252797 0.07451363 0.034582555 0.0650733 0.08686126
0.005554291 0.022392841 0.0400457 0.04727595 0.008965068 0.013736972 0.037426874 0.036332756
0.051012453 0.04642698 0.05731441 0.05196391 0.05854139 0.045021713 0.0662323 0.07867973
0.029911336 0.02731153 0.07063281 0.020665519 0.08839529 0.08263569 0.07046681 0.048330158
0.066744186 0.035450976 0.030737665 0.104059085 0.031516198 0.034022458 0.04666335 0.063725576
0.07035788 0.040815137 0.05763893 0.05156832 0.093109444 0.09476253 0.07523973 0.060485404
0.08218018 0.020371426 0.07004443 0.03375108 0.08718155 0.02207578 0.073920436 0.02784197
0.082995504 0.06980714 0.086580284 0.021612864 0.0774109 0.022778757 0.030497836 0.069888905
0.0488446 0.025096036 0.024543244 0.049633596 0.053589668 0.07885387 0.069623396 0.042409282
0.017438177 0.004935347 0.0769445 0.018048989 0.032350264 0.010011146 0.0072931787 0.03682908
0.029198708 0.04139857 0.0411471 0.04009265 0.03167347 0.038938392 0.05756185 0.07278627
0.0730715 0.008294033 0.0061270446 0.031464044 0.039227363 0.06385494 0.07669093 0.04931464
0.011615655 0.03752841 0.07608914 0.066940926 0.022543985 0.055816155 0.017872036 0.038409255
0.08550946 0.03699794 0.08080278 0.025153821 0.09036207 0.07656663 0.082235254 0.065923534
0.059590686 0.039739475 0.03869256 0.032732237 0.094174884 0.04806007 0.03233386 -0.0016076314
0.041422457 0.016058143 -0.0011573347 0.031597327 -0.0060961153 0.022805998 0.0020317778 0.06555402
-0.00067106483 0.043053016 0.06276738 0.006961492 0.067710824 0.07533723 0.023222255 0.053654227
0.06150168 0.07716606 0.059560366 -0.0028825533 0.008571031 0.0044356557 0.024214223 0.035121057
00000000: ef1c 6d3c 91f5 583c b95c 4c3d d9f8 1e3d
00000010: a5aa d63c a18a 843d f29d 2c3b 5d72 463d
00000020: 36f7 8e3c 16a5 d63c 3685 4e3c 123c 9d3c
00000030: c588 8b3c 1748 8e3d b3e6 113d 90cc 903d
00000040: 8c78 e83c 1b21 223d 2ea7 5c3d 63dc a73d
00000050: 25df 2a3d 6f32 983d e717 843d b1a9 9d3d
00000060: d69e 9b3d 3849 8b3d da3f 263d 2237 1c3d
00000070: 145c 8a3d c339 993d a6ef 803d 3fd6 af3d
00000080: e12c 2b3d e64b b43d 9c3e 833d f632 233d
00000090: 5e94 443d 8347 183d 8b35 9a3d 2c68 353d
000000a0: 29ac e93c 3a97 1a3d 8dc4 6d3c 8dba 243d
000000b0: 0b98 133d bf74 593d 2542 8f3d 805a 943c
000000c0: e20f 833d 9a46 223d 6cfa 033d 13db 163d
000000d0: 4a8f 863d 074c 7f3d 936f 613d 4ed3 0a3d
000000e0: 671a 983d d71e 793d a72b 883c 4a1d 4a3d
000000f0: 1e63 223d 47a3 0e3d c873 f43c 2677 a93c
00000100: b823 bb3d 0fc2 8b3c edff b83d 8a77 ba3c
00000110: 4429 3b3d a7eb 203d b000 1f3d f6b5 943d
00000120: 282d a63d 46d8 043d 6820 263d dfa8 a13d
00000130: 14d1 5e3d eafe 8d3d 1643 a23d d9eb 2f3d
00000140: ead7 0f3d 6804 8d3d 70a6 293d 5c16 e53c
00000150: 3703 0c3d 3f1b 163d 7d76 bf3d cbda 7d3d
00000160: 380b 933d f822 783d 7505 033c 8509 8a3d
00000170: 58e1 0a3d 1339 103d d2b4 933d e1da bc3c
00000180: 7478 583d 610d 843c 3a0d 8b3d de33 853d
00000190: 4cf7 053d 47ee b13d a190 8f3d b566 343d
000001a0: eb2f ca3d d9f7 a73d c722 a33d a1ff 4c3d
000001b0: eae7 333d 1cf5 393d 4503 8d3d 8b3d 843d
000001c0: 6720 f83c 17a6 b73d 58a6 9e3d f7ae 1c3d
000001d0: 9a9a 983d 70a6 0d3d 2645 853d 51e4 b13d
000001e0: c500 b63b 3171 b73c f606 243d 6da4 413d
000001f0: 38e2 123c 0911 613c ec4c 193d a8d1 143d
00000200: 6ff2 503d 382a 3e3d 84c2 6a3d 1cd8 543d
00000210: 19c9 6f3d b068 383d cda4 873d d722 a13d
00000220: 9e08 f53c 6ebc df3c efa7 903d bc4a a93c
00000230: 9708 b53d e73c a93d e750 903d d8f5 453d
00000240: 2db1 883d 0b35 113d 8ecd fb3c ee1c d53d
00000250: 2117 013d 225b 0b3d 1222 3f3d 8e82 823d
00000260: cb17 903d c62d 273d cc16 6c3d 4d39 533d
00000270: 2ab0 be3d db12 c23d 4a17 9a3d 8bbf 773d
00000280: 154e a83d fae1 a63c 7473 8f3d 933e 0a3d
00000290: 3e8c b23d 44d8 b43c 9963 973d d814 e43c
000002a0: 8cf9 a93d 0cf7 8e3d 0151 b13d 760d b13c
000002b0: 9b89 9e3d 849a ba3c 99d6 f93c ea21 8f3d
000002c0: 4611 483d 3496 cd3c ea0e c93c 994c 4b3d
000002d0: d780 5b3d 237e a13d b696 8e3d 5bb5 2d3d
000002e0: 82da 8e3c b1b8 a13b 1495 9d3d 79db 933c
000002f0: b681 043d ca05 243c 9efb ee3b 17da 163d
00000300: 2132 ef3c 8c91 293d dd89 283d 3138 243d
00000310: 0abc 013d dd7d 1f3d f9c5 6b3d f810 953d
00000320: 83a6 953d b2e3 073c 60c5 c83b 71e0 003d
00000330: dfac 203d 61c6 823d 2210 9d3d 26fe 493d
00000340: 974f 3e3c 64b7 193d 9fd4 9b3d 5318 893d
00000350: 2aae b83c 7b9f 643d 6068 923c 0653 1d3d
00000360: 951f af3d 278b 173d ee7b a53d 630f ce3c
00000370: c00f b93d f7ce 9c3d f56a a83d eb02 873d
00000380: 5d15 743d dcc5 223d 177c 1e3d 3d12 063d
00000390: c3de c03d a3da 443d 8270 043d 29b7 d2ba
000003a0: 98aa 293d 5e8c 833c b5b1 97ba 336c 013d
000003b0: ecc1 c7bb a5d3 ba3c 9327 053b 3041 863d
000003c0: 66ea 2fba 5c58 303d 2f8c 803d 3a1d e43b
000003d0: f9ab 8a3d 684a 9a3d 993c be3c 89c4 5b3d
000003e0: 30e9 7b3d 3d09 9e3d 92f5 733d 38e9 3cbb
000003f0: 826d 0c3c fa58 913b e85c c63c 19db 0f3d

conv2.bias f4 [32]
0.10326913 0.077935584 0.0938742 0.059772458 0.028207755 -0.0155433025 -0.007522687 0.02195787
-0.024463963 0.08098271 -0.053817634 -0.040877603 0.03497746 0.009249737 -0.054825243 0.09482805
0.0723759 -0.06473857 0.044144638 0.062014706 0.036658436 -0.020185947 -0.06867527 -0.03781312
-0.0005049953 -0.031185513 -0.036500752 0.049031615 0.0027203793 0.05634501 0.04856691 -0.060579665
00000000: c47e d33d b19c 9f3d 1e41 c03d f7d3 743d
00000010: f313 e73c 56a9 7ebc df80 f6bb fee0 b33c
00000020: a668 c8bc 43da a53d e16f 5cbd 466f 27bd
00000030: 8644 0f3d 358c 173c 6f90 60bd 3535 c23d
00000040: d139 943d a895 84bd 02d1 343d 2203 7e3d
00000050: 2827 163d 005d a5bc 9fa5 8cbd eee1 1abd
00000060: a961 04ba c378 ffbc d081 15bd 60d5 483d
00000070: 6448 323b 06ca 663d 19ee 463d 6222 78bd

conv3.weight f4 [16, 32, 5]
0.02899408 0.115294255 0.09151167 0.039511092 0.06343978 0.06034634 0.00057754805 0.06906028
0.07490718 0.03240069 0.08861817 0.070246816 -0.0041704187 0.06052284 0.07502643 0.09828655
-0.01511005 -0.033861533 -0.0020763783 0.03771338 0.00393353 0.04271962 0.003666207 0.00033520788
0.08502683 0.07095774 0.04300731 0.087195545 0.013407238 0.042580973 0.09065321 0.09783422
0.054979395 -0.035155408 0.0514605 0.0936295 0.06367989 -0.0440116 0.009212851 -0.0032918574
-0.03882719 -0.033448126 0.083431594 -0.018322608 -0.015319717 0.027793735 0.054752316 0.10812294
-0.018749952 0.026300132 0.019322949 0.054179702 -0.01168852 0.0107528325 -0.010247596 0.014204886
0.07297649 -0.0014276572 0.021400161 -0.019791655 0.054435004 -0.018422741 0.050675396 -0.046359234
0.063221015 0.078269675 -0.010841517 0.04114676 -0.0014301769 0.0069930525 0.06406731 -0.014054401
0.06819962 0.06980666 0.10195095 0.012436928 -0.032214005 0.092770785 0.027083948 0.009906006
-0.0019649782 0.10775219 -0.026548319 0.045522746 0.045686882 -0.02074307 0.06713924 0.060237758
0.07025964 0.03653011 0.061414488 0.056769073 0.015889551 -0.01908202 0.044469766 0.04310701
0.086557664 0.050978992 0.037790548 0.009605154 0.10567547 0.10695798 0.11475052 0.031817384
0.0004548674 -0.03166521 -0.045459554 -0.0309296 0.007066416 0.093942426 -0.04059182 0.008762591
0.0640469 0.069432825 0.035747193 0.014537109 0.03606444 -0.017235734 0.07125161 0.07850543
0.024670826 0.06539919 0.057894878 -0.062734 -0.01975194 -0.03920517 0.05990298 -0.039822653
-0.009726756 -0.043692295 0.072669834 -0.021808403 -0.038849656 0.00039763993 0.058470216 0.014635505
0.07380904 0.044183683 0.00834665 0.0366111 0.06509402 -0.026074797 0.09018005 0.037883636
0.06058031 0.026197983 0.09651454 -0.024602136 0.0016710564 0.084853664 -0.012593895 0.10243593
-0.0023487105 -0.046333607 0.109779455 0.09650419 0.06467452 -0.035603017 0.049231436 0.013276432
0.040955994 -0.01690243 -0.041562878 -0.11478413 -0.06349205 0.022129329 -0.09866897 -0.030073643
-0.09914163 -0.045967117 -0.059925564 -0.052451 -0.044462908 -0.064711474 -0.0713122 -0.0012306776
-0.028277176 -0.07953114 0.00085564563 0.03821552 0.007544734 -0.001270528 -0.05100262 0.0218701
-0.06723353 0.006917561 0.04017524 -0.041350078 -0.07468199 -0.00834988 -0.043082345 0.013214603
-0.06676392 0.022842007 0.023564085 0.0061813183 -0.02183651 -0.06321428 0.021915728 -0.04862195
-0.059416942 0.029232536 -0.0515393 0.0037856281 0.0012977724 -0.072698146 0.00829311 -0.050595358
-0.0023284422 -0.09650564 -0.0050020143 0.03207637 -0.06807121 0.04210899 -0.081490844 -0.0077362186
-0.0070279087 -0.031910755 -0.004473201 -0.010480019 -0.06733844 -0.096902214 -0.0895925 -0.034100488
-0.031972863 -0.04992895 -0.041822348 -0.10799057 -0.11312985 -0.068893045 -0.10123763 0.00787261
-0.056838714 -0.06891375 -0.02258479 -0.023294546 0.0017664847 -0.03686375 -0.0123382 -0.020181041
0.03087671 -0.016107555 -0.008172842 -0.036243755 -0.0035147644 -0.049307488 -0.08337327 -0.087846786
0.002603047 -0.037097007 0.03414924 0.0039294506 0.025424615 -0.05382045 0.007576052 -0.027500097
00000000: fe84 ed3c 651f ec3d 786a bb3d 62d6 213d
00000010: b7ec 813d b92d 773d 9866 173a 7a6f 8d3d
00000020: f068 993d 96b6 043d 717d b53d 90dd 8f3d
00000030: 02a8 88bb cce6 773d 75a7 993d 754a c93d
00000040: 2590 77bc 64b2 0abd d913 08bb 5879 1a3d
00000050: d7e4 803b c5fa 2e3d bf44 703b d7be af39
00000060: 8c22 ae3d 4b52 913d 6f28 303d 9493 b23d
00000070: 08aa 5b3c 6369 2e3d 64a8 b93d 4f5d c83d
00000080: 1332 613d 1eff 0fbd 3fc8 523d d3c0 bf3d
00000090: 9a6a 823d 8245 34bd 7ff1 163c 34bc 57bb
000000a0: 4209 1fbd e700 09bd 2fde aa3d 4b19 96bc
000000b0: 8dff 7abc b0af e33c f743 603d 8f6f dd3d
000000c0: 8099 99bc 6073 d73c 294b 9e3c 89eb 5d3d
000000d0: 3581 3fbc a62c 303c 88e5 27bc 9cbb 683c
000000e0: b374 953d 3a20 bbba 644f af3c 1c22 a2bc
000000f0: 3df7 5e3d 4aeb 96bc 0191 4f3d 2ee3 3dbd
00000100: 057a 813d da4b a03d 9ea0 31bc 8189 283d
00000110: c674 bbba fa25 e53b b935 833d 6e44 66bc
00000120: 3eac 8b3d cbf6 8e3d a9cb d03d 42c4 4b3c
00000130: d5f2 03bd 9cfe bd3d 28df dd3c cd4c 223c
00000140: ddc6 00bb 2ead dc3d dc7b d9bc 0f76 3a3d
00000150: 2b22 3b3d 5fed a9bc 4c80 893d debb 763d
00000160: 49e4 8f3d 99a0 153d c28d 7b3d b086 683d
00000170: ce2a 823c e551 9cbc ee25 363d fa90 303d
00000180: 2545 b13d 59cf 503d 43ca 1a3d f05e 1d3c
00000190: 616c d83d c90c db3d 5202 eb3d f252 023d
000001a0: 457b ee39 61b3 01bd cc33 3abd 1360 fdbc
000001b0: 658d e73b e364 c03d 9c43 26bd f890 0f3c
000001c0: 052b 833d cc32 8e3d a66b 123d 0e2d 6e3c
000001d0: 4eb8 133d f431 8dbc 5dec 913d 74c7 a03d
000001e0: 791a ca3c 03f0 853d 2e23 6d3d af7a 80bd
000001f0: d2ce a1bc 9a95 20bd d45c 753d 141d 23bd
00000200: f95c 1fbc b1f6 32bd ecd3 943d 89a7 b2bc
00000210: d120 1fbd 547a d039 777e 6f3d c2c9 6f3c
00000220: 3229 973d f3f9 343d 63c0 083c 85f5 153d
00000230: 0350 853d d09a d5bc 51b0 b83d df2b 1b3d
00000240: 0f23 783d 279d d63c 6aa9 c53d 6b8a c9bc
00000250: 5907 db3a c2c7 ad3d a056 4ebc eec9 d13d
00000260: d3ec 19bb 4fc8 3dbd 0dd4 e03d fda3 c53d
00000270: 1374 843d 78d4 11bd e7a6 493d 6485 593c
00000280: 79c1 273d f776 8abc d63d 2abd f113 ebbd
00000290: 1f08 82bd 9148 b53c f512 cabd 005d f6bc
000002a0: c40a cbbd 0448 3cbd 8274 75bd dcd6 56bd
000002b0: bd1e 36bd 7387 84bd 210c 92bd b04e a1ba
000002c0: 89a5 e7bc 39e1 a2bd 684d 603a e187 1c3d
000002d0: d139 f73b d887 a6ba 20e8 50bd ed28 b33c
000002e0: bcb1 89bd b5ac e23b cb8e 243d b35e 29bd
000002f0: dff2 98bd efcd 08bc 1d77 30bd 1082 583c
00000300: 86bb 88bd 291f bb3c 7809 c13c a88c ca3b
00000310: 7be2 b2bc 7d76 81bd 9d88 b33c cf27 47bd
00000320: 2e5f 73bd 1279 ef3c df1a 53bd 4d18 783b
00000330: 041a aa3a c4e2 94bd d3df 073c 143d 4fbd
00000340: c798 18bb c0a4 c5bd f0e7 a3bb 8362 033d
00000350: eb68 8bbd 7a7a 2c3d ace4 a6bd 1b80 fdbb
00000360: 5f4a e6bb dab4 02bd ee93 92bb 63b4 2bbc
00000370: bce8 89bd ab74 c6bd 467c b7bd f4ac 0bbd
00000380: faf5 02bd 4c82 4cbd e94d 2bbd 292a ddbd
00000390: 9fb0 e7bd cc17 8dbd ad55 cfbd 1ffc 003c
000003a0: b6cf 68bd a722 8dbd bd03 b9bc 34d4 bebc
000003b0: 6489 e73a 72fe 16bd 2926 4abc b652 a5bc
000003c0: 27f1 fc3c fef3 83bc 62e7 05bc 5574 14bd
000003d0: f657 66bb a6f6 49bd 9bbf aabd 04e9 b3bd
000003e0: e297 2a3b 08f3 17bd 13e0 0b3d 9fc2 803b
000003f0: 4847 d03c d572 5cbd 8840 f83b e247 e1bc

conv3.bias f4 [16]
0.108398944 -0.026911523 0.059516273 0.014813653 0.015102123 -0.103436925 -0.10246985 0.026987446
-0.0854107 0.013358066 0.050540686 -0.062025346 0.0041442355 0.099614814 0.040354498 -0.07989978
00000000: 4400 de3d 8e75 dcbc 56c7 733d f7b4 723c
00000010: e56e 773c bdd6 d3bd b6db d1bd c714 dd3c
00000020: ceeb aebd cadb 5a3c c003 4f3d 4a0e 7ebd
00000030: 5ecc 873b da02 cc3d c24a 253d 7fa2 a3bd

lstm.weight_ih_l0 f4 [128, 16]
0.21890756 0.010248632 0.015476317 0.06095934 -0.06604165 -0.19047147 0.05189588 0.1919756
0.15086058 0.1890533 0.16096017 0.07425823 0.088175505 -0.05200839 0.11241593 0.1759595
-0.08680607 -0.20722306 0.027536394 -0.14664891 0.0036950791 0.122639485 0.004717741 0.22700816
-0.03403877 0.013770866 0.060052674 -0.08444774 0.037386633 -0.019251287 -0.15971375 -0.017627435
-0.018175483 0.035331883 -0.023289347 -0.04326202 -0.23486061 0.11489927 -0.025424004 -0.18377584
0.18307273 -0.07085996 -0.1771995 -0.07648128 -0.097908564 -0.16781591 0.064133346 -0.06329824
-0.033590592 0.19802973 0.012391862 0.035288054 -0.029526876 0.0093770595 -0.047231495 -0.027002947
-0.12858234 -0.032341544 0.11146084 0.045632914 0.16389398 -0.037987795 -0.16405405 -0.00014149937
0.22262155 0.04626103 0.21782503 0.13899073 0.17600472 0.010246478 0.078047685 -0.047455568
0.021145629 0.10003199 -0.04834887 -0.15244588 -0.032163568 0.0735004 -0.0010910974 0.09272874
-0.036428098 0.2117668 -0.030376878 0.15147974 0.21276806 0.19155216 -0.02987372 -0.038787104
-0.065521784 -0.06984243 0.008802711 -0.01953545 0.12045555 0.2183349 0.09723007 0.031853236
-0.020394765 -0.09516359 0.19213206 -0.19766448 0.021681566 -0.2015695 -0.033912405 -0.08818072
-0.16295351 0.016397249 -0.05275004 0.007016486 0.19788837 0.011247902 0.03217668 -0.102434196
0.18477137 0.21548343 0.0037651267 -0.096013576 0.20572989 0.15479065 0.14153846 0.082904086
0.07274337 0.08908474 0.09135692 -0.02748424 0.11848119 0.23392713 -0.023264308 -0.10865497
-0.043112047 0.04108976 0.14220189 0.06400649 0.23649457 0.08299668 0.14221933 -0.08582527
0.11961817 0.16277912 0.10956565 0.09742229 -0.08105994 0.24873658 0.01898349 -0.14241324
0.104238175 0.059401 0.15856826 0.12597351 0.07448432 0.069334716 0.19664282 0.117236815
0.087701626 -0.05446151 -0.094690956 0.027323207 -0.083889216 0.047440313 -0.19809744 -0.20235908
-0.023040134 -0.1287845 0.16254303 0.08757998 0.01047853 0.19342649 0.13694394 0.16754776
-0.11990087 -0.10063462 -0.005952322 0.14759386 -0.092013836 -0.057703122 0.040158734 0.0953666
0.16859001 0.07802564 0.040977057 -0.031302936 0.06576965 0.14326817 -0.0789771 -0.09496221
-0.002230608 0.060347207 0.15197569 0.09943235 0.23908295 0.0026107794 0.090991326 -0.08877248
-0.10649275 -0.13299505 0.10875966 -0.123483576 -0.06523237 0.021775005 -0.16393797 0.03035955
-0.14927246 0.11436707 0.11043417 0.10838408 0.14704983 0.1528143 0.07731778 0.071981095
0.0638766 -0.0815345 0.07652208 -0.15425032 -0.11705258 -0.028619329 -0.048144873 -0.020464642
0.077852696 -0.030077895 0.21826886 -0.1267154 -0.1041961 0.10771821 -0.012013866 0.005240128
0.12026131 -0.07047958 -0.10307197 0.083770275 0.007241321 0.11078871 -0.04323097 0.20366868
0.03830888 -0.015509483 0.0069720065 0.13772239 0.21230967 -0.119355515 -0.10189366 -0.079595454
0.11406494 -0.08116075 -0.048795834 0.06165879 0.072900504 -0.08495029 0.1591393 0.22509447
-0.07610217 0.22565497 0.116078466 0.05589329 0.008159647 0.22501853 0.15703923 -0.122467026
00000000: 4e29 603e e1e9 273c 6190 7d3c 80b0 793d
00000010: d840 87bd f40a 43be c690 543d 4095 443e
00000020: 327b 1a3e 3097 413e bed2 243e b314 983d
00000030: 5c95 b43d c006 55bd 533a e63d ba2e 343e
00000040: 61c7 b1bd 4832 54be 0194 e13c 222b 16be
00000050: 2429 723b 692a fb3d 4897 9a3b d474 683e
00000060: 3d6c 0bbd 339f 613c cbf9 753d f0f2 acbd
00000070: ba22 193d e0b4 9dbc 008c 23be 6967 90bc
00000080: c0e4 94bc 2ab8 103d 4dc9 bebc 8433 31bd
00000090: 4d7f 70be 4f50 eb3d 0046 d0bc bc2f 3cbe
000000a0: 6b77 3b3e 071f 91bd c973 35be 38a2 9cbd
000000b0: 4984 c8bd efd7 2bbe 5858 833d 82a2 81bd
000000c0: 4a96 09bd 4ec8 4a3e 3d07 4b3c 358a 103d
000000d0: 59e2 f1bc 3da2 193c d075 41bd 4935 ddbc
000000e0: 17ab 03be 9178 04bd 9545 e43d 94e9 3a3d
000000f0: d3d3 273e 1799 1bbd c9fd 27be 735f 14b9
00000100: e7f6 633e 357c 3d3d 860d 5f3e 9653 0e3e
00000110: 953a 343e d8e0 273c 77d7 9f3d c560 42bd
00000120: 9939 ad3c 92dd cc3d 7709 46bd c61a 1cbe
00000130: f2bd 03bd 6187 963d 2703 8fba 91e8 bd3d
00000140: a135 15bd 65d9 583e eed8 f8bc 811d 1b3e
00000150: dfdf 593e 4026 443e bbb9 f4bc 3adf 1ebd
00000160: 4930 86bd 8c09 8fbd 3f39 103c cf08 a0bc
00000170: 66b1 f63d 2f93 5f3e 8f20 c73d 8a78 023d
00000180: ec12 a7bc 21e5 c2bd 44be 443e 8f68 4abe
00000190: 8a9d b13c 3c68 4ebe bce7 0abd 1898 b4bd
000001a0: 49dd 26be 8653 863c 6d10 58bd 8dea e53b
000001b0: 40a3 4a3e 1f49 383c b2cb 033d 05c9 d1bd
000001c0: b534 3d3e b0a7 5c3e 58c0 763b c4a2 c4bd
000001d0: dbaa 523e 7181 1e3e 75ef 103e 9ec9 a93d
000001e0: 7afa 943d 0f72 b63d 5619 bb3d a126 e1bc
000001f0: 44a6 f23d 988a 6f3e ca94 bebc 7f86 debd
00000200: 4296 30bd bc4d 283d 5f9d 113e d615 833d
00000210: a22b 723e 2afa a93d f2a1 113e 29c5 afbd
00000220: 5ffa f43d 92af 263e f563 e03d 5685 c73d
00000230: c102 a6bd cdb4 7e3e 4483 9b3c c7d4 11be
00000240: d37a d53d 774e 733d b85f 223e 33ff 003e
00000250: 3c8b 983d 5cff 8d3d bc5c 493e db19 f03d
00000260: e99c b33d 0813 5fbd 55ed c1bd ebd4 df3c
00000270: 1cce abbd c650 423d 0eda 4abe 3837 4fbe
00000280: aabe bcbc 15e0 03be ae71 263e 225d b33d
00000290: 24ae 2b3c 9811 463e 083b 0c3e a491 2b3e
000002a0: 968e f5bd 8619 cebd b20b c3bb d822 173e
000002b0: c071 bcbd 1c5a 6cbd 7c7d 243d 904f c33d
000002c0: dca2 2c3e e8cb 9f3d 8fd7 273d 8237 00bd
000002d0: 3db2 863d e4b4 123e bfbe a1bd 8c7b c2bd
000002e0: 642f 12bb a22e 773d 849f 1b3e 30a3 cb3d
000002f0: 29d2 743e 9c19 2b3b a959 ba3d 59ce b5bd
00000300: df18 dabd db2f 08be 62bd de3d f5e4 fcbd
00000310: 8c98 85bd 7f61 b23c 5bdf 27be 97b4 f83c
00000320: e1da 18be 4839 ea3d 4f2b e23d 79f8 dd3d
00000330: 3b94 163e 5a7b 1c3e c958 9e3d d36a 933d
00000340: bcd1 823d 8ffb a6bd 9cb7 9c3d ccf3 1dbe
00000350: 43b9 efbd 1573 eabc 8f33 45bd 77a5 a7bc
00000360: 3c71 9f3d eb65 f6bc df81 5f3e afc1 01be
00000370: c464 d5bd 5d9b dc3d ced5 44bc 61b5 ab3b
00000380: 904b f63d 9957 90bd 6617 d3bd c08f ab3d
00000390: 9a48 ed3b 31e5 e23d f512 31bd 868e 503e
000003a0: c6e9 1c3d 7d1b 7ebc 6e75 e43b 1907 0d3e
000003b0: b567 593e aa70 f4bd a0ad d0bd f102 a3bd
000003c0: e19a e93d 9b37 a6bd 24de 47bd ed8d 7c3d
000003d0: dc4c 953d 6bfa adbd 6af5 223e 2a7f 663e
000003e0: 74db 9bbd 1912 673e 8cba ed3d 5df0 643d
000003f0: 0ab0 053c 426b 663e e4ce 203e fecf fabd

lstm.weight_hh_l0 f4 [128, 32]
0.049200352 0.11895706 -0.033680692 0.018321019 -0.14334804 -0.1613289 0.20989873 -0.011234395
-0.18585435 0.09560475 0.08113396 0.12524985 -0.02776419 -0.16391061 0.032849073 0.057981957
-0.22216901 0.13195962 -0.076349735 0.08755714 -0.107755676 -0.23464614 -0.08513056 0.19670893
0.079947345 0.11656356 0.08844092 0.10957004 -0.05086345 -0.14920852 0.063948475 -0.09143102
-0.04973192 0.14894058 -0.2332346 0.07866736 0.09398953 -0.040456705 -0.0730382 -0.23692323
-0.04145348 -0.19570349 0.07724851 0.1143648 -0.180767 -0.20735273 0.14448693 -0.05497444
-0.040520888 0.15050575 -0.072599195 -0.14996661 -0.030961417 -0.04017832 -0.16774502 -0.017413957
-0.109024726 0.058505397 -0.08194654 -0.1712785 0.10197304 -0.115288295 0.054348342 -0.07404305
0.052289885 -0.015131219 -0.13511275 0.0692271 0.13335995 -0.07149493 0.04349356 -0.057628788
0.024623543 -0.049225844 -0.01874595 -0.07082083 -0.039391275 -0.09030361 0.07901351 -0.115410164
0.017639471 -0.061631653 -0.073425226 0.074104294 0.15999188 0.18345548 0.19389658 -0.044776216
-0.029320542 -0.07951314 0.09871317 0.13293098 -0.013322366 -0.06696599 0.059902314 0.08890185
0.0644612 0.031650323 0.094901316 0.08300839 0.07982032 0.09792407 -0.0849588 0.10503468
0.06032262 -0.010332468 0.14886561 0.07746499 -0.05482823 0.020962417 0.072349735 0.23141347
-0.14906526 0.13486235 -0.06475043 -0.21553217 0.09082055 0.100402184 0.11142706 0.059203498
-0.076721795 0.06773304 -0.09337674 0.028828517 -0.16735536 -0.07849695 -0.008635058 -0.11132245
0.040311478 0.120394714 0.03621101 -0.04533723 0.078591466 0.02670499 0.074683756 0.04274017
0.10542591 -0.069977075 0.2219617 -0.05327935 -0.118697576 0.035908066 -0.072400965 -0.027909236
0.10783319 -0.030949842 0.1355784 0.06741482 -0.046544358 -0.17248598 -0.1777852 0.09311981
0.07089837 0.16984344 -0.053656776 -0.20581236 -0.14596382 -0.13559884 0.12077878 -0.01599088
0.000908329 -0.068424135 0.1910233 -0.20320353 -0.06984872 0.015953865 0.18513112 -0.23152517
-0.211034 0.080639064 0.04633782 0.128434 0.17181817 0.08126072 -0.08998457 0.0076339818
-0.19051404 -0.057601046 0.15865302 0.061496668 0.04794963 -0.12553743 -0.15103443 0.009182934
-0.004229102 0.14389448 0.078982815 0.028797204 0.027944477 5.837662e-05 0.056977227 0.10137476
-0.12433988 0.0927068 -0.19963077 -0.17224337 -0.107925236 -0.16272241 0.02849571 0.13520682
0.05991183 -0.016760701 -0.014452007 -0.03864064 0.01787526 -0.08442516 0.026715642 -0.10316395
0.06943037 0.048183676 -0.024104273 -0.019523097 -0.12270489 -0.1780117 -0.0682426 -0.12655963
-0.10799244 0.11224931 -0.08029527 0.04550179 0.13973047 0.005603541 -0.08388933 -0.029094994
-0.10514828 0.044434372 -0.10653854 -0.115509406 -0.019271111 -0.23076588 -0.07426129 0.014624706
-0.10787792 -0.16356324 0.071233585 0.1647079 0.1328283 -0.098742045 0.041295074 0.15410744
0.09973724 -0.026278762 0.13394322 -0.10454209 0.11783042 0.024477184 -0.2180592 0.0025168476
-0.0056194263 -0.06948508 -0.12522437 -0.045855943 -0.18173298 -0.06362375 -0.06517901 -0.1059525
00000000: 4f86 493d c29f f33d c4f4 09bd f615 963c
00000010: d4c9 12be 6733 25be b1ef 563e 7810 38bc
00000020: 9a50 3ebe 6ccc c33d 9029 a63d 7f41 003e
00000030: ba71 e3bc 2fd8 27be c08c 063d 7d7e 6d3d
00000040: 4680 63be 6c20 073e 405d 9cbd 2851 b33d
00000050: 02af dcbd 1447 70be ee58 aebd 116e 493e
00000060: 6fbb a33d e0b8 ee3d 8320 b53d 4266 e03d
00000070: 3156 50bd 1eca 18be 6bf7 823d 3040 bbbd
00000080: b3b3 4bbd e183 183e 0dd5 6ebe 5a1c a13d
00000090: 957d c03d eeb5 25bd 0d95 95bd 019c 72be
000000a0: 20cb 29bd 7f66 48be 7834 9e3d 1838 ea3d
000000b0: fc1a 39be 4654 54be 62f4 133e e12c 61bd
000000c0: 3bf9 25bd 2e1e 1a3e e3ae 94bd d990 19be
000000d0: cca2 fdbc 0692 24bd 5ac5 2bbe b7a7 8ebc
000000e0: 5b48 dfbd 5ba3 6f3d 96d3 a7bd a263 2fbe
000000f0: 3ed7 d03d 451c ecbd 5e9c 5e3d e2a3 97bd
00000100: eb2d 563d efe8 77bc ff5a 0abe f0c6 8d3d
00000110: 838f 083e ef6b 92bd 4e26 323d 2a0c 6cbd
00000120: 50b7 c93c 0aa1 49bd 1b91 99bc 830a 91bd
00000130: bf58 21bd 19f1 b8bd d6d1 a13d 2a5c ecbd
00000140: a780 903c 7971 7cbd f75f 96bd fec3 973d
00000150: e9d4 233e c1db 3b3e d38c 463e 4467 37bd
00000160: a231 f0bc c9d7 a2bd 212a ca3d 0f1f 083e
00000170: 0e46 5abc 7725 89bd 215c 753d 2c12 b63d
00000180: 3c04 843d c5a3 013d 9f5b c23d 4e00 aa3d
00000190: d678 a33d 6a8c c83d e1fe adbd 6c1c d73d
000001a0: da14 773d 8349 29bc 3a70 183e f7a5 9e3d
000001b0: 9193 60bd 60b9 ab3c 192c 943d a7f7 6c3e
000001c0: 90a4 18be 5b19 0a3e e09b 84bd 77b4 5cbe
000001d0: 2000 ba3d a99f cd3d df33 e43d 5e7f 723d
000001e0: 5120 9dbd 9fb7 8a3d 4e3c bfbd c829 ec3c
000001f0: 345f 2bbe 02c3 a0bd 0f7a 0dbc 06fd e3bd
00000200: a61d 253d 8191 f63d ff51 143d 88b3 39bd
00000210: 90f4 a03d 6cc4 da3c ccf3 983d 5110 2f3d
00000220: 8ae9 d73d 2450 8fbd ee49 633e 733b 5abd
00000230: b717 f3bd 5614 133d f546 94bd e9a1 e4bc
00000240: a6d7 dc3d 868a fdbc 10d5 0a3e c810 8a3d
00000250: 4ca5 3ebd 2aa0 30be 530d 36be 99b5 be3d
00000260: 2a33 913d 70eb 2d3e 35c7 5bbd 7ac0 52be
00000270: 8a77 15be 6cda 0abe dd5a f73d 4eff 82bc
00000280: ed1c 6e3a f421 8cbd 9d9b 433e 9614 50be
00000290: d90c 8fbd aeb1 823c 0393 3d3e ef14 6dbe
000002a0: 4c19 58be 1826 a53d bacc 3d3d 3484 033e
000002b0: 1af1 2f3e 056c a63d d549 b8bd 7b26 fa3b
000002c0: 1d16 43be 13ef 6bbd f075 223e eee3 7b3d
000002d0: d566 443d e28c 00be c5a8 1abe 0474 163c
000002e0: 4794 8abb 1359 133e bec1 a13d 1de8 eb3c
000002f0: d1eb e43c 6bd9 7438 f460 693d 929d cf3d
00000300: e8a5 febd 10dd bd3d 026c 4cbe 9160 30be
00000310: e807 ddbd b4a0 26be d66f e93c a873 0a3e
00000320: 1b66 753d bd4d 89bc 1cc8 6cbc a645 1ebd
00000330: 236f 923c 19e7 acbd c3da da3c 9f47 d3bd
00000340: 8331 8e3d 3f5c 453d 5376 c5bc e7ee 9fbc
00000350: b44c fbbd b348 36be c7c2 8bbd d998 01be
00000360: 242b ddbd f7e2 e53d d971 a4bd 1660 3a3d
00000370: 8115 0f3e e99d b73b 2bce abbd a058 eebc
00000380: fb57 d7bd d100 363d e130 dabd 3290 ecbd
00000390: 73de 9dbc e44d 6cbe 4e16 98bd 769c 6f3c
000003a0: 19ef dcbd 1f7d 27be eae2 913d 30a9 283e
000003b0: 2404 083e 4539 cabd 0625 293d 57ce 1d3e
000003c0: 0a43 cc3d 8f46 d7bc 6928 093e 2a1a d6bd
000003d0: 1351 f13d 6084 c83c e94a 5fbe b2f1 243b
000003e0: 2a23 b8bb 324e 8ebd d13a 00be 71d3 3bbd
000003f0: 3618 3abe 2b4d 82bd 937c 85bd a0fd d8bd

lstm.bias_ih_l0 f4 [128]
0.15756954 -0.011172246 0.043314073 -0.068458654 0.14320302 0.16704209 0.00207182 0.2425379
0.18037765 0.011168791 0.02347352 0.085357286 -0.10296158 0.03314478 -0.10733847 0.12720092
0.08077966 -0.1880034 0.032748625 0.12882379 -0.14809312 0.12159278 -0.019206354 0.09333353
0.05513542 -0.08085067 0.052993804 -0.09872259 0.025861835 0.08708802 0.04972675 0.017147565
0.21140732 0.21632668 -0.14463814 0.08225117 0.13792722 0.07012059 0.049296927 0.03075289
0.1087678 -0.0861508 0.026051337 -0.0008695801 0.021177487 0.121811174 -0.088861644 -0.05464475
0.06536942 -0.0061588725 -0.09230446 0.07644804 -0.15271515 -0.10080892 0.27307564 -0.026331222
0.009620275 0.22125487 -0.030518046 -0.07191055 -0.048013423 -0.025554996 0.10310072 0.12974323
0.008885469 0.022938818 0.09844221 -0.13820629 0.067949995 -0.17907575 0.1274777 -0.1957106
-0.13068992 -0.12367129 0.08574263 0.15278988 -0.18899924 0.010358388 0.037536733 0.09218579
-0.17239006 -0.17594013 0.053182703 0.009572379 -0.20172638 -0.16108257 -0.19961888 0.036020692
-0.19145672 -0.031971727 -0.022637747 -0.11154905 -0.15751988 -0.13373478 0.006472027 0.12712848
0.06879195 0.20754795 0.0031880094 0.17707433 0.17708637 0.06446894 0.2205546 -0.033199724
0.030314617 0.0638497 0.10487171 0.040490277 0.06174729 -0.083039 0.22076061 0.12917061
0.05910333 0.12026127 0.016173748 -0.087027006 -0.16640043 0.21387947 0.018367223 0.15060277
0.035046246 0.17643185 -0.0003521278 0.14807582 0.2604936 0.0945503 -0.048135865 0.106361695
00000000: e959 213e cc0b 37bc 196a 313d 0d34 8cbd
00000010: d0a3 123e 150d 2b3e 5fc7 073b db5b 783e
00000020: ebb4 383e 4efd 363c 8a4b c03c cdcf ae3d
00000030: 85dd d2bd d2c2 073d 46d4 dbbd f540 023e
00000040: ce6f a53d f783 40be 6c23 063d 62ea 033e
00000050: b9a5 17be a305 f93d a556 9dbc a625 bf3d
00000060: aed5 613d 0995 a5bd 0810 593d 122f cabd
00000070: 33dc d33c 345b b23d 47ae 4b3d 0d79 8c3c
00000080: 297b 583e be84 5d3e 051c 14be 4d73 a83d
00000090: cb3c 0d3e 629b 8f3d 93eb 493d 7ced fb3c
000000a0: a7c1 de3d d56f b0bd 9d69 d53c 88f4 63ba
000000b0: 697c ad3c 2378 f93d 18fd b5bd 2cd3 5fbd
000000c0: 67e0 853d 5ed0 c9bb 1f0a bdbd ca90 9c3d
000000d0: 5c61 1cbe e874 cebd 92d0 8b3e 93b4 d7bc
000000e0: 5c9e 1d3c a390 623e fb00 fabc d745 93bd
000000f0: b9a9 44bd b658 d1bc 7826 d33d 69db 043e
00000100: 5c94 113c 30ea bb3c 129c c93d f385 0dbe
00000110: 5e29 8b3d a25f 37be 8489 023e 5c68 48be
00000120: 94d3 05be 6047 fdbd d599 af3d f374 1c3e
00000130: 0489 41be 3ab6 293c 1ec0 193d e7cb bc3d
00000140: 0587 30be a629 34be 1bd6 593d 78d5 1c3c
00000150: 5c91 4ebe d4f2 24be e468 4cbe 6f8a 133d
00000160: 3b0d 44be c9f4 02bd cc72 b9bc d473 e4bd
00000170: e44c 21be c5f1 08be 4c13 d43b f82d 023e
00000180: cbe2 8c3d 7387 543e eced 503b f952 353e
00000190: 2156 353e 4b08 843d 11d9 613e 6ffc 07bd
000001a0: 5c56 f83c a2c3 823d fbc6 d63d 22d9 253d
000001b0: baea 7c3d 5a10 aabd 120f 623e 4d45 043e
000001c0: 5516 723d 8a4b f63d cf7e 843c 373b b2bd
000001d0: e064 2abe 3803 5b3e dc76 963c 9d37 1a3e
000001e0: a78c 0f3d 8daa 343e cb9d b8b9 30a1 173e
000001f0: 6b5f 853e 96a3 c13d 1d2a 45bd 29d4 d93d

lstm.bias_hh_l0 f4 [128]
-0.02146616 -0.061067905 -0.09044074 0.030562652 0.09819214 0.033831846 0.06417133 0.04177199
-0.10281311 0.014887344 0.10939069 0.20996712 -0.16017544 -0.018379692 -0.053031806 0.020143677
-0.022170335 0.10943446 -0.056961577 -0.055296224 -0.054395035 0.09208315 0.2697091 0.12163374
0.23180941 0.09475414 -0.081375904 0.03233136 0.086268716 0.026213365 0.1345967 -0.065805264
0.2299332 -0.040005222 0.12050132 0.18792929 0.19719721 0.010119578 -0.12099373 0.22097823
-0.067177564 -0.12480322 0.052823395 -0.05780062 -0.0052940478 0.20069714 0.025563959 0.03429057
-0.031178037 7.108718e-05 0.10592471 0.19821167 -0.21984094 0.102607824 0.003638904 0.18547116
0.046198986 0.2071874 0.016419189 -0.17291327 0.03743694 0.23258084 -0.014717144 0.06502119
-0.1105886 -0.000774614 0.124518745 -0.06747299 -0.18767913 0.10950119 -0.093234584 -0.08848868
0.116588585 0.017559791 0.12404758 0.20491864 -0.069815725 -0.08632867 0.046196476 0.12258322
-0.075068004 0.11748468 0.08107936 -0.20283417 0.113894165 -0.0040549343 -0.011687296 0.06922123
0.0582478 -0.06352976 0.017424246 -0.15781021 -0.079272315 -0.23285408 0.20674394 -0.16162863
0.06659824 -0.040388167 0.052292917 0.10291037 0.12595251 0.18551558 0.19937997 0.2345409
0.011192647 -0.047629483 0.23723336 0.18589328 -0.016486391 -0.012064337 -0.076803975 0.18759704
0.116353124 0.12038346 0.089424625 0.22146381 -0.021939237 0.0799865 0.15211546 0.2376683
0.19498713 0.22212389 0.10181101 0.08680723 0.13927126 0.20809726 0.15604112 0.059093136
00000000: cdd9 afbc 5722 7abd ff38 b9bd 875e fa3c
00000010: f618 c93d 4393 0a3d 426c 833d 1b19 2b3d
00000020: ae8f d2bd 0cea 733c 3a08 e03d 9f01 573e
00000030: 0805 24be 0291 96bc e137 59bd 5a04 a53c
00000040: 909e b5bc 2d1f e03d 8b50 69bd 4b7e 62bd
00000050: 54cd 5ebd 1796 bc3d 5017 8a3e 1c1b f93d
00000060: 725f 6d3e 750e c23d 69a8 a6bd e36d 043d
00000070: a7ad b03d 69bd d63c b8d3 093e e9c4 86bd
00000080: 9c73 6b3e 84dc 23bd 65c9 f63d 8970 403e
00000090: 11ee 493e 96cc 253c 90cb f7bd 1e48 623e
000000a0: 6494 89bd d598 ffbd 585d 583d 58c0 6cbd
000000b0: b179 adbb 8d83 4d3e 826b d13c 4574 0c3d
000000c0: 1569 ffbc a414 9538 0eef d83d 00f8 4a3e
000000d0: fc1d 61be 0d24 d23d ae7a 6e3b 27ec 3d3e
000000e0: 263b 3d3d ef28 543e 8981 863c 2d10 31be
000000f0: 7a57 193d ac29 6e3e 2d20 71bc d429 853d
00000100: 477c e2bd 770f 4bba af03 ff3d 472f 8abd
00000110: f52e 40be 2942 e03d c6f1 bebd 8e39 b5bd
00000120: ffc5 ee3d 8dd9 8f3c a80c fe3d 31d6 513e
00000130: 8cfb 8ebd 16cd b0bd 8438 3d3d e90c fb3d
00000140: 41bd 99bd cf9b f03d ef0c a63d c3b3 4fbe
00000150: 5841 e93d 41df 84bb 137c 3fbc dcc3 8d3d
00000160: 3f95 6e3d e41b 82bd 4bbd 8e3c 0099 21be
00000170: 8659 a2bd 4d71 6ebe afb4 533e fa81 25be
00000180: a864 883d 106e 25bd 1931 563d acc2 d23d
00000190: b2f9 003e ccf7 3d3e 432a 4c3e 7d2b 703e
000001a0: 5d61 373c 2217 43bd 4ded 723e cf5a 3e3e
000001b0: 780e 87bc 7fa9 45bc 674b 9dbd 7019 403e
000001c0: 8c4a ee3d 9a8b f63d 4224 b73d 69c7 623e
000001d0: eab9 b3bc f6cf a33d 28c4 1b3e 525f 733e
000001e0: b5aa 473e 7274 633e 4a82 d03d fdc7 b13d
000001f0: 209d 0e3e 7317 553e 3ec9 1f3e a50b 723d

dense1.weight f4 [32, 32]
-0.043853052 0.06344077 -0.12608302 -0.1662367 -0.077682406 0.067882776 0.22037977 0.03910772
0.022186616 -0.15008254 0.09811829 0.247136 0.021464221 -0.20952544 -0.0506741 0.24080253
-0.061825197 -0.13585854 0.12148859 -0.018075082 -0.05313015 0.026177729 -0.22529987 0.10322814
-0.12861226 0.06323688 0.09784328 0.09922457 -0.1291191 -0.24331574 -0.029792748 0.010698562
0.20398766 -0.0022151894 -0.1492405 0.07838246 0.135349 0.03554423 -0.04923259 -0.058120213
0.0837365 -0.09698046 -0.11223212 -0.012965951 0.0014667585 -0.0895094 -0.0707744 0.04892304
0.21945606 -0.07831244 0.006507529 0.06138574 -0.106876634 0.07324189 -0.054625407 -0.06776653
-0.07583779 -0.1565543 -0.102585346 0.04040688 -0.0857149 -0.0055861515 -0.22935429 -0.19290002
-0.23768428 -0.026711738 -0.09581043 0.0845396 -0.05609117 -0.22129492 0.2215047 -0.17118607
-0.13516591 -0.0054410743 0.0010394186 0.06461479 -0.072276175 -0.07349173 -0.079685904 0.059338395
-0.03135319 0.136157 0.062472723 0.043544427 -0.041266758 0.035438865 -0.13040145 0.11470935
-0.07592376 -0.04576705 0.2864059 0.14051238 0.03634268 -0.19889623 0.21742444 0.20047869
-0.099603385 0.07847063 0.101500206 -0.24115315 0.07109185 -0.13576765 0.006095754 -0.08268277
-0.039136704 -0.07352609 0.20657273 -0.04330256 -0.006888546 -0.11219182 -0.031215612 -0.045018695
-0.15594204 0.0046041543 0.1027086 -0.16761 0.1273603 -0.022001294 -0.19009782 0.08452744
-0.2476304 0.17055652 0.028631296 0.06656492 -0.00063776434 -0.15347914 0.114364654 0.056924157
-0.23932591 -0.017311294 -0.14696962 0.071034744 -0.22188081 -0.014600973 0.036375046 -0.03341005
0.03243281 0.027219089 -0.059030443 0.11226188 0.024120696 -0.07194058 0.11264213 0.26688856
-0.23291595 0.10946687 0.12542059 0.0406702 0.077363685 -0.15758553 -0.10170663 -0.017971277
-0.081741594 0.12032366 0.24936871 0.0921509 -0.22376698 0.077938564 -0.06443001 0.1395993
-0.001677799 0.179611 0.12735781 -0.1575989 0.040960412 -0.08449698 0.086782776 -0.16574205
-0.25525886 -0.15472089 0.099766076 0.13162854 -0.036747053 -0.11576473 0.077896185 0.008853705
-0.11745944 -0.07494487 0.10796189 0.05320717 -0.12449169 0.0014923032 -0.17453215 0.01929345
-0.0072831847 -0.10342618 0.17063397 0.04414988 -0.049308106 -0.11134228 0.025510842 -0.013830723
0.22690707 0.022951864 0.057550333 -0.037325837 0.18238938 -0.030030543 0.067475244 0.21596465
-0.08273877 -0.08003261 -0.23705144 -0.15590042 0.010068077 -0.07953441 0.09062908 -0.19464391
0.023904333 -0.017298933 -0.181886 0.07401534 -0.14416414 -0.07869147 0.08846032 -0.11811295
0.1893017 -0.15643916 0.10653908 0.19333453 0.02846106 0.04995153 -0.025442522 -0.16304208
-0.051410165 0.05507634 -0.10810774 -0.21404949 0.05891796 -0.23307548 0.06912661 -0.007884377
-0.20986888 -0.06480223 0.2506643 0.13012096 0.1567302 -0.22042675 0.1911191 0.08857427
-0.059186153 0.0052468856 0.040062755 0.029953018 0.081191905 -0.21839389 0.062354222 0.28213072
-0.16702415 0.120907016 0.2203886 -0.20814665 -0.01708419 0.07771509 0.032796543 -0.074465424
00000000: 429f 33bd 3ced 813d e81b 01be f439 2abe
00000010: f417 9fbd 2006 8b3d 3cab 613e 6b2f 203d
00000020: b5c0 b53c 3daf 19be 3ef2 c83d 3811 7d3e
00000030: bcd5 af3c d68d 56be a58f 4fbd f094 763e
00000040: 6b3c 7dbd 801e 0bbe 03cf f83d 3212 94bc
00000050: 009f 59bd ad72 d63c 02b5 66be 4669 d33d
00000060: efb2 03be 5682 813d 0f62 c83d 4036 cb3d
00000070: cc37 04be c327 79be ec0f f4bc 0549 2f3c
00000080: 24e2 503e b62c 11bb 80d2 18be fc86 a03d
00000090: ee98 0a3e d496 113d 1da8 49bd 760f 6ebd
000000a0: 0b7e ab3d b19d c6bd f4d9 e5bd 246f 54bc
000000b0: 4040 c03a b450 b7bd 2bf2 90bd 8763 483d
000000c0: 17b9 603e 4662 a0bd 1c3d d53b 9d6f 7b3d
000000d0: 23e2 dabd d8ff 953d e4be 5fbd 2ec9 8abd
000000e0: d850 9bbd c54f 20be 4418 d2bd af81 253d
000000f0: 4b8b afbd 090c b7bb dadb 6abe 9587 45be
00000100: 8263 73be 93d2 dabc 4238 c4bd 1923 ad3d
00000110: dbbf 65bd 239b 62be 21d2 623e 674b 2fbe
00000120: ef68 0abe 0a4b b2bb 1a3d 883a c254 843d
00000130: 8805 94bd d582 96bd 5d32 a3bd d10c 733d
00000140: 346c 00bd be6c 0b3e 66e3 7f3d a45b 323d
00000150: 5507 29bd 5828 113d f587 05be bcec ea3d
00000160: eb7d 9bbd 3b76 3bbd cba3 923e 7ae2 0f3e
00000170: 10dc 143d 74ab 4bbe 83a4 5e3e 494a 4d3e
00000180: dcfc cbbd 36b5 a03d 57df cf3d daf0 76be
00000190: 9b98 913d ad06 0bbe e4be c73b 9655 a9bd
000001a0: cf4d 20bd d994 96bd cd87 533e 065e 31bd
000001b0: 50b9 e1bb d3c4 e5bd e2b7 ffbc 8665 38bd
000001c0: 45af 1fbe 72de 963b e358 d23d f5a1 2bbe
000001d0: bd6a 023e 0f3c b4bc 01a9 42be b91c ad3d
000001e0: d392 7dbe 5ea6 2e3e 2e8c ea3c 3053 883d
000001f0: a42f 27ba a329 1dbe 0438 ea3d 4e29 693d
00000200: da11 75be 6ad0 8dbc 347f 16be aa7a 913d
00000210: b934 63be eb38 6fbc 00fe 143d fad8 08bd
00000220: 44d8 043d 91fa de3c e8c9 71bd 8ee9 e53d
00000230: c498 c53c 9555 93bd ebb0 e63d 9ea5 883e
00000240: 8581 6ebe 2b30 e03d 416e 003e cc95 263d
00000250: da70 9e3d 1a5e 21be 914b d0bd 8038 93bc
00000260: 2368 a7bd 406c f63d 835a 7f3e 9cb9 bc3d
00000270: 2c23 65be 419e 9f3d e2f3 83bd 1ef3 0e3e
00000280: 98e9 dbba f2eb 373e 166a 023e 9b61 21be
00000290: 1bc6 273d c10c adbd 2bbb b13d 49b8 29be
000002a0: 4ab1 82be 276f 1ebe 2852 cc3d a2c9 063e
000002b0: 1484 16bd 0f16 edbd 0988 9f3d 210f 113c
000002c0: 938e f0bd b27c 99bd 201b dd3d c3ef 593d
000002d0: 80f5 febd 6399 c33a 8eb8 32be 4c0d 9e3c
000002e0: c8a7 eebb 1bd1 d3bd acba 2e3e 81d6 343d
000002f0: 4cf7 49bd 6c07 e4bd 1dfc d03c 429a 62bc
00000300: 545a 683e 8c05 bc3c e6b9 6b3d fae2 18bd
00000310: 48c4 3a3e 9d02 f6bc 7630 8a3d d625 5d3e
00000320: f272 a9bd 23e8 a3bd 9dbd 72be 5ca4 1fbe
00000330: 93f4 243c f0e2 a2bd bd9b b93d bc50 47be
00000340: 05d3 c33c 7eb6 8dbc 5340 3abe 5b95 973d
00000350: c49f 13be fe28 a1bd af2a b53d 34e5 f1bd
00000360: 4ed8 413e 9631 20be 2931 da3d 7df9 453e
00000370: 2b27 e93c fa99 4c3d d66c d0bc 81f4 26be
00000380: 7793 52bd ba97 613d 9767 ddbd ca2f 5bbe
00000390: f553 713d 57ab 6ebe 4192 8d3d 792d 01bc
000003a0: dee7 56be 08b7 84bd 1257 803e 6e3e 053e
000003b0: e27d 203e 8db7 61be bab4 433e 6d66 b53d
000003c0: 2e6d 72bd 11ee ab3b d818 243d 0860 f53c
000003d0: f147 a63d a6a2 5fbe 2467 7f3d 7073 903e
000003e0: 6108 2bbe 199e f73d 8dad 613e 6524 55be
000003f0: 25f4 8bbc 1729 9f3d ab55 063d 5481 98bd

dense1.bias f4 [32]
-0.09801828 -0.1365058 0.17542921 0.04993377 0.09562695 0.25483462 0.043870945 0.24609657
0.26856104 0.117562205 -0.032772437 0.1129913 0.019161696 0.03144268 0.043530196 0.0026310028
0.006902317 -0.11605762 0.17722471 0.11621739 -0.04179788 0.22622035 0.21988885 0.106553875
-0.058052197 -0.16714168 -0.008630622 -0.22125226 0.24772197 -0.049707513 -0.2015039 0.058240674
00000000: cfbd c8bd 2dc8 0bbe b7a3 333e 5a87 4c3d
00000010: 10d8 c33d af79 823e 05b2 333d bd00 7c3e
00000020: d580 893e 74c4 f03d 643c 06bd fc67 e73d
00000030: fdf8 9c3c 0aca 003d b84c 323d e76c 2c3b
00000040: d52c e23b 9eaf edbd 657a 353e 6203 ee3d
00000050: 4134 2bbd 4fa6 673e 8b2a 613e eb38 da3d
00000060: 24c8 6dbd 3027 2bbe 7467 0dbc f48f 62be
00000070: d4aa 7d3e 1b9a 4bbd 0a57 4ebe c68d 6e3d
