ecg/CL_trial_10_best_model.pth (torch, 142495 bytes, 15 tensors)

conv1.weight f4 [64, 1, 50]
00000000: e174 013e 687d 083e 9b55 a1bc 1ee4 103e
00000010: 0afc aebc 74be 153d b67f 7fbd 11a8 b43d
00000020: 8c90 ff3d 6972 d5bd 5004 fb3d 975b d33c
00000030: fce5 d53d a397 a43c e126 8f3d 385a 88bc
00000040: 2e4f ea3d 9a42 e43c 2a5a 6cbd 858d 3b3d
00000050: 9bc9 5fbd f2c3 a4bb de3a 37bd 5bf5 d93d
00000060: bdf6 cbbd e20b 57bd 6c8f debc f45d 94bd
00000070: ec2d d53c 71f6 01be e355 103e 9cf8 dbbd
00000080: 1300 fa3d 6c8d 143d 091c 0abd c621 cb3d
00000090: 032b 063d 06f5 fe3d ef5d f33c b58f fbbc
000000a0: 63ee 563d 7c4d c2bc fec1 9a3d ee38 133e
000000b0: c89d cc3d dd22 33bd 1e1a cd3d 91f3 243d
000000c0: 5459 b13d 9ab7 92bd bf9e 18be fa02 82bd
000000d0: e48b edbd f5b9 e43d c9c8 193d cf6d 603d
000000e0: f1b6 293d adce 9abb 4cb4 dc3d 29c4 d6bd
000000f0: 0e52 9c3b dde0 ccbd e4c8 263d 151e 3fbd
00000100: 002a 3c3d f2d2 dcbc 2b0f f53d e6af a8bd
00000110: 1db8 abbd 66c6 abbd c80a 033e baf7 443d
00000120: b4c3 0b3e 6821 f2bd 6ee1 11be 11bd e6bd
00000130: 457a c5bd b7f6 6b3d b14d 553d 8237 f53d
00000140: 170a 93bd 682c c3bd ab90 9d3d 9436 63bd
00000150: 15a7 b33d f84d 00bd 8738 a93d d8ba dfbd
00000160: 05ef 90bd b1a2 363d 9a69 023d ac8f 0bbd
00000170: 217b b13d f744 c93d e53e d1bd 6a0c 9abd
00000180: f533 063e fc52 3fbd 056c 4fbd c2c1 0cbe
00000190: 1602 c3bd a710 be3c 47e7 d0bc 4563 dfbd
000001a0: 9d57 1ebb c004 d2bd bdb3 00be eda2 aabd
000001b0: 7592 04be 9797 c3bd ae94 0b3e 069f b73c
000001c0: 0f7d 213d 7b63 0cbe 76bb d2bd 27d6 67bd
000001d0: 8318 813c 39e5 05be 3a1a 92bd ef4f c2bd
000001e0: a014 1dbc 9a16 80bd f60d a1bc 50eb d8bd
000001f0: 2aef dbbd 5a4f bebd 8121 6fbd 3e89 f6bd
00000200: 6609 ed3d 1f36 f7bc 6fab f53d d211 2e3d
00000210: 69af f9bd c2ce c33d c643 3dbd f62b 80bd
00000220: 3632 01be 0fcc 18be 5792 023d d98a 22bd
00000230: 7bf0 3c3d 4329 febd 271c c93d afef e3bd
00000240: ec31 04bd b2d6 c23c 263d 8a3d 2b0f df3d
00000250: a893 fc3d 6e7d f4bd 9d93 1b3d 6aef 81bd
00000260: d7c3 bdbc 5e3d edbd f99b ef3d a85f f4bd
00000270: 2c71 763d c668 133d 1fb2 f23c 1048 c0bd
00000280: 9eda ee3d 48c3 943c fc56 a3ba 3300 12be
00000290: 3c08 403d b77b f4bc 80b6 86bd 1deb 003e
000002a0: ba35 143d 881e 9dbd 4091 8ebd 06be 75bb
000002b0: df52 a43d 8298 1dbd b12b b8bd 373a 71bd
000002c0: 1fa8 efbd f672 473d 2a19 e63d e132 09be
000002d0: 29bd 103d 8e2a a03d 1071 eb3c 5210 44bd
000002e0: f66f a13d bcd1 a53d 4206 723d 11b6 b3bc
000002f0: 760e 0dbd f8ab a83c ec6a 90bc 2e6d 02bd
00000300: 074a d53d 6fad 0b3e 304a c5ba 3c19 a4bc
00000310: ac9b 653c d7c1 b13b ae80 4b3d 6b36 613d
00000320: 90b2 0cbe 1884 77bd 5846 e43d deb3 423d
00000330: d4dc 73bc e932 bebd beb0 c0bd 4751 09be
00000340: 77a6 59bd 0cfe 263d 5d7b aa3d d70d 6e3d
00000350: e64d 08be 854f c0bd 9e09 00bd c082 033e
00000360: 2c43 403c 4d8d 3abd 8148 4a3d 1925 82bd
00000370: 89bc cfbd 2b52 bf3d 9920 98bd 1469 1dbd
00000380: 1311 1abe 5669 b03d 3d70 d23d 711a 413d
00000390: fcaf d1bd 1ef9 12be d517 f3bd 75a7 d03d
000003a0: 0e0b 853d 2287 ed3d d356 903d 4a09 dd3c
000003b0: e181 36bc 2b56 f0bd 631a 06be b141 11be
000003c0: 4f07 483d 2086 a0bd e1c7 19bd 1001 b9bd
000003d0: 1ee1 0dbd 486b ddbd a31c cebd 67f2 1b3d
000003e0: d3b8 55bd c980 9d3d b881 17bd 54d7 c4bd
000003f0: 155f 90bc 11aa 7fbd 2789 1cbd c527 05be
0.12642242 0.13329089 -0.01969414 0.1414952 -0.021360416 0.036558583 -0.062377654 0.088211186
0.12478742 -0.10422213 0.12256682 0.02580051 0.10444257 0.020091837 0.069898374 -0.016644582
0.114408836 0.02786379 -0.057703175 0.04578926 -0.054635625 -0.0050282413 -0.044733874 0.10642501
-0.09959171 -0.052501567 -0.027167998 -0.07244483 0.026022874 -0.12691666 0.14095263 -0.10740778
0.122070454 0.036267683 -0.033718143 0.09918551 0.032755863 0.12449078 0.029707877 -0.030708173
0.052473437 -0.023718588 0.07556532 0.14377186 0.09991032 -0.04373442 0.10014747 0.040271346
0.08659616 -0.071639255 -0.14904307 -0.06348224 -0.11598948 0.11168281 0.037545 0.05479222
0.041434232 -0.0047243447 0.107765764 -0.10486633 0.004770524 -0.10003827 0.040718928 -0.046659548
0.04593849 -0.026956055 0.11965784 -0.08236675 -0.08384726 -0.08387451 0.12797081 0.048087813
0.13648874 -0.11822778 -0.14246151 -0.1126653 -0.09642462 0.057608332 0.052076045 0.11973478
-0.07179659 -0.09529954 0.07693609 -0.05547197 0.08772103 -0.031324357 0.08262735 -0.109243095
-0.07076839 0.04458875 0.03183899 -0.034072563 0.08666063 0.09827607 -0.10217074 -0.07521899
0.13105758 -0.04671 -0.050640125 -0.13745788 -0.09521882 0.0232013 -0.025500907 -0.10907606
-0.0024161108 -0.10254812 -0.12568565 -0.08331857 -0.12946494 -0.09550398 0.13630936 0.022414695
0.039425906 -0.13709824 -0.102896616 -0.056600716 0.015758758 -0.13075723 -0.071339086 -0.094879024
-0.009587437 -0.06254311 -0.019659977 -0.10591757 -0.10738976 -0.09292479 -0.05838156 -0.120378956
0.11574058 -0.030177174 0.11995589 0.042497464 -0.1219166 0.0956092 -0.046207212 -0.06258385
-0.1261681 -0.14921592 0.03187784 -0.039683197 0.046127778 -0.12410214 0.09819823 -0.111297004
-0.03227417 0.023784015 0.067499444 0.10891565 0.12332851 -0.11937986 0.037982572 -0.06344493
-0.023164673 -0.115839705 0.11699671 -0.119323075 0.060166523 0.03598859 0.02962595 -0.09388745
0.11662792 0.018159524 -0.0012461836 -0.14257888 0.046882853 -0.029844148 -0.06577778 0.12589689
0.03618405 -0.07671839 -0.06961298 -0.0037497296 0.08023619 -0.03847552 -0.089927085 -0.05889341
-0.117019884 0.04869362 0.112352684 -0.13398315 0.035336647 0.07820617 0.028740436 -0.047867127
0.07882683 0.08096644 0.059088 -0.021937402 -0.03443762 0.020589814 -0.01762911 -0.031842403
0.1041451 0.13640378 -0.0015052017 -0.020031564 0.014014166 0.005424719 0.049683265 0.054983538
-0.13739991 -0.06042871 0.111462295 0.047534816 -0.0148841925 -0.09287054 -0.09408711 -0.13409911
-0.05313727 0.04076962 0.08324311 0.058118667 -0.13310966 -0.09390167 -0.03125917 0.12842846
0.011734765 -0.04554491 0.04938555 -0.06354732 -0.10143382 0.09341844 -0.074280925 -0.03843029
-0.15045576 0.08613841 0.10275314 0.047144357 -0.102386445 -0.14352843 -0.1186978 0.1018819
0.06496249 0.1159804 0.070478104 0.026981968 -0.011139364 -0.11735185 -0.13096003 -0.14185216
0.048835095 -0.07838082 -0.037544135 -0.09033406 -0.034638517 -0.10811478 -0.10064056 0.03807297
-0.052178215 0.076905794 -0.036988944 -0.09611383 -0.017623464 -0.062418047 -0.038216736 -0.13003452

conv1.bias f4 [64]
00000000: ca47 92bd 40a6 b83d 4b0a f23d b18a 273e
00000010: 99ee d5bd 78ec 213e 22f4 0d3e 87a4 363e
00000020: 559d ec3d fc86 f8bc 1012 0e3e 48ba 2d3e
00000030: 7d77 37bd 981f 9d3c 0a96 0a3e 8138 163e
00000040: 59d6 003e d375 1b3e cc1a 21bd f65e 1b3c
00000050: 94b9 f8bc 0231 e33d 366c 713d 376d 9bbd
00000060: d63d 803b cc9f b3bd 5b0b 0fbe ef8a 2d3e
00000070: d287 45bd aa0f ce3d 6368 09b9 2051 1fba
00000080: 0993 fe3c 8edb 163e 06f0 ad3c fe93 1f3e
00000090: c2f3 e83d 7cf5 083e 1c1a cebd 9411 3cbd
000000a0: 2a3b aebd b5fe 43ba 67fa 313c 723d 5a3d
000000b0: 2c55 2a3e 00d7 d33d 2894 89bd a591 89bd
000000c0: aa2e 183e 4eee 663d 688c a93d 7c8e 17bd
000000d0: ab33 8b3c 5889 913d c594 81bd 1cd3 fd3d
000000e0: a829 e53d 130b 57bd 9b5e d5bc 2c1c 803b
000000f0: d52e 703d 41a0 4ebc 1362 333e a8b1 d5bd
-0.07142599 0.09016085 0.118183695 0.163615 -0.104458995 0.15812862 0.1386266 0.178362
0.11553446 -0.030337803 0.13874078 0.16965592 -0.044791687 0.019180104 0.13533798 0.14669992
0.12581767 0.15181665 -0.039332196 0.00948309 -0.030361928 0.11093332 0.05894109 -0.075891905
0.0039136214 -0.08770713 -0.13969176 0.1694753 -0.04822523 0.100615814 -0.00013104225 -0.0006077457
0.031075971 0.14732191 0.021232616 0.15583798 0.11374618 0.13374895 -0.10063574 -0.0459152
-0.085073784 -0.0007476614 0.010862923 0.053281255 0.16634053 0.10343742 -0.06717712 -0.067172326
0.14861551 0.05637961 0.082787335 -0.037001118 0.01699241 0.07106274 -0.06327204 0.123937815
0.11189586 -0.052500796 -0.026046088 0.0039096083 0.058638413 -0.01261145 0.17517881 -0.10434276

conv2.weight f4 [32, 64, 10]
00000000: 1d6a 113c 17e6 f43b 23fa 283d 1c61 153d
00000010: 93a0 983c 330d 7e3d bcd7 8fbb 6f6b 233d
00000020: 61f4 9b3b 7fde 8a3c b777 04bb d463 db3b
00000030: b97c 063b 26fb 5c3d 453c ae3c fae8 683d
00000040: d37a 6d3c a819 d53c 50f5 293d 2cf8 8c3d
00000050: 277e cf3c 2104 6f3d 83e9 3f3d d61e 723d
00000060: b2b1 763d 8b91 533d 8243 bb3c b177 be3c
00000070: 9eee 4d3d 3b6c 693d 0dd7 183d a5a3 733d
00000080: a883 873c dc37 823d 9909 153d 0408 5a3c
00000090: fffc b03c 1ac8 3a3c 1f98 4b3d f6da 9b3c
000000a0: 1217 863c e42e d23c 6b32 8e3b 8837 fb3c
000000b0: 26e9 c43c ea50 243d 59fd 683d 81e5 9b3b
000000c0: a082 553d d250 e63c ed9f 5d3c 1fb2 8f3c
000000d0: d576 393d 4675 353d ea37 0e3d 8dbe 863c
000000e0: 2d68 653d 7fad 2b3d d960 f3ba 3981 ee3c
000000f0: 4d27 ce3c 1531 8f3c 22e4 533c 6d5d 373b
00000100: a4c3 963d 1fe1 3bba 5ffb 923d eef4 883b
00000110: afca d13c e44c 9d3c 8045 a03c e606 5f3d
00000120: 7070 823d 6e29 713c 3cc6 b43c f11a 773d
00000130: 6c95 113d a654 4d3d 4283 793d 72a2 c93c
00000140: 7440 6c3c 2ecc 513d adf7 bd3c c141 333c
00000150: 5d35 893c 9c09 943c d94d 9c3d 25b0 353d
00000160: b2fb 5f3d 2137 2c3d 5d12 073b f7ee 543d
00000170: 52e6 9a3c 1b96 773c 1a3b 763d cdbd be3b
00000180: b867 0d3d 2867 cebb 9304 3f3d a043 303d
00000190: 9bf9 c63b e671 783d 6533 303d 73b9 a03c
000001a0: 78f2 963d db4a 6a3d 53d7 5e3d b950 d83c
000001b0: 0b52 993c cc67 a33c 6423 523d b6f2 443d
000001c0: 8e5f 533c e1f4 953d 2dcd 753d 1dd0 ae3c
000001d0: da9f 663d 7056 9c3c 532a 473d d0ea 8b3d
000001e0: 0c9d d3bb eb22 213c 58b2 da3c 63c1 0c3d
000001f0: 10fe 8abb 34e1 1e3b a129 ca3c 5b6f bd3c
00000200: 89f7 1d3d 2013 103d ebf2 283d 7d21 133d
00000210: 8a59 1e3d 84e0 033d 71b3 423d 228e 723d
00000220: 6124 603c 843c 313c 6297 4b3d 64f7 453b
00000230: 2edf 853d 6548 6c3d 24cf 393d ee66 b53c
00000240: 2570 283d 1d67 0c3c 4cf6 a43b 07af 9e3d
00000250: 14e4 c43b b516 f73b b8d7 b93c 6f61 253d
00000260: 9c36 403d 6ec7 923c 4a13 0d3d d49d f43c
00000270: be36 903d 7ea1 943d 107b 5e3d b21a 183d
00000280: c165 863d a033 8a3b f73b 573d 3f73 433c
00000290: 8859 873d 2394 813a aaa8 4f3d a9b7 713b
000002a0: b9e0 723d d583 353d b825 8f3d 2f1c 843b
000002b0: 72fd 783d 2b57 243c 325f 5e3c a611 4e3d
000002c0: 2c6e e73c 1b73 343b e4a1 383b d5dd d33c
000002d0: b12a 313d e5c2 883d 698c 7a3d 1165 063d
000002e0: 1f7a 0e3c fd90 8cbb 34cd 893d 7e3c 1b3c
000002f0: 398f c73c fa33 fcba de04 ccba d198 f83c
00000300: bdfa 7f3c 7891 f13c 73be bf3c e63c d83c
00000310: 3430 8d3c 8b7c c43c 720b 333d 0973 643d
00000320: 4613 863d ae2b baba a20f 73ba 8985 d73c
00000330: 4036 f93c 38ab 603d 32c1 8d3d 3711 2e3d
00000340: 8a8e 8a3b c81d e23c 8f3f 763d 9c5b 4e3d
00000350: 9ac7 843b 6dff 133d 90d2 92bb 727e 953c
00000360: 3b3d 793d 4b07 8f3c 1886 723d d947 503b
00000370: 0dc7 8f3d 822f 5d3d fd56 7c3d 54fe 413d
00000380: 1c06 1f3d dc15 8c3c 6074 843c eece 0f3c
00000390: 9d12 8d3d 494d af3c ab42 fc3c cd58 16bc
000003a0: c835 1a3d 386f 703c 6c3c afbb 80eb ec3c
000003b0: 451d 4ebc b39d 963c 4b2b 02bc 3093 3b3d
000003c0: 68b9 02ba ac0a 163d 6a43 4d3d 2f2f 37bb
000003d0: 4e89 5a3d 9cb6 743d dc0f 3e3b edcd fd3c
000003e0: 383a 183d b212 743d d089 5f3d 3e59 30bc
000003f0: 96ff 23bc 5481 95bc 6223 7b3b 4abc 7b3c
0.008875397 0.007473718 0.041254174 0.036469564 0.018631255 0.062024307 -0.004389731 0.03989738
0.004759357 0.016951798 -0.0020212957 0.00669525 0.0020521118 0.05395045 0.021268973 0.05686281
0.014494616 0.02601321 0.041493714 0.068832725 0.025328709 0.058353547 0.046853554 0.05911144
0.060228057 0.051652472 0.022859339 0.023250433 0.05027639 0.056987982 0.037314463 0.059482235
0.01654227 0.063583106 0.036386106 0.013307575 0.021605013 0.011400247 0.04970562 0.019025307
0.016368423 0.025657125 0.0043395064 0.030666128 0.024036955 0.04011623 0.056882236 0.0047575836
0.052126527 0.02811471 0.013526899 0.01754099 0.045279343 0.044301294 0.034721293 0.016448284
0.056007553 0.041913506 -0.0018568292 0.029114353 0.025165224 0.017479459 0.012932809 0.002797927
0.07361534 -0.00071670295 0.071768515 0.0041795885 0.025609342 0.019201703 0.01956439 0.05444994
0.06369102 0.01471935 0.022067182 0.060328428 0.03554289 0.050129555 0.060916193 0.024613593
0.014419664 0.05122011 0.02318939 0.01094097 0.016749078 0.018070988 0.07632036 0.044357438
0.054683395 0.042044763 0.002061031 0.051985707 0.018908653 0.0151114715 0.060114957 0.005820966
0.034522742 -0.0062989183 0.04663522 0.043033242 0.0060722358 0.060655497 0.043017764 0.01961968
0.07370466 0.057200294 0.054404568 0.026405679 0.018715879 0.019946955 0.051303282 0.04808303
0.0129012 0.073220976 0.060010124 0.02133947 0.05630479 0.019084185 0.048624348 0.06831896
-0.0064579304 0.009834985 0.026696369 0.034364115 -0.0042417124 0.0024243118 0.024678053 0.023124387
0.038566146 0.03517449 0.04124729 0.03592061 0.03865961 0.032196537 0.04753441 0.05921758
0.013680548 0.010817651 0.049704917 0.003020727 0.06536709 0.05768623 0.04536356 0.022143807
0.041122574 0.008569506 0.0050342437 0.077482276 0.0060086343 0.0075405487 0.02268587 0.040376123
0.04692708 0.017917361 0.034442224 0.029860415 0.07041691 0.07257365 0.05431658 0.037134834
0.06562377 0.00421758 0.05254742 0.011929332 0.066088736 0.0009886067 0.05069796 0.0036883152
0.059296343 0.044315178 0.06989616 0.00403168 0.06078858 0.010030548 0.013572501 0.0503098
0.028250776 0.0027534429 0.0028172666 0.025862614 0.043253604 0.06677798 0.06116906 0.03281123
0.008696108 -0.004289745 0.067285925 0.009474872 0.024360286 -0.0019241564 -0.0015565415 0.030346306
0.0156237455 0.02948831 0.023406243 0.026396226 0.0172349 0.023985168 0.043712087 0.05577377
0.06546645 -0.0014203691 -0.0009272044 0.026308792 0.030421376 0.054850787 0.06921615 0.042496886
0.0042284178 0.027602091 0.060119208 0.050380334 0.0040521147 0.036132265 -0.0044806674 0.01824877
0.06084941 0.017459532 0.059209913 0.0031781106 0.07020388 0.054000385 0.061606396 0.047361687
0.038824186 0.017100267 0.016168773 0.008777363 0.06888316 0.021399157 0.030793509 -0.009176445
0.037648946 0.014674954 -0.005347779 0.028920889 -0.012580221 0.018385744 -0.007944892 0.045794666
-0.0004986734 0.03663127 0.05011312 -0.0027951708 0.0533536 0.059744462 0.0029001152 0.030981982
0.037164897 0.05958814 0.054574788 -0.0107634645 -0.010009667 -0.018250145 0.003832065 0.015364716

conv2.bias f4 [32]
00000000: 305a a33d 7db0 7b3d 0828 8f3d 1edc 0d3d
00000010: 3b8d f93c 5c15 00ba d54d 4f3c ca3a d53b
00000020: 9b9a e3bb 98e4 893d a52c 0cbd 3560 aebc
00000030: 9197 f53c 765c aebc b6e5 10bd 082a 7f3d
00000040: 2f61 353d ae22 f4bc 3a38 d53c f96e 303d
00000050: aac5 eb3c 1c7f dcba 041a 49bd 8542 95bc
00000060: fb13 8b3c c2c1 3dbc 6ad8 97bc 0866 063d
00000070: fa17 b73c ce67 f73c 6222 c23c 39ef 27bd
0.07976186 0.06144761 0.06990057 0.03463375 0.030462852 -0.00048859953 0.012652834 0.0065072523
-0.0069459206 0.06733054 -0.034222264 -0.02128611 0.029979499 -0.021284323 -0.03537532 0.062295943
0.044282135 -0.029801693 0.026027787 0.04307458 0.028780777 -0.001682255 -0.049097076 -0.018220196
0.0169773 -0.01158184 -0.018535811 0.03281215 0.0223503 0.030200865 0.023698036 -0.040999625

conv3.weight f4 [16, 32, 5]
00000000: 9f51 d83c 3c39 e03d 5d3a b83d edb4 033d
00000010: e53a 803d 747c 553d 047a c4bb b89a 7a3d
00000020: 759b 893d 5da0 c43c 6a59 a43d 0c14 823d
00000030: 9d0f 9dbb aa74 633d 5f82 8a3d 7fd8 c03d
00000040: 0691 adbc cc36 37bd 9cc3 97ba 0492 0a3d
00000050: e709 c4bc 1e8b a33c 3580 a6bc 6010 c7bc
00000060: 20db 753d b6a9 5d3d 7d1b d43c d446 8f3d
00000070: f2ca 4fbb ef45 d43c ddb7 933d 413b a33d
00000080: d8e2 123d ec0e 5cbd 552d 093d c507 803d
00000090: d517 ef3c e2c6 96bd 1fb3 c1bc 06f7 12bd
000000a0: c79c 62bd 21fa 4cbd f9bf 863d 3f51 17bd
000000b0: f27d 08bd 248b df39 7853 d93c b5af a73d
000000c0: 828e 35bd ad0b 80bb 71e7 46b9 4eb1 0d3d
000000d0: f7ba ffbc 5bb7 11bc ac94 f5bc ec05 a5bb
000000e0: ea5f 5b3d 57a3 aabc 1c64 073b f232 20bd
000000f0: 1d9d 5d3d b181 9bbc eda1 3d3d 6238 44bd
00000100: 1a1e 6e3d dbb0 443d 6131 23bd 3e83 293c
00000110: 49b0 e4bc c239 a7bc 28f4 c63c 74ac 09bd
00000120: c95f 653d 37e8 553d 9093 a93d 685e cf3a
00000130: 90ff 18bd 4bab ad3d b8ce 2a3c 007a 1bbb
00000140: 950a 93bb 3dbc d53d fd93 00bd df62 373d
00000150: d3ee 353d 2256 89bc 5e49 6f3d f19c 763d
00000160: 9f8f 893d d0cc 0f3d 3db0 593d 45a2 5c3d
00000170: 50cc bb3b 25a8 12bd 3c2c ff3c 6ecd 273d
00000180: e535 a13d 0fc0 383d 728f f43c f3f5 633a
00000190: b749 cb3d e5b6 cc3d 8fad db3d cbfa bf3c
000001a0: 477b 36bc 5512 49bd 06f2 80bd 73f4 45bd
000001b0: 2c8d 36bc 963f 9b3d f258 76bd 71de 30bc
000001c0: e334 363d cc42 4c3d 42d9 843c e2e5 a4bb
000001d0: 4c19 873c b9ba 16bd cfb4 533d 196d 713d
000001e0: 9aed bd3c 9f1f 863d 246e 633d 6948 85bd
000001f0: fa0c bbbc 529c 63bd 08f7 203d 6d60 71bd
00000200: 7960 fb3c 2a37 5fbd aa09 613d dc9e 24bd
00000210: 74c6 68bd 6d61 8fbc ca23 273d e053 91b9
00000220: 6bd2 783d 802b 0c3d 1d7c 3bbc 3bc8 d63c
00000230: a4c1 ab3d f22e 87bc a5cc c83d dda0 4d3d
00000240: 2b7b 8a3d 1241 903c 7a72 b83d e137 e9bc
00000250: 5c3e b9ba 3e70 a23d 248c 41bc 810d c53d
00000260: 18fd 063b 0377 3bbd 4ee0 d03d 2124 9e3d
00000270: 5076 393d c654 61bd 6192 f33c 5ace c7bb
00000280: cceb 813d d8f0 953b 0158 a7bc 6eb8 c0bd
00000290: 392f 3cbd ee7b 353d 70f5 9fbd 9f55 0bbc
000002a0: f3b2 9ebd 9093 cfbc e73b 11bd dec0 ddbc
000002b0: 5900 a9bc fe70 21bd 0a54 47bd 23f5 c33c
000002c0: b112 b6bb 59da 68bd c085 c13c e4bd 7c3d
000002d0: 601c c43c 76b9 713c bf2a 0bbd 5e1d 1f3d
000002e0: a082 4bbd 212e c83c fa4b 6c3d 315c c3bc
000002f0: bcc3 69bd a348 1b3c d444 ccbc 936b 033d
00000300: 2397 44bd 23ad 2e3d 0ca8 333d ea86 b83c
00000310: e591 ecbb 7d0c 41bd df92 193d b551 04bd
00000320: a9cd 25bd 56a9 423d 60a1 09bd 9f80 ad3c
00000330: 4fa2 983c 39dd 3bbd 3633 113d d0a5 babc
00000340: f2ac c33c 4b58 8ebd 59db 6e3c d6a2 533d
00000350: 9091 46bd 95b6 7c3d fd6c 7dbd 8b8b 413c
00000360: 1dc9 4c3c dab8 49bc 9286 763c 6679 143c
00000370: 723a 4cbd 58f7 a4bd fca3 91bd 2cf1 7bbc
00000380: 4c41 58bc 8a75 fbbc ac11 bcbc 18f7 b4bd
00000390: 83a1 c1bd cf47 4ebd 9c5f a0bd a929 e53c
000003a0: 8bca 16bd 96e0 48bd 73a1 27bb aef7 8139
000003b0: 3de0 cc3c 15ce 5fbc 9bc1 1c3c a041 b63a
000003c0: 7d1f 5d3d 4fad c53b 6571 713c 127e 61bc
000003d0: 9d4e 983c 9d79 aebc 384a 64bd 6c74 81bd
000003e0: 79ef ef3c bf3f 39bc 1556 813d 7970 013d
000003f0: 0565 583d 0a49 c6bc 7a33 113d a59c 8bbb
0.026406107 0.109484166 0.08995507 0.032154966 0.06261233 0.05212064 -0.0059959907 0.061182708
0.06719104 0.024002248 0.08024867 0.0635148 -0.004793121 0.05553118 0.067631476 0.09416293
-0.021187317 -0.044729993 -0.0011578682 0.033830658 -0.023930503 0.019963797 -0.020324806 -0.0242998
0.060023427 0.054116927 0.025892014 0.06995931 -0.0031706658 0.025912253 0.072128035 0.07970286
0.035860866 -0.053725168 0.033490498 0.06251482 0.029186169 -0.07362153 -0.023644982 -0.03588011
-0.055325296 -0.05004323 0.06579585 -0.036942717 -0.033323236 0.00042637542 0.026529059 0.0818781
-0.04432536 -0.003907642 -0.0001896897 0.03459292 -0.031217081 -0.008893813 -0.029978119 -0.0050361063
0.053558268 -0.02082984 0.0020659035 -0.039111085 0.054104913 -0.01898274 0.046297003 -0.047905333
0.058134176 0.048020225 -0.039842013 0.010346232 -0.02791609 -0.020413283 0.024286345 -0.03361173
0.05599955 0.05222341 0.082800984 0.0015820982 -0.0373531 0.08479937 0.010425262 -0.002372384
-0.0044873455 0.10436294 -0.031391133 0.044772025 0.044417214 -0.016764704 0.058419578 0.060208265
0.06716847 0.035107434 0.05314659 0.05386569 0.005731143 -0.035804886 0.031149022 0.040967397
0.07871608 0.045105036 0.029853556 0.0008696012 0.09926169 0.09995822 0.10726463 0.023435017
-0.01113779 -0.04908975 -0.06296162 -0.048328828 -0.011142056 0.075804874 -0.06014342 -0.010795222
0.04448403 0.04986839 0.016216878 -0.005032287 0.016491555 -0.036799166 0.051686104 0.058941934
0.023184586 0.06549 0.05552496 -0.06507952 -0.022833336 -0.055569 0.039298087 -0.05892985
0.03068565 -0.054495968 0.054940857 -0.040190563 -0.056829885 -0.01750251 0.040805615 -0.00027719047
0.060747545 0.034221172 -0.011443165 0.026218524 0.083865434 -0.016501877 0.09804658 0.05020224
0.06761774 0.017609153 0.0900621 -0.028469028 -0.0014132964 0.07931565 -0.011813197 0.09621716
0.0020597633 -0.045767795 0.10199033 0.07721735 0.045278847 -0.055012487 0.029732885 -0.006097597
0.06343803 0.00457583 -0.020427706 -0.09410177 -0.045943473 0.04430764 -0.07810485 -0.0085043
-0.077489756 -0.025338918 -0.035457518 -0.027069505 -0.020630049 -0.0394144 -0.04866413 0.023920601
-0.0055564274 -0.056848858 0.023623347 0.06170453 0.023939312 0.01475369 -0.033976313 0.038846366
-0.04968512 0.024436058 0.057689644 -0.023847671 -0.057071432 0.009477767 -0.024935164 0.032085013
-0.047995698 0.042645585 0.043861434 0.02252527 -0.0072195404 -0.04713105 0.037493583 -0.032304484
-0.040479336 0.047524773 -0.033601165 0.021179495 0.018632082 -0.04586527 0.03544923 -0.022784144
0.023886178 -0.06950434 0.014578664 0.051668964 -0.048478663 0.06169756 -0.061871517 0.011813055
0.012499121 -0.012312138 0.0150467325 0.009062147 -0.049860425 -0.080549896 -0.07111356 -0.015377324
-0.013199162 -0.030695695 -0.022957645 -0.08836192 -0.09454634 -0.05036145 -0.07830736 0.027973967
-0.036814254 -0.049042307 -0.002557841 0.00024789333 0.025009269 -0.013659974 0.0095676435 0.0013905056
0.053985108 0.006032623 0.014736508 -0.013762968 0.018592173 -0.021298224 -0.055734843 -0.06321034
0.029288994 -0.011306702 0.06315247 0.031601403 0.052830715 -0.02420475 0.035449483 -0.004260617

conv3.bias f4 [16]
00000000: 3b4e c03d 1964 06bc e6f3 ce3c 80e3 ee3c
00000010: ef32 22bc 24d9 acbd 6c75 8bbd 84d2 95b9
00000020: 64ec 5bbd be75 f53c 32c5 0e3d 4e31 35bd
00000030: a796 90bc eb5f bf3d c5a8 6e3d 4ad4 79bd
0.09389921 -0.008202576 0.025262784 0.029161215 -0.009899839 -0.08439854 -0.06809506 -0.0002857634
-0.053692237 0.02996337 0.03485603 -0.044236474 -0.017649962 0.09344467 0.05826642 -0.06099347

lstm.weight_ih_l0 f4 [128, 16]
00000000: 08bf 423e 0a86 3c3c ec86 aebc f595 b93d
00000010: 7102 bebd f562 17be a513 d73c cb10 253e
00000020: d055 033e 27dd 323e 4787 093e 67d1 843d
00000030: c85a 8d3d 310f 88bd 51ca 0e3e d4c2 253e
00000040: a930 dfbd ac40 38be a2bd d23a ceb6 e8bd
00000050: 7804 a2bc 1649 103e 4739 14bc 6982 503e
00000060: 736d 7cbc 1fda c63b 0c81 183d dbe1 88bd
00000070: bb86 423c 5850 28bd ef13 10be cae1 193b
00000080: 8917 923d 11c9 1b3d fca8 913d 7f41 79bd
00000090: 1e12 0bbe 8a91 c73d 1ac7 833d 393f 0cbe
000000a0: f17f 2b3e 4276 0fbd dc5a f0bd eccf c2bd
000000b0: cd1c 5bbc d029 d1bd 4f46 393d f41e aabd
000000c0: 6e2e 5fbd ed60 303e 779f 9abc 9236 a43b
000000d0: 274b 7bbd 326f 06bd 6cde 94bd b655 62bd
000000e0: 28b7 edbd 44a3 4abd 402e a93d 3c13 c53d
000000f0: a3a0 113e 642c 42bd 34a0 14be 234d ccbc
00000100: c69a 533e d2c9 d93c ee05 4e3e 5d5b 1e3e
00000110: 4389 1f3e 153c f1bc e24c 7e3d 78f0 a1bd
00000120: 5730 e63c b98e be3d d672 9dbd d025 f3bd
00000130: f8ed 50bd 0942 213d 427e 0ebd c147 953d
00000140: 2d9e 58bd e563 453e a542 47bd 98ce 093e
00000150: 1d8a 463e b64f 313e 0199 4dbd da5d 6abd
00000160: 3747 9abd c6d2 bcbd e521 25bc a3fa 0abd
00000170: 1e2c d13d 20f7 433e 35aa a13d 6447 a63c
00000180: 9b9e 29bd 40ac 95bd 66fe 2d3e 0574 31be
00000190: caa0 81ba 9621 3bbe fed0 5fbd 1706 e0bd
000001a0: 84e2 2fbe c949 113d 9f7b 9dbd d09e f83c
000001b0: 6307 353e 33b3 fcbb 593b 513d 99e8 a9bd
000001c0: 7e29 243e 4c4a 493e 0043 b5bc ca4e e4bd
000001d0: d10d 373e f5dc 0b3e 071b ef3d 6002 633d
000001e0: ff56 5e3d 9aa0 893d f745 873d 6115 36bd
000001f0: a2b8 bb3d 1668 4f3e fe0a 2cbd bc4e ffbd
00000200: bf71 81bd 340f b03c c0d0 f23d 93cc 353d
00000210: 1789 593e 156b 883d 9d86 f53d 0d43 d9bd
00000220: cc13 d53d 340d 133e c608 b13d 9c30 ad3d
00000230: 84fb d1bd 51b9 5f3e 7aa4 1a3a 7bd1 23be
00000240: 24ba a33d 82d1 9f3d e09d 083e df6e 0d3e
00000250: 2d7d 413d 956b b53d 5559 303e a0fb be3d
00000260: b0de 8a3d 76f6 26bd 6383 f1bd 0741 323d
00000270: 218c dbbd 430f ab3c bb46 37be 79ea 3bbe
00000280: e800 22bd b850 18be eb3d 133e 772a 8f3d
00000290: 68b3 0ebc 3739 343e 3789 ee3d ab0b 183e
000002a0: 829b ecbd 02dc fdbd a59a d0bc a68b 063e
000002b0: 4e32 e3bd 4591 a3bd e378 ae3c a759 a73d
000002c0: fa6e 163e 9aea 753d 288d a43c 3b54 35bd
000002d0: 903b 333d 8b98 fd3d f3fe c8bd 92a9 febd
000002e0: c79e 92bc 0c3f 0a3d 31e6 043e e11d a53d
000002f0: 100f 5e3e 2f3f 89bc 0f7a 933d 9c55 dabd
00000300: 6523 f9bd c030 e5bd bafd ee3d 0c92 0bbe
00000310: 2518 a0bd 6bd2 1d3d 4fa2 19be 5ac4 c63c
00000320: bedc 0bbe 77d5 083e 484c ee3d b087 b13d
00000330: 6562 043e e3ed ca3d 8887 713d 267e 8b3d
00000340: 902d 323d 1a6b 25bd adb8 623d b1fb ebbd
00000350: 8885 0cbe 9988 10bb 63d9 6cbd fb81 26bd
00000360: c7af a23d 43ed ebbc 69a6 4a3e 5226 c4bd
00000370: 0ea1 00be 6603 ba3d f489 e63b 1ce3 1e3d
00000380: 826b b13d a484 2fbd 5211 08be daf3 d73d
00000390: 7a9d c7bc 9702 053e 0eb7 69bd 28a4 363e
000003a0: dcae 253d 7e0d 32bd 4c0d 96bc 3dea 203e
000003b0: 6126 393e 5907 14be 8909 a9bd 1b98 77bd
000003c0: f703 bf3d 1fdc cebd 0891 8fbd 6a56 423d
000003d0: a168 4f3d 268e d5bd 1221 0c3e 493a 4e3e
000003e0: 7322 90bd e03b 4e3e 0255 bf3d 8ab5 183d
000003f0: 4dfc 59bc ca0d 4c3e 245f 0d3e 40e7 10be
0.19018185 0.011506567 -0.02130457 0.09061805 -0.092778094 -0.14783843 0.026254484 0.16119687
0.12825704 0.17467175 0.1343051 0.06485253 0.06902081 -0.066435225 0.13944365 0.16187602
-0.10897953 -0.1799342 0.0016078243 -0.11362992 -0.019777521 0.1409038 -0.009046859 0.20362248
-0.015406954 0.0060684825 0.037232444 -0.066837035 0.011872943 -0.041092247 -0.14070104 0.0023480528
0.07133395 0.03803355 0.07112309 -0.060853478 -0.1358113 0.09744556 0.0643446 -0.13695993
0.16748025 -0.03502489 -0.1173608 -0.09512314 -0.013373566 -0.10213053 0.045233067 -0.08306685
-0.05448764 0.17224474 -0.018874867 0.005011388 -0.061350968 -0.032820888 -0.07268986 -0.05525752
-0.116072 -0.04947211 0.082607746 0.09622809 0.14221434 -0.047405615 -0.14514238 -0.024939125
0.2066451 0.026585493 0.2011945 0.1546454 0.15579705 -0.029447595 0.06208504 -0.07907194
0.028099222 0.09304566 -0.07687919 -0.118724465 -0.051008195 0.039369617 -0.034788378 0.072890766
-0.052885223 0.19276388 -0.04864754 0.13457716 0.19388624 0.17315564 -0.050194744 -0.05721841
-0.075331144 -0.09219889 -0.010078882 -0.033930432 0.10213493 0.1913724 0.078937925 0.020297714
-0.041411024 -0.07308245 0.16991577 -0.17329414 -0.0009889838 -0.18274531 -0.05464267 -0.109386615
-0.17176253 0.035470758 -0.076895945 0.030349165 0.17678599 -0.007711792 0.05108199 -0.082963176
0.16031453 0.19657248 -0.022126675 -0.1114784 0.17876364 0.13658507 0.11675077 0.055422187
0.054282185 0.067200854 0.066051416 -0.044453982 0.09166075 0.2025455 -0.04200267 -0.12466189
-0.063205235 0.021491624 0.11856222 0.04438455 0.21243702 0.06661049 0.11988566 -0.10608492
0.104041666 0.14360505 0.086442515 0.08456537 -0.10253051 0.21848036 0.00058991427 -0.15997879
0.07994488 0.07803632 0.13341475 0.13811825 0.047238518 0.0885841 0.17221577 0.093253374
0.067807555 -0.040762387 -0.11792638 0.043519046 -0.10720087 0.0208813 -0.17898075 -0.18351163
-0.039551646 -0.14874542 0.14379089 0.069905214 -0.008709766 0.1759995 0.116472654 0.14848201
-0.11553098 -0.12395479 -0.025464365 0.13139209 -0.11093579 -0.07986692 0.021297878 0.08171397
0.14690772 0.060038187 0.02008684 -0.04426978 0.043757975 0.12382611 -0.09814253 -0.12434687
-0.017897977 0.033751532 0.12978436 0.080623396 0.21685433 -0.016753761 0.07201015 -0.1066086
-0.12164954 -0.11190939 0.11669488 -0.13629931 -0.07817105 0.03853075 -0.15003322 0.02426355
-0.13658425 0.1336268 0.11635643 0.086684585 0.1292816 0.099086545 0.058967143 0.0681117
0.043500483 -0.040385343 0.0553519 -0.11522616 -0.13722813 -0.0022054075 -0.057824504 -0.040651303
0.07943683 -0.028799659 0.19790043 -0.095776215 -0.12561437 0.090826795 0.0070354883 0.038790807
0.086630836 -0.042851105 -0.13287857 0.10544558 -0.024367083 0.12989269 -0.05705934 0.17836058
0.040449962 -0.0434699 -0.018316887 0.15714355 0.18081047 -0.14455928 -0.08253772 -0.060447793
0.09326928 -0.101005785 -0.070100844 0.047445692 0.05063689 -0.10427503 0.1368449 0.20139422
-0.07037821 0.20140028 0.09342386 0.037282504 -0.013304782 0.19927135 0.13805825 -0.14150715

lstm.weight_hh_l0 f4 [128, 32]
00000000: 4b58 ad3d 4495 a13d a31f 81bd efba 213d
00000010: 19ff fabd d00f 0dbe 3c9a 313e 16fd 783c
00000020: cb64 1bbe e442 003e 18ba 583d 1843 d83d
00000030: 49f2 4fbd ad1a 13be 909f ecbb e7ae fd3c
00000040: ae4c 48be 80e1 d53d cecd c9bd 3d8b ea3d
00000050: 821f 10be 99de 54be 6d85 82bd 4d07 2b3e
00000060: 7e76 ea3d 966a 9d3d 8e42 713d ea78 fd3d
00000070: ad36 e0bc e9fb fabd ff32 183d 2f54 dbbd
00000080: e3fd c2bc 61de f43d 5fb1 57be 8a4f db3d
00000090: 3eda ec3d 3efb 7cbc 7a6b c6bd 058d 59be
000000a0: e4fa aabc 7954 30be 3638 633d ef34 a13d
000000b0: b6e8 26be b781 3bbe f4f0 e03d 078a 9ebd
000000c0: 4034 87bc d375 353e 2704 c4bd 0ff3 00be
000000d0: eb64 d6bc 7021 81bc b87e 0cbe b6b5 5cbd
000000e0: 1e72 a4bd ee08 dc3c b76a e3bd 056b 19be
000000f0: 8725 023e a53d bcbd 952a 043d c0f6 cabd
00000100: 7662 31bd ff85 a33d b26a 45be 7a07 8abc
00000110: 0e3e 3f3d bc41 26be fb3c 0e3e e753 18be
00000120: 0c66 87bd 631e 10be 7ff7 933d e5d8 753c
00000130: ca8d 5c3c 86f6 3abe 57ad 2e3e 545f c8bc
00000140: 75cd 96bd 2e21 be3c e2fe 2f3c 4154 8abb
00000150: 27a8 e33d e516 be3d e8b4 e93d 2e89 413d
00000160: e803 00be b77c 4d3c a9d2 443e da4d 8e3d
00000170: 6bb9 d6bd 87d5 20be 28c7 1b3e 584e 353e
00000180: 2211 b83d 0f6b 483b eea8 b63d 237a cf3d
00000190: c467 c83d c09e 043e a87a e7bd 4f50 ff3d
000001a0: da53 bc3d 6f1f 173c 6ec0 063e 94d5 6e3d
000001b0: 5d26 9bbd 8113 163d eaee 3c3d 7153 593e
000001c0: 9e5a 05be 24e6 e63d e0ed aabd 99c9 4bbe
000001d0: 8afc a43d 1f42 f53d 280b 073e be06 043d
000001e0: bd8f 50bd b35a 283d ec4e e5bd 9c48 333d
000001f0: 51fe 18be dbcf 73bd d5a1 e9bc a29b 05be
00000200: 0d02 8b3d 1096 c53d fc6c 643c 3ed4 9dbc
00000210: a3d9 dd3d 27f2 4d3d 43cd 703d 3a6f 913d
00000220: 0607 003e 2694 25bd eaa2 493e 9283 9abd
00000230: 5ee8 08be 73c5 823d 630c c6bd 6117 59bd
00000240: 6ce9 0a3e 6c08 61bd 3d16 d53d 1c67 be3d
00000250: 881a 8bbd e185 13be 76e0 1bbe 5ff8 9d3d
00000260: de29 c73d d547 143e a091 a1bd cde6 37be
00000270: 5d34 fabd 8a4c e1bd dc79 be3d 95a0 2bbd
00000280: 514d c23c fae9 b2bd b702 153e ac5b 3bbe
00000290: 1936 45bd ea48 0e3d 9fc2 2b3e 0684 59be
000002a0: a2b6 44be f607 cd3d 3f0d de3c 2457 e03d
000002b0: 57f0 193e fb8b d13d c5a9 dcbd f2cf 3abc
000002c0: fe60 2fbe f0ff 9bbd 2cab 0c3e 6c0a a63d
000002d0: 0a18 223c 1deb d9bd 1bab 07be 2c6d eebb
000002e0: 9e6c 063c 014b 033e 08b5 a23d 605b 483d
000002f0: ee08 423d b517 a03c c593 1a3d 27c6 a63d
00000300: d21f c9bd 100d 913d 04b2 2cbe 2ac1 1ebe
00000310: 0d48 b0bd 5047 12be 00af d13b e429 1f3e
00000320: f17a a53d 046f 993b e0cd 07bd 4a2f 6bbd
00000330: 1544 253c d22f 79bd 597d 953b 25c6 fbbd
00000340: 4917 b73d c15c 063d 7442 33bd 5f87 9b3a
00000350: f229 adbd 6fd3 21be d672 4ebd 55c7 14be
00000360: 92a8 adbd 60c9 b43d 4b03 d8bd 6e59 513d
00000370: 7ad1 223e 0ded d03c 08c5 d1bd 7660 3abd
00000380: 7a26 afbd 3cc0 9e3c 7b2e 21be 73cc b7bd
00000390: 5e2d 193c 281e 52be c94d c1bd abd1 243d
000003a0: c481 a7bd 3e2d 0bbe 4ae7 373d 5022 113e
000003b0: 6d50 f03d d77f 93bd 7748 883c 0c85 033e
000003c0: d065 003e 7458 41bd be8e d83d b6aa 9fbd
000003d0: 9fb2 b13d 8f7c 4d3d eaa2 49be b365 8cbc
000003e0: 37fc 4f3c 5efd c2bd 0486 08be f720 afbc
000003f0: a76b 20be a412 18bd 2cda b7bd 2323 05be
0.08464106 0.07889798 -0.06304862 0.039484914 -0.12255687 -0.13775563 0.17343992 0.015197059
-0.15175168 0.12525517 0.052911848 0.10559672 -0.05076817 -0.14365645 -0.00722117 0.030967189
-0.19560501 0.10443401 -0.09853707 0.11452339 -0.1407452 -0.2078804 -0.06373105 0.16702004
0.11448382 0.07686345 0.058901362 0.12376578 -0.027369821 -0.12255079 0.03715801 -0.10709416
-0.023802703 0.11956478 -0.21063755 0.1070853 0.11565064 -0.01544076 -0.09688468 -0.21245201
-0.020871587 -0.17219724 0.05547353 0.078714244 -0.1629971 -0.18311201 0.10983458 -0.077411704
-0.016504407 0.17720728 -0.095711045 -0.1259272 -0.026171168 -0.015763015 -0.13720214 -0.05388423
-0.080295786 0.026859727 -0.111043386 -0.14982231 0.12709628 -0.09191445 0.032267172 -0.09910345
-0.04330679 0.07984542 -0.19278982 -0.016849268 0.04669004 -0.16236013 0.1389045 -0.14875756
-0.06611261 -0.14074092 0.072249405 0.015005325 0.0134615395 -0.18258104 0.17058311 -0.024459518
-0.073634066 0.02320918 0.010741921 -0.0042214696 0.11116057 0.092817105 0.11411458 0.047249965
-0.1250149 0.012541941 0.19220985 0.06948443 -0.104845844 -0.15706454 0.15212691 0.17705667
0.08987643 0.003058139 0.089189395 0.101307176 0.09785417 0.12951183 -0.11302692 0.124664895
0.09195681 0.009223803 0.13159344 0.058309153 -0.075756766 0.036639694 0.046126284 0.21223237
-0.13022849 0.112743646 -0.08346152 -0.19901122 0.080559805 0.11975502 0.1318785 0.032232992
-0.05091833 0.041102123 -0.11196694 0.043770418 -0.14940764 -0.0595244 -0.02851955 -0.1304765
0.067875005 0.09647763 0.0139419995 -0.019266244 0.108325265 0.050279763 0.058789503 0.07101293
0.12502679 -0.04042449 0.19691053 -0.07544626 -0.13369891 0.06385317 -0.09670331 -0.05300081
0.13565606 -0.054939672 0.10404632 0.0929701 -0.0679217 -0.1440654 -0.15222344 0.07713389
0.097247824 0.14480527 -0.07889104 -0.17959137 -0.12217019 -0.11000927 0.093005866 -0.04190119
0.023718508 -0.08736034 0.14551817 -0.18296689 -0.048147295 0.034737505 0.16773461 -0.21241769
-0.19210294 0.10011284 0.027105926 0.10954121 0.15033089 0.10231777 -0.107745685 -0.011402117
-0.17126843 -0.076171756 0.13737172 0.081074566 0.009893427 -0.106405474 -0.13248865 -0.007276198
0.008204607 0.1282158 0.07944685 0.048915267 0.047371797 0.019542554 0.03773858 0.08143263
-0.09820522 0.070825696 -0.16864783 -0.15503374 -0.086074926 -0.14285016 0.0063990355 0.15543324
0.0808009 0.0046824235 -0.033155322 -0.057418145 0.010087033 -0.06083662 0.0045620617 -0.122936524
0.08939988 0.0328033 -0.043764547 0.0011865905 -0.08455266 -0.15803312 -0.050402485 -0.14529164
-0.08479418 0.08827472 -0.10547503 0.051110677 0.15900221 0.02550366 -0.10242659 -0.04550215
-0.08552261 0.019378774 -0.15740387 -0.089745425 0.009349195 -0.20519316 -0.094386645 0.040239017
-0.08179048 -0.13591477 0.04489831 0.14173245 0.1173409 -0.07202118 0.016636116 0.12843722
0.12538838 -0.047203496 0.10574101 -0.077962324 0.086766474 0.050167616 -0.19691053 -0.017138338
0.01269441 -0.09520982 -0.13332373 -0.021378024 -0.15666066 -0.037127152 -0.0897716 -0.13001685

lstm.bias_ih_l0 f4 [128]
00000000: 51b0 093e bcde 16bd 6c92 033e e82c b0bd
00000010: 0a6e f33d aac1 163e 6293 7fbc 1475 5e3e
00000020: afb2 1e3e 37af d73b 98d1 9a3a 54ee 6f3d
00000030: cdfe edbd cd7f ec3b 79e7 04be 5802 d03d
00000040: 25e0 5c3d d67f 03be 9a47 8a3b 41d4 d03d
00000050: fe31 8fbd c021 cb3d 1aa6 62bd 576c 6d3d
00000060: c82c da3c c398 cbbd c4f8 d03c 75f2 c8bd
00000070: 1ed4 a93a f2df 7d3d 4fee 553c f4ff e3b9
00000080: cc89 3c3e 2976 403e fcd1 55bd 7e43 843d
00000090: b70a e13d a55a 4d3d 2e80 0b3d 111f c9bb
000000a0: b418 b03d 04fd c2bd c993 723b 4228 eabc
000000b0: bb6a 043d 9030 c53d 13bb e2bd 1a48 aabd
000000c0: 121f 1c3d 267e a63d ea80 f2bd 73fb 633d
000000d0: df34 6ebd 807a fdbd d787 6e3e ddf5 7dbd
000000e0: abe9 c7bc 9869 4e3e 8381 58bd bb9a 97bd
000000f0: b02b 95bd d294 4fbd d884 903d d9a9 e53d
00000100: 70f8 de3c 088d 25bb 28fe f43c 38c9 11be
00000110: 1422 be3d c435 21be 7df6 d83d 3e15 30be
00000120: 9bb8 d8bd 287b 0dbe 20fc 743d 8d0b 063e
00000130: 8f9e 22be 06df 313d f08e b93b 3a84 893d
00000140: 29ca 17be 674f 08be fc4a d23c f4ae 123d
00000150: 13bb 4dbe ce2c 0fbe 9da5 30be 8c15 0b3c
00000160: 1f88 2abe b720 6fbd eadc 38bd d6c7 e6bd
00000170: 8f9d 08be f582 dcbd 6b7b aebc 7285 073e
00000180: 49b4 243d f979 443e e547 873d d569 1b3e
00000190: ed23 0a3e a9b9 213d f7df 503e 196f 6dbd
000001a0: 713b 073b d112 373d 22fc 993d cd8a e83b
000001b0: c005 953d cdab d9bd 840d 4f3e 59bf cf3d
000001c0: 4d98 dc3c 340c 343e 8a55 46bc 9216 e9bd
000001d0: 776b 7bbd fab7 403e 3919 96bc 12bf e63d
000001e0: d3d0 103c f4ca 1e3e c49b 99bc 0fed 163e
000001f0: 8a86 633e f016 863d 1f53 a6bd 1d1d a03d
0.13446166 -0.03683351 0.12848824 -0.08602315 0.11886223 0.14722314 -0.015599104 0.2172435
0.1549785 0.0065821665 0.0011811731 0.058576897 -0.11620865 0.0072173835 -0.12978925 0.10156697
0.0539247 -0.12841734 0.0042199614 0.10196734 -0.06991957 0.09918547 -0.055334188 0.05796465
0.026632681 -0.09941246 0.025509246 -0.0981187 0.0012956893 0.06198115 0.0130573055 -0.00043487514
0.1841194 0.18795075 -0.05220221 0.064581856 0.10988372 0.050135273 0.03405779 -0.0061377366
0.08598462 -0.09520915 0.0037014356 -0.02858365 0.03232835 0.09628403 -0.11070838 -0.083145335
0.03811557 0.0812953 -0.11840995 0.055659723 -0.05815589 -0.12376881 0.23294006 -0.06200205
-0.024403414 0.20157468 -0.052857887 -0.07402559 -0.07283723 -0.050679035 0.07056588 0.112140365
0.027218074 -0.0025261063 0.029906347 -0.14236915 0.09283844 -0.15743166 0.10593889 -0.17195603
-0.10582086 -0.13816512 0.059810758 0.13090344 -0.15880798 0.043425582 0.0056627914 0.06714673
-0.14823212 -0.1331154 0.025670521 0.03581138 -0.20090894 -0.13981935 -0.17250676 0.008489024
-0.16653489 -0.05838081 -0.045132555 -0.112685844 -0.13341354 -0.107671656 -0.021299085 0.13234499
0.040210996 0.19187154 0.0660551 0.1517709 0.13490267 0.0394837 0.20397936 -0.05796728
0.0020634795 0.04469568 0.07518794 0.0070966245 0.07276487 -0.106284715 0.2022 0.101439185
0.026928091 0.1758278 -0.012105355 -0.11381258 -0.061381783 0.18820181 -0.018322574 0.112669125
0.00883885 0.15507108 -0.018751033 0.14738868 0.22219291 0.06547344 -0.08121323 0.07818053

lstm.bias_hh_l0 f4 [128]
00000000: 2793 36bd 129f b1bd 4b93 acbb 27f6 543c
00000010: 6f3f 973d 6096 653c 2977 3e3d 0bfc 863c
00000020: 1a4a 03be 5ec4 283c 9660 b23d 4695 3b3e
00000030: ae95 31be 5f7b 35bd a196 9abd 51e8 b3bb
00000040: c9ce 48bd b513 2d3e 8715 afbd a23f a8bd
00000050: 22cb c23c 32b2 8e3d e72f 6f3e 9fab b03d
00000060: a02f 503e b90a 9c3d 35f2 debd 13e7 063d
00000070: e1bb 7c3d 7a08 913a 1d8e c83d 33c7 aabd
00000080: 3f82 4f3e 650b 8cbd 360c 5a3e a158 2e3e
00000090: a236 2d3e d6a3 21bc b280 0bbe 7a81 3c3e
000000a0: 573d b8bd 0d13 09be 88a3 f93c 5922 afbd
000000b0: adea bf3b c75f 333e a59c 733b e8b9 bd3b
000000c0: 5056 6fbd 7140 b33d 4178 a33d 73ae 353e
000000d0: db49 00be 701e a33d 3f7d 15bd 3c65 193e
000000e0: cf7a 473c e401 403e b601 c2bb a23a 33be
000000f0: 6aa7 4e3c 8f6f 543e 438b 41bd cd39 423d
00000100: b1f0 bcbd 42f4 d6bc 534e 653d cbb5 92bd
00000110: 99b2 26be f04a 063e 4f0e ebbd 4e93 84bd
00000120: 3cda 103e c3ee 483b ddf0 c83d cf6c 3b3e
00000130: 4b4d 22bd bb28 5abd 18a9 6a3c 3cc5 c73d
00000140: 4987 50bd 2828 243e 4969 5b3d 58d5 34be
00000150: deed ea3d 4df8 8c3c d6b7 7c3c b2c2 2a3d
00000160: db54 aa3d da31 b8bd 0627 a6bb fbc2 22be
00000170: b0f5 61bd ffc0 53be 9e44 373e 802a 20be
00000180: 01b8 1b3d e8a3 65bd 06d9 eb3d 66f0 9e3d
00000190: fc8e ab3d 1162 243e 2931 3b3e ccce 563e
000001a0: 36be 8bbc d1c5 88bd e587 543e dd28 1c3e
000001b0: 5434 b3bb 3ea1 10bd 7c4e c3bd dbb3 233e
000001c0: 6d65 ac3d 3c2c 343e c073 7a3d ba59 473e
000001d0: 8c25 aa3d 1d73 5e3d 5064 ec3d 3187 4c3e
000001e0: 9ed4 2c3e db94 4d3e fcd3 aa3d ac5f b03d
000001f0: a8c9 ce3d 2b51 373e 5fd4 fb3d 2a3b fd3c
-0.04457393 -0.086729184 -0.005266582 0.01299814 0.07385146 0.014012903 0.04650036 0.016477605
-0.12821236 0.010300724 0.087098286 0.18318662 -0.17342255 -0.04430711 -0.075482614 -0.0054903408
-0.04902533 0.16902049 -0.08549028 -0.08215262 0.023778502 0.06967582 0.23358117 0.08626484
0.20330667 0.07619233 -0.10886041 0.032935213 0.061702613 0.0011065148 0.09792731 -0.083387755
0.20264529 -0.06838111 0.2129372 0.17025997 0.16915372 -0.009865722 -0.13623312 0.18408766
-0.08996075 -0.13386174 0.030473486 -0.08551473 0.005856833 0.17517005 0.0037172225 0.005789984
-0.058431923 0.087525256 0.07981921 0.17742328 -0.12528174 0.0796479 -0.036496397 0.14980024
0.012175276 0.18750721 -0.005920614 -0.17502835 0.012613157 0.20745681 -0.04725195 0.047418404
-0.09225596 -0.026239518 0.0559829 -0.071635805 -0.16279067 0.13114524 -0.114773385 -0.06473409
0.1414575 0.0030659891 0.09811566 0.18303226 -0.039624494 -0.0532615 0.014322542 0.09754416
-0.050910268 0.16030943 0.053567205 -0.17659509 0.11471151 0.017208243 0.015424689 0.041689582
0.08316966 -0.089938834 -0.00507057 -0.15894692 -0.055165946 -0.20679091 0.17897269 -0.15641212
0.038017277 -0.056064516 0.11516003 0.07760696 0.083768815 0.16053034 0.18280472 0.20977324
-0.017058473 -0.066783555 0.20754965 0.15249963 -0.0054688845 -0.035310023 -0.09536454 0.15986578
0.08417783 0.17594999 0.061145544 0.19467822 0.08307943 0.054309 0.115425706 0.19973446
0.16877982 0.20076315 0.08341214 0.08611998 0.100970566 0.17902057 0.12296366 0.030912

dense1.weight f4 [32, 32]
00000000: 9910 cbbc 929c 453d ba0e 00be c8db 18be
00000010: 4783 93bd 0b40 a93d e1d9 533e 1b8f 5d3d
00000020: df47 053d 7772 13be 3dd8 a93d fa4a 623e
00000030: 2b01 7e3d 2598 41be d761 80bd e72d 693e
00000040: 641e 4bbd 688e cebd 2ee2 ce3d 5156 743a
00000050: fea7 c7bd 5079 313d 3ca8 51be 197a b73d
00000060: bca9 e1bd 421d 4c3d 40c2 943d ce3c f13d
00000070: aa11 e2bd 0f6c 6cbe 5ce4 4dbd a9c8 9f3c
00000080: 47bd 3a3e b090 ad3c 67fb c6bd cdb9 5e3d
00000090: a354 e83d 04db 6c3c 3a81 dfbc f1b4 a1bd
000000a0: c379 683d 7a0b f4bd 13b5 b7bd a640 c23b
000000b0: 5d0e cd3c d6a7 dabd c842 4abd 2ce0 933d
000000c0: 3917 4f3e 429e 58bd e8b5 273d aff6 233d
000000d0: 3c6b dcbd f748 4f3d 2637 c2bd 2249 29bd
000000e0: 51ae cdbd 7cfe 02be 419e 74bd 9b9c 613c
000000f0: 7f36 debd d25d d6bc f17c 50be 1d3a 2dbe
00000100: d265 51be 7b0e 69bd 6b0d 9ebd 8a60 c03d
00000110: 9267 10bd a8de 4bbe c974 473e e5ce 19be
00000120: 8f7b e0bd a20f 5a3c 9619 a7bc 5c1b 6a3d
00000130: ff3f 69bd a2f3 37bd 5d36 dcbd 1f09 1a3d
00000140: 5909 25bc 3c35 123e 09c6 1f3d 8b5a 8c3d
00000150: 45d7 6dbd 7fa5 6b3d b817 e3bd 6255 a93d
00000160: a0ac 3bbd 70e9 9ebd 3322 863e b7e6 f33d
00000170: a7f5 5e3d 97e0 35be 3261 4a3e fe94 493e
00000180: bc6d 8dbd bbc5 2a3d 05f0 ca3d 5ef9 5dbe
00000190: 3864 c93d 5373 d9bd bf2f b4bc 9757 57bd
000001a0: cc99 1abc a90e 30bd 3536 333e 58e1 94bd
000001b0: 71fe c4bc f57a 97bd dc25 89bd 01fe 94bd
000001c0: 0559 01be 8337 3ebb fc56 983d 6a8c 0abe
000001d0: 3d07 b13d 564c ed3b c8a8 20be 08da 333d
000001e0: 6e15 5bbe fa1f 0d3e fe72 58bc d118 ac3d
000001f0: 1672 033d 2e28 ffbd 907a a93d e2e3 5f3d
00000200: 016e 55be a0cd 78bd 0595 19be 9564 c23d
00000210: c72e 4abe c5e3 8f3c 78f0 08bc 34b5 03bb
00000220: da04 823d f43d 703d 8a01 b0bd dfdb aa3d
00000230: bc9a 453d 1ff7 35bd b7ba 8e3d 04e7 703e
00000240: d9be 4dbe c418 cc3d 587f c63d d74b aa3d
00000250: 8e00 203c e3b5 01be c014 a8bd 9159 71bd
00000260: 2570 52bd 5d44 a33d b3ff 743e 7b3e d63d
00000270: 5e6e 46be 6800 e13d 88a0 babd 6a29 fa3d
00000280: 02d3 883c 0994 1b3e 33ea b73d c574 eabd
00000290: 755a 8a3d fa2c 66bd 9b9e 7f3d 9b6f 0bbe
000002a0: 1122 69be 5600 00be 0351 913d c605 ca3d
000002b0: 3321 cbbc 123c aebd 9309 623d 3c6f aebc
000002c0: 823e b3bd e910 9cbd 5d2d aa3d 84d9 9f3d
000002d0: 6396 2cbe e602 033d 15b5 0abe 4016 41bc
000002e0: c52f 5c3c 0dc4 fabd 5c7d 223e fcd1 9c3d
000002f0: 04eb 8abc 0d41 a8bd 93a7 abbb f120 f7bc
00000300: 21b0 503e ca12 443d 7e3e fd3d 4001 89bd
00000310: 2fd7 183e e3ca 78bd 5ec0 b83d f6cf 3c3e
00000320: 4dc6 e7bd e31c e9bd 949a 51be 1f4e 03be
00000330: fcf2 b83c e10c dfbd 4a13 e23d 07cd 27be
00000340: 9e3c f9bb e8a3 bfbb 004b 1abe 357b 2e3d
00000350: e88c efbd edb3 dfbd 2982 6c3d ea31 d2bd
00000360: 542b 2d3e 5259 0bbe 13c1 b83d 918b 2e3e
00000370: 6a3f 27bb f8e6 953c ce95 9f3b 21c3 0dbe
00000380: 78a9 e5bb 47fd 9c3c 01ed dcbd 9ba9 41be
00000390: 4690 a93d 3b28 51be 44cb 163d f576 af3c
000003a0: e51b 33be 054b 1dbd dd68 663e 41fe db3d
000003b0: d15b 1c3e 9403 41be 49b5 233e d671 753d
000003c0: d999 f6bc a3b7 32bc 5c04 633c 81c2 613d
000003d0: bc43 473d 8c36 41be 0812 bc3d f867 783e
000003e0: 1ea8 03be 2069 b53d 57e9 403e 0288 51be
000003f0: a5e8 143c 0d16 da3d fffd 703b 5d4c babd
-0.024788188 0.04824502 -0.12505618 -0.1492759 -0.072027735 0.08264168 0.20688583 0.054091554
0.032539245 -0.14399134 0.08293197 0.22098914 0.062012833 -0.18905695 -0.062686615 0.22771417
-0.04958953 -0.100857556 0.10101734 0.00093207235 -0.09748839 0.043328583 -0.20474333 0.08958835
-0.110187024 0.04983259 0.07263613 0.11779176 -0.110385254 -0.23088096 -0.05026661 0.019504862
0.18236266 0.021187156 -0.0971592 0.054376412 0.11344268 0.014456514 -0.0272833 -0.0789584
0.056756746 -0.119162515 -0.08970084 0.005928117 0.025031263 -0.106765434 -0.049380094 0.07220492
0.20223702 -0.0528853 0.040944964 0.040030178 -0.10762641 0.050606694 -0.09483175 -0.04132951
-0.10043014 -0.1279239 -0.059721235 0.013770248 -0.10850238 -0.026167784 -0.20360161 -0.169167
-0.20448998 -0.056898575 -0.07717403 0.09393413 -0.035255022 -0.19909155 0.19478144 -0.1502033
-0.10961067 0.013309391 -0.020397943 0.057155 -0.056945797 -0.04491008 -0.107525565 0.037606355
-0.010073029 0.1427812 0.03900722 0.06853207 -0.058066625 0.057530876 -0.11088508 0.082682386
-0.045818925 -0.077593684 0.26197967 0.1190924 0.05443349 -0.17761455 0.1976364 0.19685742
-0.06905696 0.041692477 0.09909061 -0.21677157 0.09833568 -0.106176995 -0.021995423 -0.052573767
-0.009436082 -0.04298273 0.17501147 -0.072695434 -0.024047108 -0.07396499 -0.06696674 -0.0727501
-0.12631615 -0.0029024787 0.07438466 -0.13530126 0.08643959 0.007241766 -0.15689385 0.043909103
-0.21394894 0.1378173 -0.01321101 0.08403171 0.032091223 -0.124588355 0.0827533 0.054660685
-0.20842744 -0.060742974 -0.14998253 0.09491841 -0.19744407 0.017564664 -0.0083581135 -0.002009702
0.063485816 0.058652833 -0.085940436 0.08342718 0.04824327 -0.044425126 0.06969207 0.23525625
-0.20092334 0.09965661 0.09692258 0.083152466 0.009765757 -0.1266704 -0.08207083 -0.058923308
-0.05137648 0.07972024 0.23925667 0.10461136 -0.19378039 0.109864056 -0.0911265 0.1221493
0.016702179 0.1519319 0.08980217 -0.11448053 0.067555346 -0.056195237 0.062407117 -0.13616793
-0.22766902 -0.12500128 0.0709553 0.098643824 -0.024796104 -0.08507551 0.055184912 -0.021293275
-0.08752157 -0.07620413 0.083094336 0.0780516 -0.16854243 0.031985186 -0.1354564 -0.01178509
0.0134391235 -0.12244425 0.15868133 0.07657239 -0.016957767 -0.082155325 -0.0052384823 -0.030167075
0.20379688 0.04786948 0.12365435 -0.066896915 0.14925836 -0.060740363 0.09021066 0.18438706
-0.1131712 -0.11382463 -0.20469123 -0.1282277 0.022576801 -0.10891128 0.11038835 -0.16386805
-0.007606103 -0.0058483966 -0.15067673 0.042597968 -0.116967976 -0.1092299 0.057741318 -0.102634266
0.1691106 -0.13608292 0.09021201 0.17045428 -0.0025519975 0.018298611 0.004870153 -0.13843967
-0.0070087276 0.01916374 -0.107873924 -0.18912356 0.08279471 -0.20425503 0.036814943 0.021419028
-0.1749111 -0.038401622 0.2250094 0.107418545 0.152694 -0.18849021 0.15987124 0.059923016
-0.030102657 -0.01090804 0.01385602 0.055117134 0.04864858 -0.18868464 0.09183127 0.24258411
-0.128571 0.08857942 0.18839012 -0.20462039 0.00908867 0.10648737 0.0036772487 -0.090965964

dense1.bias f4 [32]
00000000: ede1 e4bd ea01 e9bd c241 253e 6258 ae3c
00000010: 0182 843d 051d 583e f204 9a3d 9f7e 603e
00000020: 821f 6c3e c6d4 a43d 2d53 79bc 4fea 053e
00000030: 1f85 9ebc 3aea 9a3c c6c9 b03c 2612 b53c
00000040: fecd 973c 9423 3abd c8f3 0f3e 79c5 a13d
00000050: 2a68 573d 3b4a 3f3e 8e0d 393e f3f6 9a3d
00000060: 954e b6bd 3027 2bbe 12db 23bd f930 51be
00000070: b0c7 503e 92cc c7bc dacc 36be 57a2 053d
-0.111759044 -0.11377318 0.16138366 0.021282379 0.06470109 0.2110482 0.075204745 0.21923302
0.23058894 0.08048396 -0.015217585 0.13077663 -0.019350586 0.018910516 0.021580588 0.02210338
0.018530842 -0.045444086 0.14057839 0.07898993 0.052589573 0.1868066 0.18071577 0.07566633
-0.08901707 -0.16714168 -0.040003844 -0.20428838 0.20388675 -0.024389539 -0.17851582 0.032625522
