ecg/CL_trial_7_best_model.pth (torch, 142416 bytes, 15 tensors)

conv1.weight f4 [64, 1, 50]
00000000: fbab d23d 1501 e03d d788 33bd 6737 ef3d
00000010: 3583 41bd 2377 133c 43f6 b9bd 76d7 763d
00000020: df3b b73d 2234 10be 201c b43d a18a eebb
00000030: 6746 963d a947 12bc dbf4 333d 3d48 24bd
00000040: 6c64 be3d 6bc5 f83b 7ff8 99bd 07d5 033d
00000050: ef0f 85bd 4bda 62bc b146 55bd 309c cf3d
00000060: 4379 d4bd 2c99 6ebd 4e13 0cbd 8a1d a2bd
00000070: d6c2 863c 918e 0ebe 6ad3 033e 0ee0 fcbd
00000080: 4b25 d73d 4afc 8a3c 0b5b 6abd 2984 993d
00000090: 515a f33b bb4f cc3d 1879 db3b 4729 6bbd
000000a0: c369 f33c 2ad4 3fbd 104d 4a3d cf4f f13d
000000b0: f823 9d3d 2f58 80bd 0b63 aa3d 48da 943c
000000c0: 708e 863d c515 c0bd b499 18be 5d67 80bd
000000d0: 8d6b eabd a02b e63d 2800 1c3d fff8 663d
000000e0: f440 2e3d 1a0d 75bb 88bf e03d a399 d3bd
000000f0: 9187 c73b fa55 cabd 72ef 2d3d c9e1 1ebd
00000100: 81d6 5a3d 5b3c 97bc 927b 043e 6963 94bd
00000110: acc0 96bd 970d 97bd 1b56 0d3e 9634 703d
00000120: c6a6 153e 87e5 e6bd 982a 0ebe bdf3 dbbd
00000130: 6a6b b5bd 8dc0 883d 9f26 7a3d 9ed6 043e
00000140: a872 7cbd 7d14 b0bd 50d9 b13d 643a 3bbd
00000150: 3a4e c63d d4e3 b6bc b82c b93d 742a d1bd
00000160: ee59 82bd 7b9d 563d f8e3 243d 3271 debc
00000170: a6c1 bd3d b694 d43d 5b22 c8bd de14 8fbd
00000180: 1e8d 0b3e 4d2a 30bd 0d5d 45bd 1fed 0bbe
00000190: eb70 cfbd 90fe 9c3c 56cc b3bc e781 d2bd
000001a0: 0e5e c13b be0a c1bd ba5f f2bd 9ce2 9cbd
000001b0: 961b fabd 1d67 b5bd 6ed6 113e db43 e73c
000001c0: e19d 3a3d 0f10 06be de0b d3bd 7427 68bd
000001d0: e0a0 a93c 76ed ffbd cc6f 92bd 09d2 c2bd
000001e0: 5e00 19bc 99df 80bd 5062 a8bc c463 d9bd
000001f0: 39d0 dcbd fe8b c0bd eaa9 74bd 7532 f9bd
00000200: 575f f73d ef70 cfbc 0ab9 fd3d 27e7 3e3d
00000210: f009 f0bd 3c2e ce3d 7acb 3cbd 0115 81bd
00000220: 6409 01be bfc0 18be 8eaf 013d c568 20bd
00000230: e570 413d b528 fdbd e210 c93d 7b29 e5bd
00000240: 3983 0bbd 1d5e a63c 6030 793d f6dd c93d
00000250: 355c e93d bdb9 00be 132b 2c3d 9ce4 5dbd
00000260: 1eb4 1abc 4666 c7bd 4f64 113e 4085 bdbd
00000270: 1243 ae3d d578 7e3d 413a 6c3d 607e 87bd
00000280: 12ea 143e e7f3 2b3d d39c ab3c 3f33 fcbd
00000290: f16f 833d 3e80 55bc d708 32bd f604 183e
000002a0: 5c26 663d 7ac8 72bd f3a1 59bd 96e5 5e3c
000002b0: 453e c83d fab5 b3bc 40f9 a6bd 0f19 54bd
000002c0: 463f dfbd d99e 913d 53bf 053e 441f eebd
000002d0: da9a 5a3d 8bfc c13d 6d46 2b3d 82d2 19bd
000002e0: 4351 ac3d fcb4 a33d 7f7e 693d 94f0 b3bc
000002f0: 50b7 08bd 5f29 bd3c 2744 86bc 855f 05bd
00000300: d500 dc3d 6d91 113e 9c04 683b fc74 73bc
00000310: 320b aa3c fbea 753c 5343 833d 93e3 903d
00000320: d734 0fbe 84cb 79bd 6de2 e53d 1117 493d
00000330: 0587 61bc 968b bcbd 31ea bebd 453f 08be
00000340: 3783 52bd b102 2f3d 4492 ae3d e058 713d
00000350: f42a 09be 108a c1bd 714d 05bd 45f0 013e
00000360: 382a 3b3c 8c93 3bbd c6d9 4d3d 9e25 81bd
00000370: 16fb cfbd c63f bf3d 592f 99bd 03db 1bbd
00000380: f9ea 19be b129 ad3d af2e db3d c869 553d
00000390: d208 c8bd 1bf7 0dbe c9a9 e8bd 8137 dd3d
000003a0: 13db 933d 56fb fb3d 5513 a23d ec22 013d
000003b0: 2ad6 d7bb 778a ebbd 7641 04be 249c 0fbe
000003c0: c289 4a3d 27b5 a0bd 7fd3 18bd b7c3 b6bd
000003d0: ee6c 05bd 83f5 d8bd 307c c8bd 20f2 2e3d
000003e0: 7326 3cbd 3a2e ab3d 050c 08bd b4b9 b7bd
000003f0: ad0f 11bc b967 55bd 3582 e0bc 3690 f5bd
0.10286709 0.109377064 -0.043831673 0.11680489 -0.04724427 0.009000572 -0.09080174 0.060264073
0.089469664 -0.14082387 0.08794427 -0.0072797094 0.07337647 -0.008928218 0.043934684 -0.040107954
0.09296498 0.0075918934 -0.075181 0.03218558 -0.0649718 -0.01384599 -0.05206937 0.10137212
-0.10374691 -0.058251545 -0.034198098 -0.079157904 0.016450327 -0.13921572 0.12873617 -0.123474225
0.1050516 0.016966004 -0.05721573 0.07495911 0.007426538 0.09976145 0.006697785 -0.057412412
0.029713517 -0.046833195 0.0493899 0.117828004 0.07672876 -0.0626682 0.08319672 0.01817049
0.065701365 -0.09379152 -0.14902383 -0.06269715 -0.11446295 0.112387896 0.038086087 0.056389805
0.042542413 -0.0037391842 0.10974032 -0.10332038 0.006089159 -0.0987968 0.04246468 -0.038789544
0.053427223 -0.018461397 0.12937763 -0.072455235 -0.07360968 -0.07375639 0.13802378 0.0586439
0.146144 -0.112742476 -0.13883436 -0.10739849 -0.08858378 0.06677351 0.06107199 0.12972495
-0.061632782 -0.08597658 0.08684027 -0.045709983 0.09682889 -0.022325434 0.090417325 -0.102131754
-0.06364809 0.05239628 0.04025647 -0.027153585 0.09265451 0.10379927 -0.09772178 -0.06986402
0.1362805 -0.04300909 -0.048184443 -0.13664673 -0.10128959 0.019164354 -0.02194802 -0.10278683
0.005901105 -0.09425877 -0.11834665 -0.0766041 -0.12212293 -0.08857558 0.14241955 0.028230598
0.04556072 -0.13092063 -0.10304998 -0.05667825 0.020706594 -0.12496464 -0.0715023 -0.09512717
-0.009338466 -0.06292648 -0.020554692 -0.10614732 -0.10781903 -0.094017014 -0.059732355 -0.12167827
0.120787315 -0.025322406 0.12388809 0.046607163 -0.117206454 0.10067412 -0.046092488 -0.06302834
-0.12601238 -0.14917277 0.031661563 -0.039162416 0.047226805 -0.1236128 0.09817673 -0.111895524
-0.03406069 0.020308549 0.06083715 0.09856789 0.1139454 -0.12570854 0.042033266 -0.054173097
-0.009442357 -0.09736304 0.14198421 -0.09253931 0.085088864 0.062126953 0.057672743 -0.06615901
0.14542416 0.04198065 0.020948803 -0.12314462 0.064178355 -0.013031064 -0.04346546 0.14845642
0.056188926 -0.05927322 -0.053132962 0.013604542 0.09777502 -0.02193736 -0.081530094 -0.05178171
-0.1090074 0.07110376 0.13061266 -0.11627057 0.053370334 0.09471997 0.04181521 -0.03755427
0.08413937 0.079935044 0.0570054 -0.021965303 -0.033377945 0.023091016 -0.01638992 -0.032561798
0.10742346 0.14215632 0.0035403138 -0.014859434 0.020757291 0.015009637 0.064093255 0.07074656
-0.13985 -0.060985103 0.11224828 0.049094263 -0.013765101 -0.092063114 -0.09322012 -0.13305385
-0.051394667 0.042727176 0.08523992 0.05892265 -0.13395292 -0.094501615 -0.032544557 0.12689312
0.01142364 -0.04579501 0.050256513 -0.06306003 -0.10155313 0.09338336 -0.07479734 -0.038050663
-0.15031041 0.08455218 0.107022636 0.052102834 -0.09767307 -0.13863795 -0.11360509 0.10801602
0.072195195 0.12303798 0.079138435 0.031527445 -0.0065868096 -0.115010194 -0.12915596 -0.14024407
0.049447782 -0.07847052 -0.037311073 -0.089240484 -0.032574587 -0.10593703 -0.09789312 0.042711377
-0.045935106 0.083584264 -0.033214588 -0.08970967 -0.008853835 -0.05210087 -0.027405838 -0.11990397

conv1.bias f4 [64]
00000000: 37d1 4dbd 3b5d c23d e28b 023e 588c 343e
00000010: 00c9 bcbd bf27 283e 775e 0f3e cd27 413e
00000020: a194 013e 583f 9ebb 0444 183e 829e 3b3e
00000030: 70d7 00bd 8ed5 3b3d 2ae5 153e 03a6 1c3e
00000040: bd8a 083e 2f77 2f3e 36ef eebc 39a6 913c
00000050: a5eb e2bc d1c0 fd3d b775 843d a777 5abd
00000060: 50fb 033c e7a1 aabd baa5 05be b76f 403e
00000070: 4c1e 18bd 8c9e ef3d 2ac3 993c c24c b73b
00000080: 517c 133d c810 1d3e 45c8 343d 8125 303e
00000090: 96c3 003e e521 143e 6460 adbd 2ec3 16bd
000000a0: 86e7 94bd fa5f 5f3c 3a12 0d3d 97a6 673d
000000b0: b031 373e 0f1c f23d 8464 5bbd 876f 8fbd
000000c0: da9c 253e 82c9 983d 49ef d33d 5a94 a0bc
000000d0: a2bb 193d 05dd 983d 86cf 57bd bc0b 053e
000000e0: 9d5e 063e b623 1cbd e1ef 66bc 67b1 803c
000000f0: 152d 8d3d dd85 453c cbf4 403e b235 aabd
-0.05024835 0.094904386 0.12748674 0.17631662 -0.09218025 0.16421412 0.14000879 0.18862839
0.12654354 -0.0048293285 0.14869696 0.18322185 -0.031455457 0.04585796 0.146382 0.15297703
0.13334174 0.17135309 -0.029166799 0.017779456 -0.027700255 0.123902924 0.06467765 -0.053336766
0.008055523 -0.08331662 -0.13051501 0.18792616 -0.03713827 0.11700162 0.01876982 0.005593867
0.03600723 0.15338433 0.044136304 0.17201807 0.1257461 0.14466055 -0.08465651 -0.03680723
-0.07270722 0.013633722 0.03444121 0.056555357 0.17890048 0.11821758 -0.053562656 -0.07003694
0.16173115 0.074603096 0.103483744 -0.01960199 0.037532456 0.07464031 -0.052688144 0.12992758
0.1312203 -0.038119994 -0.0140952775 0.015709592 0.06893364 0.012055841 0.18843381 -0.08311023

conv2.weight f4 [32, 64, 10]
00000000: 1396 113d 17b2 043d 4e42 883d 93b0 853d
00000010: 6691 4c3d bb0c c33d 69d2 e33c 0ca7 a43d
00000020: 5e90 2c3d 60b0 643d 53b5 023d 534e 0c3d
00000030: 29cd 0b3d d6c0 ae3d 3081 4d3d 8f89 b93d
00000040: c043 383d 7c56 673d 37ba 953d fd75 ce3d
00000050: 5f03 613d d7ed b03d 556f a03d 9e44 b73d
00000060: 16c0 ba3d f367 a53d cf2d 6b3d 7f11 623d
00000070: 41cc a33d fe76 b33d e2bf 873d a711 b73d
00000080: 7857 323d e3ad ba3d 4171 843d e4d6 343d
00000090: 4b40 543d eeb1 213d 2c98 a23d b7db 473d
000000a0: e19a 2b3d 5f1b 433d 9532 f03c d29e 693d
000000b0: 260d 5d3d 1f62 873d 07d6 aa3d 522f 0e3d
000000c0: e5fe a63d a02d 6b3d 16e5 2f3d 012c 433d
000000d0: 5e56 9d3d 68a6 9d3d 6edf 843d c648 523d
000000e0: 6ba7 b03d bbd6 943d 9bd7 033d d4a9 7b3d
000000f0: 4f3e 693d 7703 4e3d b9cd 373d ef66 173d
00000100: 2472 d93d a4a8 013d ed08 d23d a8d0 153d
00000110: ec04 5f3d e91d 523d 2046 453d 8df0 ab3d
00000120: 91fc bf3d b8bf 3e3d b68e 583d 51b5 b93d
00000130: 1c64 833d a39d a53d 299e b93d d53c 6d3d
00000140: 3bc4 2c3d aa4a 9e3d b3b6 463d ef85 183d
00000150: 9a88 3e3d 8c4c 393d 195f d83d 5a1a 993d
00000160: 1d2e b23d 50e2 9c3d 06ab 173d 00c5 bb3d
00000170: cd28 6d3d 0dac 533d 33a0 c73d 4aed 303d
00000180: d13b 8f3d 1b3c d53c 8a97 aa3d e570 a63d
00000190: 2180 0b3d 1aa0 ad3d e8c3 8d3d f35f 3d3d
000001a0: 83d3 d03d c1fa b03d b0bc a73d 2139 563d
000001b0: c12a 433d 5588 423d ab52 a33d 8e7c a23d
000001c0: ed36 343d 2be5 d23d 1a03 b93d df28 693d
000001d0: e765 b43d 4b31 573d c49d a13d 1827 cc3d
000001e0: 995e d43c dd35 2f3d cfcc 683d 203d 8a3d
000001f0: 46fd f33c 1ce9 023d 24bb 673d 9108 5f3d
00000200: 59db 933d a364 8f3d be3f 983d 0c09 8d3d
00000210: d841 903d 9ea5 7f3d db15 a53d 8689 c33d
00000220: 9512 513d fcc1 443d 3fd4 b33d 7aa8 263d
00000230: b1d7 bb3d b669 ab3d 4002 973d 98c0 573d
00000240: 02f9 8d3d 2ddc 163d 082d 103d d0e2 da3d
00000250: e73b 133d f2aa 1f3d 2718 533d e3a7 8f3d
00000260: 90cb a43d 03c0 453d e48c 883d 7c67 763d
00000270: 5281 cf3d 09d8 d53d b3eb af3d 6093 8f3d
00000280: 4df7 cd3d efed 163d f07b b03d e972 3e3d
00000290: a47e d03d bc75 083d 681c a83d 7aed 1a3d
000002a0: 216e bf3d d876 9c3d ae1e d43d 452d 193d
000002b0: 8ee8 c13d 2236 333d 03e8 423d 6775 ae3d
000002c0: 40df 803d e251 213d 10d5 173d 7c07 7c3d
000002d0: 3edd 993d 568f ca3d fd31 be3d 8a48 853d
000002e0: 257c 273d f37f db3c bd9c cf3d 7daf 2a3d
000002f0: ff86 793d 2122 d63c 9a74 133d b7dc 913d
00000300: c603 4d3d 5c4d 7a3d 984a 733d 3b29 573d
00000310: 6c8a 4f3d 237e 6d3d 54b9 923d a5fc b13d
00000320: 9f2e b43d d214 e13c 0dd2 d33c c6da 6d3d
00000330: 6ff1 683d b35f ad3d 430f ca3d 3456 9d3d
00000340: 1a8f 253d acbb 6e3d ca46 c53d 57c8 b13d
00000350: d3ba 2c3d d46f 983d 1ccd 113d 3556 663d
00000360: c503 c83d 2268 563d 40b0 be3d 27dd 173d
00000370: 9f19 d83d 15d5 a93d b7c8 b53d 0aad 983d
00000380: 0951 843d a7dc 363d 370a 2c3d 3d09 1d3d
00000390: 75b8 c43d 35bb 443d 3a56 7d3d 7f08 933c
000003a0: 17f3 893d 7807 393d cba1 ef3c 5456 863d
000003b0: f171 c53c 02d4 683d 6657 083d f537 b33d
000003c0: 4140 ea3c 0689 8b3d 30db 9d3d 0a58 ea3c
000003d0: b558 b03d 51ad c23d 32fb 153d 24a1 783d
000003e0: 6a62 8f3d afb3 b23d 78be a73d c39d b23c
000003f0: 82c8 983c 5416 053c a5c9 203d 69e9 643d
0.035543513 0.032396402 0.066532716 0.065278195 0.04994335 0.095239125 0.027810292 0.08039674
0.042129867 0.055832267 0.031911206 0.034254383 0.034131203 0.08532874 0.05017203 0.0905944
0.044986486 0.056478962 0.07310908 0.10081098 0.054934856 0.08639114 0.07833735 0.089486346
0.09118669 0.08076467 0.057416733 0.055192467 0.07997943 0.0876293 0.066283956 0.08938914
0.043540448 0.091151975 0.06466914 0.04415025 0.051819127 0.039476328 0.07939181 0.04879352
0.04189575 0.047633525 0.029320994 0.05703623 0.053967617 0.06610512 0.08341604 0.034713097
0.08154086 0.05741656 0.042943083 0.047649387 0.07682489 0.07697755 0.06487928 0.051338933
0.086256824 0.07267519 0.03218804 0.061441258 0.056944188 0.050296273 0.044873927 0.0369634
0.10617474 0.03165497 0.10255609 0.036575943 0.054448053 0.051298056 0.04816258 0.08395491
0.09374345 0.046569556 0.052870475 0.090677865 0.06415579 0.080867074 0.0906337 0.057919342
0.042179327 0.07729085 0.04851408 0.037237104 0.046516992 0.045239016 0.105650134 0.07475729
0.08700202 0.07660353 0.037028335 0.09168434 0.05790024 0.051677752 0.097473525 0.043195046
0.06993831 0.026029637 0.08329685 0.08127002 0.03405774 0.084778026 0.06922132 0.046234082
0.10196593 0.086415775 0.08190286 0.052300576 0.047648195 0.047493298 0.07974752 0.07933913
0.043997694 0.102976166 0.09033795 0.056923743 0.08808499 0.052537244 0.078914195 0.09968394
0.025924014 0.042775977 0.056835946 0.0674994 0.029783856 0.03196059 0.056574956 0.05445153
0.072195716 0.07001617 0.07434033 0.06886491 0.07043809 0.062413804 0.08060809 0.09547715
0.05104311 0.04803656 0.08780717 0.040688016 0.09171999 0.08369772 0.07373476 0.052673906
0.0693226 0.03683107 0.035199195 0.10687792 0.0359458 0.038981386 0.051536705 0.07014444
0.08046639 0.04827882 0.06667498 0.060157284 0.10132088 0.10441596 0.08589878 0.070105314
0.100569345 0.036848005 0.08617389 0.046496306 0.10180405 0.033315405 0.08208543 0.03782413
0.09347177 0.07639855 0.10357414 0.037396688 0.094681844 0.043752797 0.047584545 0.085184865
0.062925816 0.03938473 0.037068427 0.061530575 0.07512902 0.098906204 0.09286878 0.06507976
0.040889878 0.02679441 0.10137317 0.041671265 0.060919758 0.02613932 0.03599987 0.07122176
0.050052427 0.061108932 0.05939731 0.052529555 0.05066912 0.05798162 0.07164255 0.08690766
0.08797955 0.027475748 0.025856996 0.058069967 0.056870874 0.08465519 0.09866192 0.076824576
0.040419675 0.058284447 0.096326426 0.0868079 0.042170357 0.074432045 0.035596 0.056234557
0.09766344 0.052345403 0.09310961 0.03707614 0.10551762 0.08292595 0.08876174 0.074548796
0.06460769 0.044644024 0.04200193 0.03833889 0.09605495 0.048030097 0.06184981 0.017948387
0.06735819 0.04517314 0.029251954 0.065594345 0.024102183 0.05684281 0.033286475 0.08750907
0.028595092 0.068132445 0.07707822 0.028606433 0.086106695 0.09505714 0.03661651 0.06070055
0.07001193 0.08725678 0.08190626 0.021803742 0.018650297 0.008122999 0.039254803 0.05588666

conv2.bias f4 [32]
00000000: f7df df3d 5d26 933d e402 d93d 8a80 583d
00000010: b114 9c3c 061b 71bc 1e67 dbbb 55cd 0c3d
00000020: 7ca1 c1bc 196d 973d 7e0d 59bd 5106 24bd
00000030: b323 153d 0afc 0fbd c91b 5dbd 28b5 ba3d
00000040: b60a 7a3d 5b64 f63b 606d 1b3d cef6 7a3d
00000050: d6c9 713d 6797 9ebc 9bf8 8abd 217f 17bd
00000060: 47c6 76ba 0e85 f7bc 2327 14bd e4a7 2b3d
00000070: 6884 1c3d 5b35 0f3d e399 4e3d bbc6 74bd
0.1093139 0.071850516 0.105962545 0.05285696 0.019052835 -0.014715916 -0.006695642 0.034375507
-0.023636572 0.073938556 -0.052991383 -0.040045086 0.036411 -0.035152473 -0.053981576 0.09116584
0.06104537 0.0075192875 0.037946105 0.061270528 0.059030376 -0.019359304 -0.06785699 -0.036986474
-0.0009413701 -0.030214813 -0.036170136 0.04190816 0.03821221 0.034962993 0.050439727 -0.059759837

conv3.weight f4 [16, 32, 5]
00000000: 2289 513d 7b5a 0e3e c5b9 f13d f2e9 7c3d
00000010: c24a bf3d d287 a23d 65d9 ba3c 8cf0 b23d
00000020: 3afe c13d d12a 4d3d 91f2 e03d 9ea6 c13d
00000030: 8c75 d43c 6a8e a73d 64a6 c73d 3f00 fc3d
00000040: 4911 c73b 5a2c 34bc 6bcd db3c bb2d 873d
00000050: 9f59 d5bb efb1 263d faf9 8e3a d070 5ebb
00000060: 48e0 a63d cd9f 8f3d 32c4 2c3d 33e2 b03d
00000070: a41a 4e3c ea03 2b3d 44f5 b73d eda7 c63d
00000080: 57c8 5d3d dd71 13bd c259 4f3d a677 e83d
00000090: 7496 af3d 57ce a2bc 9738 083d 953a 783c
000000a0: 8491 22bd 0082 0cbd e728 a93d 45e0 9cbc
000000b0: 6459 84bc 9049 c63c 711d 613d 349a e73d
000000c0: d335 27bc a286 d13c 408e 973c 9ce7 593d
000000d0: 1c8c 4dbc 738b 1f3c 86d2 3abc d69a 5f3c
000000e0: bce3 933d 0e6f 17bb 9ac1 a93c f7bf a7bc
000000f0: f15d a23d 999e e73a 789e 983d 8296 b5bc
00000100: f025 b13d 8032 013d 48e2 4fbd 6a0e fb39
00000110: 9d3c 10bd c012 acbc 8e54 c93b 2e7a 88bc
00000120: 6ae8 943d 8be2 8f3d ef75 cd3d 13d5 e33c
00000130: 20c9 3abc 5ada e53d 9e32 223d 93db de3c
00000140: 01cf bb3c 4fa2 063e ee3c 06bb 645a 983d
00000150: c7ed 9c3d ff15 2a3a cc96 9c3d 4925 9e3d
00000160: 6f62 ad3d a834 583d 563c 9e3d ac54 a93d
00000170: b8b8 123d 5c61 b4bb f3fa 803d b124 843d
00000180: 8642 dd3d efb0 923d 3281 813d d3b5 f33c
00000190: 5324 013e 14d7 053e ec22 0d3e 6fda 4a3d
000001a0: c10f a33c 8a17 05bd b29a 3dbd b019 02bd
000001b0: 070d cc3b 1dae be3d e0ad 29bd 74e5 013c
000001c0: af70 813d 4978 8c3d e725 0f3d 532f 603c
000001d0: 4439 103d 4e08 94bc 1239 903d 9b15 9f3d
000001e0: fdba 1a3d b73d a43d 40bc 8c3d 7587 54bd
000001f0: 407a 2fbc 8dea 1cbd 4a38 603d 7e22 29bd
00000200: 3d66 453d 3678 24bd 2121 933d d26c b9bc
00000210: fd85 22bd 6bb9 e2b9 4715 6c3d aeef e53c
00000220: 2b2c b63d 039f 6f3d d254 803c 295c 643d
00000230: 6e3b e23d 87ba 723c ff4b 043e 2386 a63d
00000240: cc29 cc3d 5390 2d3d 027d f33d 8286 e139
00000250: ba0e da3c d532 e63d d4b6 8b3c 979d ff3d
00000260: 219c 0b3d 66bd 82bc c888 063e eb58 c43d
00000270: a4ec 823d 8bd5 14bd fee4 453d d982 4d3c
00000280: 1882 0f3d 8d92 b9bc 1d46 36bd cbd4 f3bd
00000290: dc7d 8dbd b150 823c be18 d2bd 8ae9 0ebd
000002a0: 3c81 d9bd 4cd4 43bd 05cb 75bd 3ca5 5ebd
000002b0: 9c7b 3dbd 8204 87bd 10ff 98bd 5a4c 95bb
000002c0: 2d57 ebbc dd0d a8bd a34f 8c38 4220 0d3d
000002d0: 5954 753b 1b1c 9ebb 2878 62bd 0019 923c
000002e0: abd3 90bd 6ad7 fd3b 05f4 273d 59f9 25bd
000002f0: 5940 97bd 4e74 f6bb 5a0d 2dbd ef11 663c
00000300: e108 87bd 90e4 c13c 24c8 c73c 1737 10bb
00000310: 6263 ecbc 2646 8cbd fca7 793c 0c57 5abd
00000320: 3af3 6fbd 285e f63c e9a3 4fbd 9679 983b
00000330: 8dba 0c3b be40 9fbd ae07 aa3b 31c3 59bd
00000340: a80b acbb fcfa c6bd 2834 85bb bf2f 073d
00000350: 2f83 89bd 462b 303d 6ef0 a4bd 0507 dfbb
00000360: 8ab3 c8bb a201 fdbc 90cc 69bb ae3a 1cbc
00000370: f5ab b3bd d3ce f1bd 5a08 e3bd acad 65bd
00000380: 15b8 58bd 0fe2 3ebd b16f 20bd cce4 d5bd
00000390: d437 e4bd 1959 87bd fe96 bbbd 0159 2b3c
000003a0: 968a 5fbd 052a 89bd 2929 a6bc c8ca e0bc
000003b0: 161b a8ba a564 27bd 1300 85bc fcca d4bc
000003c0: 4efc d03c 1eed a3bc cca9 66bc cc38 2abd
000003d0: 3bdd 11bc 3c0b 10bd c26b 8ebd 0998 9dbd
000003e0: 7f94 7c3c 516f cebc 2a94 0a3d ef6f 623b
000003f0: 5d5e c53c 6af5 60bd f31d bc3b 8472 00bd
0.05115617 0.13901703 0.11803011 0.061746545 0.09340431 0.07936062 0.02280874 0.08737287
0.09472318 0.05008966 0.10983766 0.09455608 0.025934957 0.0818146 0.09748533 0.123047344
0.0060750586 -0.010996902 0.02683135 0.06600519 -0.006510928 0.040697034 0.0010908239 -0.0033941753
0.08148247 0.070129015 0.042179294 0.08636894 0.012579594 0.04175178 0.089823276 0.09699998
0.054146137 -0.03599726 0.05062271 0.11350946 0.085736185 -0.019873781 0.033257093 0.015150686
-0.039689556 -0.034303665 0.08259755 -0.019149909 -0.016155906 0.024205 0.05495972 0.11308709
-0.010205704 0.025576893 0.018500447 0.053199396 -0.012545612 0.009737837 -0.011402732 0.013647756
0.07221171 -0.0023106965 0.0207222 -0.020477278 0.07928074 0.0017671167 0.074521005 -0.022166494
0.08649814 0.0315423 -0.050752908 0.0004788519 -0.035214055 -0.021005034 0.006144113 -0.016659822
0.07270892 0.070256315 0.1003226 0.027811563 -0.011400491 0.11223288 0.039599054 0.02720431
0.022925856 0.13147853 -0.0020483094 0.07439116 0.0766254 0.0006488263 0.0764595 0.07721955
0.0846604 0.052784592 0.07726352 0.08268103 0.035820693 -0.00550477 0.06297865 0.06452311
0.10803704 0.07162654 0.0632347 0.029749786 0.12611513 0.13070327 0.13782853 0.04952472
0.019904973 -0.03249315 -0.046290107 -0.03176278 0.006227139 0.09310553 -0.041425586 0.007928241
0.06320321 0.0685888 0.034948256 0.013683158 0.035210863 -0.018070366 0.07042135 0.07767793
0.037775982 0.08019584 0.06871843 -0.051886994 -0.010710299 -0.038309623 0.05474118 -0.04129266
0.048193205 -0.040153705 0.07184053 -0.022634897 -0.039678562 -0.00043244226 0.05763748 0.02806839
0.08895143 0.058501255 0.015665445 0.055751953 0.110464916 0.014814979 0.12919615 0.08131053
0.099689096 0.042373966 0.11889078 0.0004301556 0.02661835 0.11240164 0.017054953 0.1248123
0.034084443 -0.015959453 0.13138115 0.09587272 0.06392792 -0.036336463 0.048314087 0.012543404
0.035036176 -0.022652889 -0.04450046 -0.119058214 -0.069087714 0.015907617 -0.102586254 -0.03489069
-0.106203526 -0.047809884 -0.060008068 -0.0543568 -0.04626046 -0.06592657 -0.07470524 -0.004556221
-0.028728092 -0.08205769 6.690554e-05 0.03445459 0.0037434308 -0.004825128 -0.05529037 0.017834187
-0.070716225 0.0077466266 0.0410042 -0.040521 -0.0738532 -0.007521189 -0.04224906 0.014042362
-0.065934904 0.023668557 0.024387427 -0.0022005492 -0.028855983 -0.06849317 0.0152378045 -0.05330567
-0.05858157 0.030074194 -0.050693426 0.004653166 0.0021473498 -0.077760205 0.005188904 -0.053164665
-0.005250413 -0.0971584 -0.0040650554 0.03300452 -0.067144744 0.04301002 -0.08053671 -0.0068062567
-0.0061249183 -0.030884568 -0.0035674907 -0.009535475 -0.087730326 -0.11807027 -0.11085577 -0.05607383
-0.05290993 -0.046602305 -0.039169017 -0.1044403 -0.11143461 -0.06608791 -0.09159659 0.010458232
-0.054575525 -0.06697468 -0.020283299 -0.027440444 -0.0012825455 -0.040867466 -0.016235387 -0.025975697
0.025510933 -0.020010527 -0.014078569 -0.041558072 -0.008902843 -0.035166964 -0.06954147 -0.07695014
0.015416264 -0.025199564 0.033832707 0.003455158 0.024092847 -0.054921545 0.005740875 -0.03135921

conv3.bias f4 [16]
00000000: 42a1 053e 2e7c f7bc eaa0 5e3d 8d8c 2d3c
00000010: 62af 3a3c 3b25 d2bd edb3 b3bd 7947 7c3c
00000020: da7b 5abd d477 0e3b 050b 513d ecaa 7abd
00000030: 7d71 8e3c 1b3c 303d 24ae 283d 9cf0 a1bd
0.13049796 -0.03021058 0.05435268 0.010592592 0.011394354 -0.102610074 -0.087745525 0.0153979
-0.05334077 0.0021738904 0.0510359 -0.06119816 0.0173881 0.04302607 0.0411817 -0.07907221

lstm.weight_ih_l0 f4 [128, 16]
00000000: a8b4 5e3e ccda d03c 7d6f 8e3c 654a dd3d
00000010: d723 5fbd 950a 07be 1e14 6b3d 7518 493e
00000020: b455 033e 8ad8 443e a6af 2f3e 148f 963d
00000030: 77a0 cd3d f825 b7bd dce2 e83d 0b0d 293e
00000040: 6ba5 a6bd 02ae 40be d43e fb3c 7ac4 17be
00000050: 1b94 ae3a 35c6 fe3d 365c 973c ddba 6d3e
00000060: 566e 7cbc 1767 293d 34d9 673d d14d abbd
00000070: 23c5 1b3d e820 d1bd 68a2 22be 0254 85bc
00000080: 3a2a b63d 05e2 be3c 802b 9a3d cb34 e3bc
00000090: b9cf 4ebe 410b eb3d 95b7 893b 4db4 c4bd
000000a0: a87f 2b3e def9 8cbd f8b2 a2bd e2dc 9dbd
000000b0: e47d d43b 374f cebd 13bb 813d 038a 86bd
000000c0: ef1d edbc 1757 363e 50e1 c83b 97dd f6bc
000000d0: ec52 15bd f9dc 51bd 1698 52bd 982c 09bd
000000e0: b6b8 edbd 82a0 cdbc 48ff d83d 825c db3d
000000f0: fac7 2a3e 501d e8bd 6072 27be 1395 4fbd
00000100: 180d 623e ce99 293d bde1 593e a813 d43d
00000110: 71b8 283e fd0b 38bd a0a5 933d 1e11 8cbd
00000120: d735 e63c 8c02 e63d 5b50 86bd e4e1 18be
00000130: 6e3b 26bd f98d 4a3c 33d2 6abd 5517 b33d
00000140: 7173 14bd b3f2 533e 4ea4 fabc cd76 1b3e
00000150: ff66 593e ca5e 433e 67fb fdbc 9dd9 1bbd
00000160: 4a48 9abd bb99 8dbd d799 123c 2a94 a6bc
00000170: 71ae f43d bf0e 413e fc3c c53d 162b ea3c
00000180: f31f b2bc d8ee bebd 5731 403e 5aa8 33be
00000190: 8878 9a3c 6481 4ebe c2f0 27bd 3dae bdbd
000001a0: b7e2 2fbe bb8c a63c ef18 68bd cf96 073c
000001b0: a0fe 483e 041e 72bd 69cc 053d 6679 cabd
000001c0: 16d0 403e 594d 5b3e 4f36 0b3c 900c cabd
000001d0: cd04 563e 10ff 1d3e 25fa 143e c10a b63d
000001e0: 8956 5e3d 8277 bb3d f327 c73d e97b e7bc
000001f0: 0de4 fb3d 722b 423e a5ce c4bc 6f8c e0bd
00000200: d796 2bbd 5839 133d 045a 163e 59a9 7f3d
00000210: 8499 783e 2ec2 a93d 7e16 153e 12cc a2bd
00000220: 4c14 d53d bf62 293e 5139 df3d f2bc c53d
00000230: a288 a3bd e29e 4d3e 0e49 953c 84d1 13be
00000240: 0adc d93d 18db 693d 7690 273e 1e4c 013e
00000250: 3de2 9f3d a3b4 8f3d ef80 4f3e c058 013e
00000260: c3e4 8a3d 92d9 5dbd 8693 aebd 4e2d e73c
00000270: 0c82 9cbd f81e 00bd d4ff 49be ac8d 4dbe
00000280: 7d27 f0bc f818 05be 0cbc 213e 9b8c ab3d
00000290: ac79 9c3b 44a6 453e 1695 073e fd1e 273e
000002a0: 2c9c ecbd 4e8f d1bd d8da 29bc 2b4d 163e
000002b0: 722e cabd c761 b4bd b034 213d 1047 c13d
000002c0: 9854 2d3e 64e3 a53d 5b6b 2f3d be80 07bd
000002d0: 0ac3 873d 68e7 113e ef2a 9ebd 2ba4 bebd
000002e0: cba1 92bc cbef 843d d37d 1c3e 04f5 c93d
000002f0: c135 763e 63bc ffbc 94ae b83d 4e8d b7bd
00000300: 2493 e3bd 4f00 88bd ac48 b93d 63b6 0fbe
00000310: 7fa9 97bd aa38 c03c 7403 24be e4fb dd3b
00000320: fddc 0bbe dd43 023e 41b0 f93d 7354 dc3d
00000330: e78d 163e f9b0 013e 9bdc 9a3d 1958 ac3d
00000340: 4323 9c3d 08c9 02bd 7881 af3d 7aa6 15be
00000350: 8e84 d9bd f877 e2bc df76 11bd 6de1 02bc
00000360: 89b0 a23d 1fc2 58bc 26ca 683e b3c8 00be
00000370: db77 bebd f919 003d 5f67 3abc d8aa 213c
00000380: b694 df3d fffa 8fbd f38c e7bd f69f a93d
00000390: e372 0bbc 8407 e43d 0173 3abd 73ed 453e
000003a0: c2b2 253d 9c5a 4dbc c0c4 5abb 6fde 0d3e
000003b0: 2155 4a3e bd84 54be 1403 cfbd 4b1d a1bd
000003c0: 033b f83d b8fc a3bd be23 28bd b4ff 693d
000003d0: 1739 a43d 5b53 afbd 4a9e 273e 3231 6b3e
000003e0: 5025 90bd ee2e 6b3e aff4 f93d 246f 613d
000003f0: 6228 9d3c 618f 3e3e 26f7 1f3e f6c8 fdbd
0.21748602 0.025494955 0.017387146 0.10805205 -0.05447754 -0.1318763 0.057392232 0.19638236
0.12825662 0.19223228 0.17156848 0.07351509 0.10040372 -0.08942789 0.11371395 0.16508882
-0.0813702 -0.18816379 0.030669607 -0.14821044 0.0013319285 0.12440149 0.018476587 0.23215814
-0.0154071655 0.04135808 0.056603625 -0.08364452 0.0380298 -0.102113545 -0.15882266 -0.01627541
0.08894773 0.023301134 0.07527828 -0.027735135 -0.20196427 0.11476756 0.004202793 -0.09604702
0.16747916 -0.06883596 -0.07944292 -0.07708146 0.006484734 -0.10073703 0.0633451 -0.065692924
-0.028944938 0.1780666 0.006130375 -0.03013496 -0.036456034 -0.051236127 -0.05141457 -0.033489794
-0.116074964 -0.02510095 0.10595566 0.10711004 0.16677848 -0.11333716 -0.16352224 -0.050679278
0.22075307 0.041406445 0.21277519 0.10355312 0.16476609 -0.044933308 0.07209325 -0.06839202
0.028101845 0.112309545 -0.06558295 -0.1492992 -0.04058402 0.0123629505 -0.057329368 0.087446846
-0.036242906 0.20698051 -0.030595925 0.15182038 0.21230696 0.19079128 -0.031003667 -0.03804933
-0.07533319 -0.069140874 0.008947811 -0.020334322 0.119473346 0.18853281 0.096307725 0.028584998
-0.02174375 -0.093228996 0.18768822 -0.1754469 0.018856302 -0.20166546 -0.04100109 -0.09261749
-0.17176329 0.020330777 -0.056664404 0.008275702 0.19628382 -0.059110656 0.032665644 -0.09886436
0.18829378 0.21416225 0.008496835 -0.09865677 0.20900269 0.1542933 0.14548548 0.0888877
0.054281745 0.09153654 0.097244166 -0.028257327 0.122993566 0.18961886 -0.024024317 -0.109642856
-0.0418919 0.03594336 0.14682776 0.062417362 0.24277312 0.0828899 0.14559361 -0.079490796
0.10404262 0.16541575 0.10899604 0.09655179 -0.07985045 0.2008014 0.018223312 -0.14435393
0.10637672 0.05709371 0.16363701 0.12626693 0.078068234 0.070168756 0.20264028 0.12631512
0.06781914 -0.05416257 -0.085242316 0.028219845 -0.07641992 -0.031279534 -0.19726497 -0.20073575
-0.029315704 -0.12997806 0.1579439 0.08376428 0.0047752466 0.19301707 0.13240466 0.16320415
-0.11553225 -0.10232411 -0.010367118 0.14677875 -0.0987214 -0.08807712 0.039356887 0.09437382
0.16926801 0.08100012 0.04282699 -0.033081762 0.066289976 0.1424843 -0.07723033 -0.09308656
-0.017899415 0.064910494 0.15282373 0.09861186 0.24043943 -0.03121776 0.09017673 -0.089624986
-0.11112049 -0.06640684 0.09047064 -0.14034419 -0.07405376 0.02346452 -0.16016942 0.0067744125
-0.13658519 0.127212 0.12191821 0.10758295 0.14702569 0.12665166 0.075616084 0.08415241
0.07623913 -0.03193 0.08569616 -0.14614287 -0.10620986 -0.027645096 -0.035513755 -0.007988316
0.07943828 -0.013229876 0.22733364 -0.1257656 -0.09300204 0.03127477 -0.011377185 0.0098673925
0.10917036 -0.070302956 -0.11306181 0.08282463 -0.008511278 0.11134246 -0.045519833 0.19328861
0.04045368 -0.01253381 -0.0033381432 0.13854383 0.19759037 -0.2075376 -0.10108009 -0.07866915
0.121206306 -0.08007187 -0.04104971 0.057128623 0.080187015 -0.08560821 0.16368976 0.22967985
-0.07038367 0.22967121 0.12204873 0.055037633 0.019184295 0.18609382 0.15621623 -0.12391846

lstm.weight_hh_l0 f4 [128, 32]
00000000: 0463 3b3d 275b fd3d 45ed 1ebd c5da c73c
00000010: f100 1fbe 2543 32be fb55 593e b297 70bc
00000020: 323f 42be 0fa9 bb3d 128c ad3d 0f9d 013e
00000030: 9247 adbc bf2e 39be 32ed 123d d31f 7f3d
00000040: 9e33 67be c14f 103e 0ac4 70bd df81 a93d
00000050: b8ad b7bd f27b 73be dcad afbd 5ba2 463e
00000060: c596 a13d 1c92 fa3d e534 a93d be9e ee3d
00000070: ebc4 54bd 3fc3 1dbe 7e80 723d ea4f b1bd
00000080: aef4 5bbd 2167 1a3e e1ee 2cbe bac8 af3d
00000090: 042a cb3d 6212 24bd 2fe7 8abd d61a 72be
000000a0: 2c1f 24bd a5c6 48be a834 9a3d 2ba6 d23d
000000b0: f9cc 00be 937e 4cbe 978d 0e3e 0400 6bbd
000000c0: f162 19bd 6a19 513e 24d4 a4bd e59b 1abe
000000d0: 1956 ab3d 73b8 24bd 8be1 26be 6cb1 c7bc
000000e0: 0627 e3bd 1979 743d 9c08 b5bd 12be 2ebe
000000f0: 0c70 db3d 23b1 e7bd e25d 6e3d 3ae4 a8bd
00000100: c368 3dbd 2770 b63d 910c a3bd 38fc 03bd
00000110: 2f08 a03c feb4 30be 5cfc 153e a586 21be
00000120: fc47 98bd 3d6f 1ebe 6941 b53d bc83 e73c
00000130: 78c6 94bd 1a37 44be 5b18 3a3e 3feb 4fbc
00000140: 7ab2 aabd aa3b d73c d77c f03c 1607 62bc
00000150: 8834 403e c68d ad3d 7187 b33d 6eb6 673d
00000160: 87e5 08be cbe0 bc3c eadf 573e 433a 913d
00000170: bfc4 f3bd 6f0c 32be 70cc 243e b495 363e
00000180: 407c 7d3d aa2a 0c3d 9e27 aa3d ee1b a03d
00000190: d512 9e3d 5665 d33d 52b9 a9bd cbfc cc3d
000001a0: 65a6 883d 2d5a 64bc 1316 1e3e 04d0 a93d
000001b0: 8764 3bbd 92bc 793c 5730 933d 2678 713e
000001c0: 020b 1ebe 5f38 093e e6e3 83bd 1142 64be
000001d0: d80d 163e 865c c33d 32ed d93d fdab 823d
000001e0: b3a1 a5bd 049b 8e3d d32f b8bd 85c2 be3c
000001f0: 3b2f 31be 6c7d a9bd 112b 90bb 97be d7bd
00000200: 76a4 683d 4785 e43d 79ad 263d 52b7 17bd
00000210: 59c2 ca3d 6e2b 213d 18c8 8e3d 5c80 763d
00000220: 6a57 ea3d b971 55bd 0aac 593e d308 72bd
00000230: 4562 f0bd 5425 643d 9177 a5bd f1aa 16bd
00000240: c4a8 fe3d 64c0 2ebd 25fb eb3d a3c8 9f3d
00000250: 635d 4bbd 55bc 1ebe 3069 2fbe 5937 bf3d
00000260: 75b8 af3d a2c1 233e d715 89bd 24de 4bbe
00000270: 76c5 0dbe 09b6 01be f54a d43d 97ad f0bc
00000280: 5996 523c 57b8 8ebd 7ee0 4a3e c7b0 4cbe
00000290: 2418 8abd 0ba3 8e3c 04d1 3c3e 3f9a 6bbe
000002a0: f7cb 56be 9fcf a63d b703 383d a8bf 003e
000002b0: 534a 293e 4890 ab3d 65ea babd 024f c13b
000002c0: 3cdd 41be 7a58 69bd 0377 1f3e 0128 853d
000002d0: 08e7 123d 00dd fdbd fff8 16be 0043 be3b
000002e0: 743a 0bbb 0c0f 133e cdae a13d 42e4 053d
000002f0: 30be f23c 8bc6 0f3b f17b 613d c0a2 c83d
00000300: 0951 f3bd 4cbf bc3d ef3b 3abe 553c 1ebe
00000310: a39f d8bd 3fc9 1fbe c956 ab3c 3ef7 113e
00000320: 8703 853d e3d0 18bc abaf a0bc 907d 58bd
00000330: 83f0 c63b b865 a6bd 7e6f b83c 7980 debd
00000340: 8e95 9d3d 6b8b 213d 6352 cebc aa45 97bc
00000350: 45f0 93bc 04be 2dbe 8dd7 7dbd a79e 0abe
00000360: 5b10 cfbd 25a4 e03d d25c acbd 1672 a73d
00000370: 1a9b 1c3e bc8d 243c cdcf d7bd 552a 5ebd
00000380: 1108 debd cbc8 443d 5f61 c2bd a9c9 e6bd
00000390: 9ca4 b4bc 5eb9 6ebe 42c1 92bd bf41 413c
000003a0: 83fa e3bd f70e 2bbe 98be 973d df55 2a3e
000003b0: 10f9 0e3e 1939 d2bd fbf7 483d c00c 213e
000003c0: cfb1 c53d 4ddd 99bc 8965 0d3e bc93 dcbd
000003d0: 48ff 063e f2ea b83c a014 62be c628 4c3b
000003e0: 253e 07bc b9df 86bd 5c2b 03be 2027 26bd
000003f0: aca1 3cbe e58d 87bd 9c9f 86bd 0cc8 d9bd
0.045748726 0.123709016 -0.038800497 0.02439631 -0.15527703 -0.17408426 0.21224205 -0.0146846045
-0.1896942 0.09163105 0.08473982 0.1265757 -0.021152291 -0.18084238 0.03587074 0.06228621
-0.22578284 0.14092924 -0.058780707 0.08276724 -0.08968681 -0.2377775 -0.08578083 0.19397871
0.07890085 0.122348994 0.08262042 0.116513714 -0.051945608 -0.15406512 0.05920457 -0.086578205
-0.05370014 0.15078403 -0.16888 0.085832074 0.09920123 -0.040056594 -0.06782376 -0.2364305
-0.04006879 -0.19607027 0.07529575 0.102856 -0.12578191 -0.19970159 0.139212 -0.05737306
-0.037447874 0.20419851 -0.08048275 -0.15098532 0.08366031 -0.040214967 -0.16296975 -0.024376594
-0.110914275 0.0596858 -0.08839533 -0.17064694 0.107147306 -0.11313083 0.058195002 -0.08246656
-0.046242487 0.0890811 -0.07961381 -0.032222956 0.019535152 -0.17256543 0.14647049 -0.15774019
-0.07435605 -0.15472122 0.088503666 0.028261058 -0.072644174 -0.19161645 0.18173353 -0.012690364
-0.08334823 0.026273567 0.029356403 -0.013795635 0.18770039 0.08474307 0.08766068 0.056570463
-0.13368808 0.023056408 0.2108151 0.07091191 -0.11902761 -0.17387556 0.16093612 0.17830545
0.061886072 0.034220375 0.08308338 0.07817827 0.07718436 0.10322063 -0.082873 0.10009154
0.06672362 -0.013937515 0.15438108 0.08291629 -0.045750167 0.015242713 0.071869545 0.23580989
-0.15433887 0.1340041 -0.064399526 -0.22290827 0.14653718 0.09539132 0.106409445 0.063804604
-0.08087482 0.06963161 -0.08993497 0.023286114 -0.17303173 -0.082758754 -0.004399665 -0.10534399
0.056797467 0.11158233 0.04069278 -0.037040062 0.0990035 0.03934806 0.069717586 0.060181007
0.11442454 -0.052110408 0.21257034 -0.059090447 -0.117374934 0.05569966 -0.08079446 -0.036784116
0.12434533 -0.042663947 0.115225114 0.0780194 -0.049649607 -0.1550153 -0.1712997 0.093367286
0.08580104 0.15991834 -0.06693619 -0.19908959 -0.13844857 -0.12667097 0.103658594 -0.02937965
0.0128532285 -0.06968754 0.198122 -0.1998931 -0.06742886 0.01741173 0.18439108 -0.23008059
-0.20976244 0.08145069 0.044925418 0.12573111 0.16532259 0.08377129 -0.091267385 0.005899311
-0.1893205 -0.056969143 0.15572743 0.06501771 0.03586486 -0.12395668 -0.14743422 0.005806327
-0.0021244558 0.14361209 0.07894669 0.032688387 0.029631704 0.002193841 0.05504984 0.09796667
-0.118806906 0.092161745 -0.18186925 -0.15452702 -0.10577323 -0.15604113 0.020915406 0.14254472
0.064948134 -0.009327146 -0.019615015 -0.05285412 0.0060711517 -0.0812487 0.022514101 -0.10864348
0.07694541 0.0394396 -0.02518577 -0.018465836 -0.018058905 -0.16967016 -0.061973143 -0.13537084
-0.101105414 0.10968808 -0.084161416 0.08176057 0.15293542 0.010043558 -0.10537682 -0.05423959
-0.10841382 0.048043054 -0.09491228 -0.11268932 -0.022051148 -0.233129 -0.07165767 0.01179546
-0.11131766 -0.16704927 0.074094 0.1663432 0.13962197 -0.10264797 0.049064618 0.1572752
0.09653055 -0.018782282 0.13808264 -0.107703656 0.1318332 0.022572968 -0.2207818 0.0031152233
-0.0082545625 -0.065856405 -0.12809509 -0.040564656 -0.18421048 -0.06618861 -0.06573412 -0.10633859

lstm.bias_ih_l0 f4 [128]
00000000: 66fd 213e 52f7 5fbc dccb 123e 1a10 7fbd
00000010: 7351 0c3e 4fe8 283e 57c9 31bc f6fd 783e
00000020: 00e9 353e 28e9 793c aff1 913c 8cf4 af3d
00000030: 48bb fcbd 174b 213d af3e debd dc66 043e
00000040: 44c7 9b3d 031a 06be 86f7 c93c 88c3 fb3d
00000050: 0715 85bd bb54 f23d 048f 95bc d00c ce3d
00000060: de7d 633d dd75 9dbd 9c7d 5b3d b71e c4bd
00000070: 1cac ae3c bc8f b53d eb5b 9f3d d6f4 1f3c
00000080: 987b 5b3e 5934 563e bec6 03bd 9f64 b43d
00000090: a408 023e 80b2 893d 4264 313d fffa c93c
000000a0: 85bb da3d 6148 a0bd 9116 b73c e078 263a
000000b0: c0f4 783c 96e9 013e a164 b9bd 03f9 41bd
000000c0: 4a12 763d c119 9e3d 3943 bebd 3227 963d
000000d0: 9942 47bd b015 d9bd 49b0 893e f1ca 9dbc
000000e0: 9275 1d3c 774d 683e a4b6 d4bc 6a6b a6bd
000000f0: 2fc2 55bd 8f98 c7bc bd64 fe3d ceee fe3d
00000100: d089 0e3c aac1 b63c 2dc2 f93d b43d 0ebe
00000110: d6d0 933d 6c99 34be 7a00 ba3d 3436 46be
00000120: 1cfd 01be 3a9a f7bd 8dd4 a33d 1b09 1c3e
00000130: 9a88 3cbe 835f c43c 2bb7 a93c 64f6 bb3d
00000140: c2a9 2ebe 21ff 19be 2b54 2f3d 80eb 7b3c
00000150: 57dc 32be 3025 23be dda4 49be 1fa1 003d
00000160: 34cf 3ebe 5acd 11bd 721b bebc 1255 c9bd
00000170: e232 1fbe 1676 04be 4aea 11bb 39c6 f53d
00000180: b957 8b3d 13c2 5b3e 0beb 613d 1cf9 2f3e
00000190: a8e4 2d3e 86d7 953d f41d 593e f93b 13bd
000001a0: 25b1 f13c 2413 813d 4b2d da3d 1280 1d3d
000001b0: 25de 593d 8106 9ebd 325d 633e f718 053e
000001c0: 8682 5c3d 4898 143e 5e3f 973c fa8c bdbd
000001d0: 60b3 20bd 8fc3 5e3e aae1 693c 0dcd 183e
000001e0: ebbc 083d 0915 383e 6117 56bb 453b 1a3e
000001f0: c834 833e 70ba c23d d153 55bd 17fe be3d
0.1581932 -0.013669806 0.14335579 -0.062271215 0.13702945 0.16494869 -0.010851226 0.24315628
0.17764664 0.015253343 0.017815439 0.085915655 -0.123404086 0.039378252 -0.108518 0.12929863
0.07606366 -0.1309586 0.024654161 0.12293154 -0.06498151 0.11832567 -0.018256672 0.100610375
0.05553996 -0.07688496 0.053586587 -0.09576171 0.021322303 0.08865306 0.07781204 0.009762963
0.21433866 0.20918407 -0.032171957 0.088082545 0.12698609 0.06723499 0.043308504 0.024655817
0.10680298 -0.07826305 0.022349628 0.0006350409 0.015195072 0.12686762 -0.090523966 -0.047356617
0.060076036 0.07719756 -0.092901655 0.07331695 -0.048647497 -0.1059984 0.26892307 -0.019261809
0.0096105505 0.226858 -0.025965996 -0.08125956 -0.05218714 -0.024364738 0.12421558 0.12447892
0.008699849 0.022309143 0.12195239 -0.13890725 0.07217567 -0.17636651 0.09082122 -0.19356614
-0.1269421 -0.12089963 0.07999525 0.15237848 -0.18411484 0.023971325 0.020717224 0.09177855
-0.17056945 -0.1503873 0.04280488 0.015375972 -0.17466865 -0.15932155 -0.19691797 0.031403657
-0.18633729 -0.03559623 -0.023206446 -0.09830679 -0.15546754 -0.12935671 -0.0022264891 0.120006986
0.06803841 0.21460752 0.055155795 0.17184871 0.16981757 0.073164985 0.21202832 -0.035945866
0.029503414 0.06302479 0.1065317 0.038452215 0.05319037 -0.07716084 0.2220352 0.12997805
0.053835414 0.14511216 0.018462833 -0.09255405 -0.039233565 0.21754287 0.014274994 0.1492197
0.03338329 0.17976774 -0.0032667744 0.15061672 0.25626206 0.095082164 -0.052081887 0.093258075

lstm.bias_hh_l0 f4 [128]
00000000: fdbd aabc a82e 82bd 944d 1d3c 3d87 163d
00000010: 4074 bc3d 2100 023d ade9 513d 73a1 2d3d
00000020: 9c27 d8bd f56a 9b3c bc71 d43d 0094 573e
00000030: dff3 38be c000 47bc b30c 5ebd b033 b63c
00000040: ad40 dcbc 8879 2a3e 1b3c 85bd aba0 7abd
00000050: e23e eb3c 2ce5 b53d c793 8a3e 1b01 043e
00000060: 7dc9 6d3e 9f2d ca3d a271 a5bd 768e 103d
00000070: a661 a73d 828f e33c 1d96 263e 8de4 95bd
00000080: 0b74 6e3e 091e 41bd ff8e 6e3e 2b69 463e
00000090: ebb9 3e3e 810a ed3b a507 02be cf09 5c3e
000000a0: 889a 8dbd 5a71 efbd d033 493d b296 66bd
000000b0: dec0 38bc 15b1 523e 89cd c33c 6e4e 2a3d
000000c0: 1663 15bd 0ddc aa3d f5b5 d73d 2ec3 473e
000000d0: 871a edbd 4683 c73d c59e 06ba 5c29 453e
000000e0: f230 3d3d c3e5 593e d9cb ab3c efa2 3abe
000000f0: 073f 083d aa61 6f3e 73a4 d13b a7c3 743d
00000100: 8edd e2bd 3e10 b8ba e294 173e ce9e 8bbd
00000110: 38db 3bbe 8ece e53d 2502 05be 4ed5 b0bd
00000120: f572 f63d 138e a63c 5f47 f23d 5d6a 513e
00000130: bffa 84bd ffeb 94bd f7a7 f03c 6537 fa3d
00000140: d302 96bd 6e78 123e fdcb 903d 5bc2 49be
00000150: b255 103e 1357 16bb 043c 13bc 344f 843d
00000160: b0c6 813d 2d88 89bd aa14 8a3c a009 14be
00000170: 7f25 9ebd 9ef5 69be 5ecc 4a3e cfcc 2cbe
00000180: 96d9 863d a283 08bd 9986 d53d d40e c83d
00000190: 6b10 f33d 5fdf 463e 266f 433e 9a5b 6d3e
000001a0: fe16 2a3c 0a78 46bd 77a0 743e 9344 3c3e
000001b0: c527 cdbc c7b4 cabb 1faf 9abd 20ed 403e
000001c0: 9f80 e33d 50b8 143e 6bd4 bb3d 871e 5d3e
000001d0: 9081 d73d b450 ab3d 6493 173e c0f4 713e
000001e0: cbf6 453e eede 663e 248a ca3d 21fc b63d
000001f0: d747 0a3e d9a2 553e cabe 1b3e 9b5f 3c3d
-0.020842547 -0.06356555 0.009601016 0.036750067 0.092018604 0.031738404 0.05124824 0.042390298
-0.1055443 0.0189719 0.103732556 0.21052551 -0.1806178 -0.012146175 -0.05421133 0.022241443
-0.026886309 0.16647923 -0.06505605 -0.06118838 0.028716508 0.08881602 0.2706587 0.12891047
0.23221393 0.09871983 -0.08078314 0.03529211 0.08172922 0.02777839 0.16268201 -0.07318983
0.23286454 -0.047147784 0.23296736 0.19376056 0.1862561 0.007233918 -0.12698229 0.21488117
-0.0691424 -0.11691542 0.049121678 -0.056296058 -0.011276452 0.20575364 0.023901718 0.041578703
-0.03647145 0.083427526 0.105327524 0.19508049 -0.11577325 0.09741835 -0.0005135353 0.19254059
0.046189256 0.21279053 0.020971226 -0.18226217 0.033263233 0.233771 0.0063977777 0.0597569
-0.110774145 -0.0014042926 0.14802888 -0.06817399 -0.18345344 0.11221038 -0.129891 -0.08634435
0.12033645 0.020331418 0.11830019 0.2045073 -0.064931385 -0.07271575 0.029376967 0.12217597
-0.073247574 0.14303753 0.07070158 -0.19703047 0.1409519 -0.0022940084 -0.008986477 0.06460419
0.06336725 -0.067154266 0.016855557 -0.14456797 -0.077219956 -0.22847602 0.19804522 -0.16875003
0.0658447 -0.03332866 0.10426063 0.09768453 0.11868366 0.19421147 0.19085369 0.23179474
0.010381458 -0.048454322 0.23889337 0.18385534 -0.025043378 -0.006186101 -0.07552933 0.18840456
0.11108517 0.14523435 0.09171375 0.21593677 0.10522759 0.08365002 0.14802319 0.23628521
0.19332425 0.22545978 0.098896295 0.089348085 0.13503967 0.20862903 0.15209499 0.045989614

dense1.weight f4 [32, 32]
00000000: 3683 2ebd 309f 853d c555 bebb 307d 1bbe
00000010: 0fb1 a6bd 78e0 8f3d 004f 653e 62f0 283d
00000020: 57ed 503c 9667 23be b9d2 c93d dd1e 7e3e
00000030: 72f0 503d 4775 51be 7565 3ebd 801d 7a3e
00000040: 0aa9 86bd 2a6d 98bd cfd9 ed3d 8860 a5bc
00000050: 1ae6 6a3d 7941 d23c 2ffd 63be 469b dc3d
00000060: 753a fdbd 34df 813d 3333 ba3d 11bd d63d
00000070: 1d5c 06be e72b 7dbe 09c2 08bd 11c5 313c
00000080: 321e 563e 72e5 8fbc f444 1bbe 3b2d 8d3d
00000090: ca5c 083e 7312 103d 76ae 59bd 5d52 6fbd
000000a0: 24f2 a43d 0520 cabd d8cd eabd 5ca8 dbbc
000000b0: 91bf 8c3c e79f b7bd 6514 bebd 20ee 4b3d
000000c0: 8d1b 693e 6310 9bbd fcb6 793c 2f0d 653d
000000d0: c897 30be 2f3a 8f3d 1f8c 81bd 9b6a 93bd
000000e0: 9b62 8cbd 9b0d 25be ee84 71bd 1cee 823c
000000f0: e9a7 b0bd e13e 33bb 082b 60be 1335 3dbe
00000100: 308a 71be b2ee 10bd bf15 0f3b aaa4 c93d
00000110: 1ae1 73bd ae84 62be 554d 623e a4b7 2ebe
00000120: ed00 08be cbd4 13bc 115b 4fba a80d 753d
00000130: 3f3d 13bd 92a0 89bd 485a a2bd 1596 723d
00000140: b84f 05bd 89d8 223e f7d1 7d3d 2f8d 403d
00000150: d772 b23d 7293 103d 9b5e 03be 09c3 ed3d
00000160: a838 a1bd 86ea 3ebd b698 8c3e 69d0 153e
00000170: f18f fc3c 854d 4cbe 9f9b 5f3e e22a 383e
00000180: 5d1b bfbd aaf0 853d f2e3 453e 62f9 6dbe
00000190: 768f 9e3d ab3e 02be 117f 803b 3dcb 98bd
000001a0: c4db f2bc 741d 8abd 2312 4c3e 95e9 40bd
000001b0: 2eaf 333c fc12 c3bd fea5 1ebd a834 58bd
000001c0: e17b 17be 2109 913c 3956 c63d 3aa4 22be
000001d0: 22a6 753e 3133 9abc 2a91 3dbe 5be4 a33d
000001e0: 2637 79be 026d 283e 1e14 a13c 1796 563d
000001f0: 8d1b 283b b5c0 14be 4c01 ed3d 46f4 693d
00000200: 7168 79be 35ad d3bc 0d94 b1bc da7c 9c3d
00000210: c4d5 65be 03f7 8ebc 93c0 d83c 79f6 0fbd
00000220: b8b7 133d b3f2 cc3c 2cd2 5dbd 3587 de3d
00000230: 4198 843d 8812 9abd 1627 cf3d b740 8a3e
00000240: 8a94 70be 77ee 053e 8e4b 053e ce35 553d
00000250: e5ab 443e d20b 25be 0c81 efbd b583 c1bc
00000260: bc18 a7bd 2bdb e73d 9505 823e c179 903d
00000270: 674b 67be 9a78 963d 996f 58bd a227 0c3e
00000280: dae6 24ba 2e41 313e 068d 613e 9e50 18be
00000290: 7591 2d3d 8cef a3bd 616f a53d d077 26be
000002a0: 2dd6 80be 1eaa 1abe 4079 c73d bf25 043e
000002b0: 8a13 97bc 7c10 dabd d74b 973d a424 a23b
000002c0: d074 eabd dc58 66bd 9514 d83d a376 6c3d
000002d0: 110b 21bc 2737 a13b a6a1 32be 2781 983c
000002e0: 2072 dbbb c1a1 d8bd 94ef 213e f143 573d
000002f0: 7aa6 4fbd e8dc dabd e197 fa3c eede 66bc
00000300: 5c36 6a3e 9396 ae3c e3b5 5a3d fc65 1fbd
00000310: 6cd8 3b3e eb76 e3bc 84b7 873d 470d 603e
00000320: 0d7f a6bd 9736 a3bd 1253 76be f478 22be
00000330: 9e20 da3b 2152 a0bd c922 bf3d 1dcc 48be
00000340: f4d5 d23c 9082 18bd d20c 39be 1407 943d
00000350: 46ff 3abe ba32 9bbd f046 b33d db85 f0bd
00000360: e7e8 433e 1a68 1fbe 19f4 cc3d 6e9e 423e
00000370: 85a9 f43c f343 523d dd52 a3bc f24e 27be
00000380: 7518 4bbd 8971 413d faf4 f8ba b3f9 54be
00000390: f1ef 613d c15b 6fbe d745 8a3d 9315 a6bb
000003a0: 4225 53be 0619 82bd 8b68 803e 2f16 fa3d
000003b0: f8fd 353e 3ec2 59be 35d0 403e 1621 b33d
000003c0: 33e5 69bd b567 673c 7971 213d c0d0 023d
000003d0: bdfc 4b3e c4f5 5bbe c54b 813d f9ed 903e
000003e0: a4b9 2bbe 3cfd f73d be76 5e3e 37f9 49be
000003f0: ca89 87bc b601 a43d 4955 0a3d c522 a3bd
-0.0426056 0.06524503 -0.0058085644 -0.15184474 -0.0813924 0.07025236 0.22393417 0.041244872
0.012751899 -0.15957484 0.09854645 0.24816461 0.051010557 -0.20454894 -0.046483476 0.24425316
-0.065752104 -0.074426964 0.11613809 -0.020187631 0.05734835 0.025665985 -0.2226455 0.107718036
-0.123646654 0.06341401 0.09091797 0.1048528 -0.13121076 -0.24723779 -0.03338817 0.010850207
0.20909956 -0.017565463 -0.15163022 0.06893393 0.13316646 0.035173845 -0.053144895 -0.058428157
0.08053997 -0.098693885 -0.11465043 -0.026813678 0.01718119 -0.08966046 -0.09281234 0.04978764
0.22764416 -0.07571485 0.015241381 0.055920776 -0.172454 0.069935195 -0.06325554 -0.07198068
-0.06854745 -0.16118471 -0.058964662 0.01598268 -0.08625776 -0.0027350711 -0.21891415 -0.18477277
-0.2358787 -0.035383888 0.002183303 0.0984586 -0.059540845 -0.22120926 0.22099812 -0.17062241
-0.13281603 -0.009022902 -0.00079099933 0.059827477 -0.03594708 -0.067200795 -0.07927376 0.05922516
-0.03254673 0.15902914 0.061967816 0.047009643 0.0871331 0.035296865 -0.12829058 0.11609466
-0.078721344 -0.046610378 0.2746026 0.14630283 0.030830355 -0.19951446 0.21836708 0.17985108
-0.09331391 0.06540044 0.19325235 -0.23239663 0.07742207 -0.12719218 0.0039213975 -0.074606396
-0.029645808 -0.06743899 0.19928794 -0.04709776 0.010967059 -0.09525105 -0.03873252 -0.052784592
-0.1479335 0.017704548 0.096844144 -0.1588296 0.23989156 -0.018823238 -0.18512407 0.0800254
-0.24337444 0.16447833 0.019662913 0.05238923 0.0025651187 -0.14526637 0.11572513 0.057117723
-0.24356247 -0.025839427 -0.021677041 0.07641001 -0.22444826 -0.017451769 0.026459014 -0.035147164
0.03606388 0.025018072 -0.054155514 0.108656324 0.06474353 -0.07523066 0.10114877 0.27002499
-0.23494163 0.13079248 0.13017103 0.052053265 0.19206198 -0.1611779 -0.116945356 -0.023622373
-0.081590146 0.113211 0.25394884 0.07054473 -0.22587357 0.07347222 -0.052840803 0.13686994
-0.0006290503 0.1731002 0.22026452 -0.14874503 0.042375047 -0.08004674 0.080778845 -0.16256642
-0.25163403 -0.15103957 0.097399235 0.12905024 -0.018441934 -0.106476754 0.07387512 0.0049482156
-0.114480615 -0.056237087 0.10550801 0.05773033 -0.009829299 0.0049199047 -0.17444476 0.018616272
-0.0066969544 -0.10577727 0.15814048 0.05255503 -0.050695874 -0.10686666 0.03059 -0.0140912365
0.22872299 0.021312034 0.053396117 -0.03891562 0.18344277 -0.027766665 0.066268 0.21880065
-0.08129702 -0.079693966 -0.24055126 -0.15866452 0.0066567203 -0.07828165 0.093328066 -0.19609113
0.025736786 -0.03723389 -0.18071297 0.072279125 -0.18261442 -0.07578035 0.08753765 -0.11744281
0.19131814 -0.15567055 0.100074954 0.19005749 0.02986599 0.051334333 -0.019936973 -0.16338709
-0.04958387 0.047227416 -0.0018993907 -0.20798378 0.055160467 -0.23374845 0.06751602 -0.00506849
-0.20619681 -0.06352429 0.2507976 0.122112624 0.17772663 -0.21265504 0.18829425 0.08746545
-0.057103347 0.014123847 0.039414857 0.03193736 0.19920631 -0.21480471 0.0631328 0.2830656
-0.16770035 0.121088475 0.21724984 -0.19723974 -0.016545195 0.08008139 0.03377274 -0.07965616

dense1.bias f4 [32]
00000000: a81c c3bd e3b2 0abe f178 343e 2486 2b3d
00000010: 105f cc3d e1ea 803e e30b 283d 9dd8 793e
00000020: be4e 893e 919a f43d d3ab 05bd 49d6 e23d
00000030: f995 913c 78b7 023d fa3b 433d 986a b23b
00000040: 0a57 ae3b 80e7 f0bd bf70 313e 6d78 ef3d
00000050: 54ed 30bd ea9d 663e e6b5 5f3e dcf9 d63d
00000060: 0c84 7ebd 3027 2bbe 1dcd 22bc 4d26 58be
00000070: df9a 6d3e a659 13bd daa9 48be 17e3 893d
-0.0952695 -0.13544802 0.1762426 0.041875973 0.09979069 0.25179198 0.04102696 0.24399038
0.26817888 0.11943544 -0.032634567 0.11076028 0.017771708 0.03191325 0.04766462 0.005444836
0.0053204345 -0.11762905 0.17328165 0.11692891 -0.043195084 0.22521177 0.21846732 0.10496876
-0.06213765 -0.16714168 -0.009936598 -0.2110836 0.2320361 -0.035974167 -0.19596043 0.06732767
