ecg/CL_trial_6_best_model.pth (torch, 142416 bytes, 15 tensors)

conv1.weight f4 [64, 1, 50]
00000000: 9c15 033e 2e36 0a3e 3aad 93bc f49b 123e
00000010: c5a3 a1bc a27c 1b3d a22a 7abd 73d9 b63d
00000020: 5e58 003e 6c8c d4bd 1623 fc3d b3de d73c
00000030: 6d11 d73d 5177 aa3c 2a32 913d 5e92 7cbc
00000040: 5823 ed3d f758 f03c bcca 65bd 9c53 423d
00000050: b35e 59bd 7bf3 62bb a8e6 30bd a40a dd3d
00000060: ea55 c9bd 56c2 51bd de20 d3bc a4af 91bd
00000070: 758d df3c 5e8f 00be a21f 123e 0178 d8bd
00000080: b02a fd3d 26d9 1a3d 2b4b 04bd 67aa cd3d
00000090: 24c8 0a3d d5bc 003e 00d8 ff3c 2a36 eebc
000000a0: 031b 5e3d e36c b4bc 0330 9e3d c9d4 143e
000000b0: f42f cf3d d1e1 2ebd e0f6 ce3d 876a 263d
000000c0: 6869 b13d da95 93bd 98e9 19be ab2c 84bd
000000d0: bc76 efbd 387e e33d 03df 183d a176 5f3d
000000e0: b644 293d 18e8 99bb edba dc3d 4e74 d6bd
000000f0: 0d8c a13b df55 ccbd fd35 283d 47bc 3cbd
00000100: 522f 3e3d 6c69 dabc 5075 f53d 4aa4 a8bd
00000110: 64e0 abbd ce02 acbd 8ee4 023e 5c07 443d
00000120: 2864 0b3e d373 f3bd 19bc 12be 2779 e8bd
00000130: acda c6bd 1f22 6a3d c59f 543d 117b f53d
00000140: 12dc 92bd 0426 c3bd 5ebe 9d3d bc6c 62bd
00000150: ec5a b43d 21de fbbc 609a aa3d 22f2 debd
00000160: 9500 90bd d188 393d 11e7 043d e52f 0abd
00000170: 1039 b23d fea5 c93d dedf d1bd 8f11 9bbd
00000180: 649a 053e 5823 42bd fb8e 52bd 6985 0dbe
00000190: 240e c3bd bd04 c03c f5b5 cbbc 6ff0 ddbd
000001a0: d129 daba 2a8d d0bd e60f 00be 467c a9bd
000001b0: d601 04be 4339 c2bd 1569 0c3e a444 be3c
000001c0: c7ae 243d 4be3 0bbe df93 d2bd 3dba 67bd
000001d0: 5920 813c 5f15 06be d71f 93bd 023a c3bd
000001e0: 70f1 22bc 19fc 80bd 1d4b a5bc 4008 dabd
000001f0: 84e6 dcbd 0bf5 bebd f7c7 6fbd 55af f6bd
00000200: a97b ed3d 62be f5bc 2d01 f63d 5dd2 2d3d
00000210: 5f07 fabd 0ae8 c33d 16f0 3ebd 36a8 81bd
00000220: 1905 02be 14a4 19be 8125 ff3c ffb3 25bd
00000230: 6b84 393d 0489 ffbd c242 c83d e389 e4bd
00000240: 042a 05bd 2420 bf3c 4fa4 893d 0aac de3d
00000250: 8114 fb3d b8f2 f6bd 9add 203d 44b0 7fbd
00000260: ab8e b5bc 43c6 eabd 79af f23d 39ac f1bd
00000270: 5ed9 793d ddfd 143d b2ea f33c 0eac c0bd
00000280: 6ceb ef3d e485 973c 301c 023a ae8c 0fbe
00000290: 0934 4a3d 572d d8bc d699 7bbd 961d 053e
000002a0: f5c4 233d 7559 96bd fd10 88bd 3e0a efb9
000002b0: 4cec ab3d 87c0 10bd 85bf b2bd 62c1 63bd
000002c0: 8e59 e8bd dac1 563d 2743 ed3d a501 06be
000002d0: eef8 1d3d 216e a63d bbbc 013d ceb5 37bd
000002e0: 54ca a73d 954a ad3d d6c4 803d 56ee 95bc
000002f0: e4a5 fcbc dda5 c33c c86f 70bc 056c f0bc
00000300: fc66 da3d 2906 0e3e 91ad 6639 2dbe 9abc
00000310: 49ea 713c 70e7 be3b 5a11 4c3d ec15 613d
00000320: ef1e 10be 52a0 81bd e65d df3d b7bf 393d
00000330: a489 8bbc 6017 c3bd 7694 c5bd beb1 0bbe
00000340: 1b39 62bd a725 1f3d 39bb a63d 7daf 663d
00000350: 4c32 0abe 776b c3bd 20ba 05bd d613 023e
00000360: 6545 2f3c 0cda 3ebd 26d1 453d 3038 85bd
00000370: 9f8c d3bd 222b bb3d 2739 9cbd f309 25bd
00000380: 80b1 1bbe 7ce0 ac3d 0cab cf3d 2731 3b3d
00000390: b4dd d4bd 3939 14be 437b f5bd 0321 cd3d
000003a0: b389 803d 3c2b eb3d 8660 8e3d f7fc d13c
000003b0: 393a 52bc cb3b f5bd cbe2 08be 563b 14be
000003c0: 8701 3c3d a5d2 a6bd 55d3 26bd aeb1 bfbd
000003d0: b782 1cbd 8d38 e5bd a991 d5bd 0b90 0c3d
000003e0: 415f 64bd 16e9 963d 6140 11bd 0254 c2bd
000003f0: 7c5e 88bc a62b 7cbd 975d 1abd c7d5 04be
0.12801212 0.1349723 -0.018026937 0.14317304 -0.019731412 0.037960656 -0.061075814 0.08928194
0.1253371 -0.10378346 0.123113796 0.026351308 0.105013706 0.020808848 0.07089646 -0.015415756
0.11579007 0.029339297 -0.056101546 0.047443017 -0.053068828 -0.003462999 -0.04318872 0.10793045
-0.0983084 -0.051210724 -0.025772508 -0.07113579 0.027289132 -0.1255469 0.1426988 -0.10569764
0.123616576 0.037804745 -0.03229825 0.10042267 0.033882275 0.12572034 0.031230927 -0.029078562
0.05422498 -0.022024577 0.07724001 0.14534296 0.10116568 -0.042695824 0.101056814 0.040628936
0.08662683 -0.07206316 -0.15030515 -0.06453832 -0.11692569 0.11108059 0.037322056 0.054556493
0.041325293 -0.004696857 0.10777841 -0.10471402 0.0049300254 -0.09977316 0.041067112 -0.046077993
0.046431847 -0.026661597 0.11985266 -0.08234461 -0.083924085 -0.083989725 0.12782499 0.04785858
0.13612425 -0.11887326 -0.14329566 -0.11351233 -0.09709677 0.057161447 0.05191018 0.11986364
-0.07170881 -0.09528735 0.07702325 -0.05527948 0.088064045 -0.030745568 0.08330226 -0.10886027
-0.07031361 0.045296494 0.032446925 -0.033737082 0.0870229 0.098461136 -0.102477774 -0.075717084
0.13047177 -0.047396988 -0.051405888 -0.13820423 -0.095241815 0.02343976 -0.024867037 -0.10836875
-0.0016644542 -0.10183175 -0.12506065 -0.082756564 -0.12891325 -0.09483578 0.1371196 0.02322609
0.040205743 -0.13660924 -0.102821104 -0.056574095 0.015762495 -0.1309409 -0.07183807 -0.095325485
-0.0099452585 -0.06298084 -0.020177418 -0.10646105 -0.10786155 -0.09324082 -0.05854031 -0.12045161
0.11595852 -0.029998008 0.12011943 0.042436946 -0.12208437 0.09565742 -0.046615683 -0.06330912
-0.12697257 -0.15003997 0.031145813 -0.04045486 0.0452923 -0.124773055 0.09778358 -0.11159112
-0.032510772 0.023330756 0.067207925 0.108726576 0.1225977 -0.12058014 0.039273836 -0.06242396
-0.022162756 -0.11463597 0.11849875 -0.11800427 0.060998313 0.036374915 0.029774997 -0.09407817
0.11714825 0.018496461 0.0004963307 -0.14018509 0.04936603 -0.026388807 -0.061426006 0.12999567
0.039982755 -0.07341281 -0.06643865 -0.00045593263 0.083946794 -0.03533986 -0.08727936 -0.055604346
-0.11345206 0.052430965 0.11585074 -0.13086565 0.038567476 0.08126474 0.031674128 -0.044851117
0.08192888 0.08461491 0.062875435 -0.018302124 -0.030840822 0.0238828 -0.014675088 -0.029348383
0.10664174 0.13869537 0.00021999168 -0.018889511 0.014765331 0.0058259293 0.049821235 0.054952547
-0.140743 -0.06329407 0.109065816 0.04534885 -0.017033406 -0.09525943 -0.09647457 -0.13642022
-0.05523024 0.038854267 0.08141179 0.056319702 -0.13495749 -0.09541982 -0.032648206 0.1270288
0.010697697 -0.046594664 0.048295163 -0.065048575 -0.10329556 0.09139086 -0.076280884 -0.04029269
-0.1520443 0.084412545 0.101400465 0.045701172 -0.10393849 -0.14474954 -0.11986401 0.10016062
0.06276264 0.11482856 0.06952004 0.025633318 -0.012831264 -0.11974295 -0.13367765 -0.1447576
0.045899894 -0.08145646 -0.040728886 -0.093600616 -0.038210597 -0.11192427 -0.10428173 0.034317058
-0.055754904 0.07368676 -0.035461787 -0.094886795 -0.016646616 -0.061565064 -0.03768691 -0.12972175

conv1.bias f4 [64]
00000000: 3c6e 8dbd 8b0c bb3d 2a4c f53d 710c 293e
00000010: 39a9 cfbd 11d9 223e 13da 0e3e 7913 383e
00000020: 49da ef3d 91cb e5bc bd79 0f3e 3768 2f3e
00000030: 684e 2bbd acda ae3c 881c 0c3e 7f64 173e
00000040: 6626 023e ea76 1d3e 4629 1bbd 6f60 363c
00000050: 3340 ecbc c9b5 e53d d764 773d e8cb 97bd
00000060: abc6 a93b a785 aebd cf34 0abe c196 2f3e
00000070: 3f78 38bd 36bd d13d 6143 c83a 76c2 a33a
00000080: cc2a 053d 552b 183e c9db bc3c 2338 213e
00000090: 362b ec3d 6656 0a3e 7faa c9bd 4428 2dbd
000000a0: 2e8b aabd dcc3 0c3b 5a63 513c 64af 5f3d
000000b0: eea4 2b3e c954 d73d af56 86bd 811b 86bd
000000c0: 3df3 193e 228e 6e3d e87d ad3d c857 10bd
000000d0: 37eb 983c 5e7e 943d 01c4 7bbd f82c 003e
000000e0: 55d3 e83d 3b3e 4dbd 81a5 c9bc 7b46 be3b
000000f0: 4cc8 773d 2f15 2fbc 9902 353e dffc d1bd
-0.06905791 0.09133252 0.11977418 0.16508652 -0.101396985 0.15903117 0.13950376 0.17976178
0.117115565 -0.02805117 0.14011283 0.17129599 -0.04182282 0.021344505 0.13682759 0.1478443
0.1270996 0.15377393 -0.03788116 0.01113139 -0.028839206 0.112163134 0.060398903 -0.07411939
0.005181154 -0.08521586 -0.13496707 0.17147352 -0.04503655 0.10241167 0.001527887 0.0012493867
0.032511517 0.1486028 0.02305402 0.1574407 0.11531679 0.13509521 -0.09846973 -0.04227473
-0.08327328 0.0021479046 0.012780035 0.054610625 0.16762134 0.10514218 -0.06559502 -0.06548215
0.15034194 0.058241017 0.0847128 -0.035239965 0.018666847 0.07250665 -0.06146622 0.12517154
0.113684334 -0.050108176 -0.024615051 0.005806742 0.060493752 -0.010686203 0.17676772 -0.102533095

conv2.weight f4 [32, 64, 10]
00000000: 8b45 503c 79e5 2c3c 387f 323d b340 253d
00000010: cdff a83c 6b35 853d cd81 23ba ad93 343d
00000020: 4c63 113c c778 a73c f416 7c3a 04c2 1b3c
00000030: 7ee0 af3b bf29 683d 68aa c43c 0878 753d
00000040: 7e6b 8f3c a121 e93c 2b24 353d c3e4 923d
00000050: 127a e33c 80cc 793d 5e7a 4a3d e307 7c3d
00000060: 0e84 803d 6ece 5d3d de41 cf3c a068 ce3c
00000070: b15f 593d 03ff 733d e3fe 213d 1c62 7e3d
00000080: 85e9 9f3c 9d3e 873d 37bc 203d ab35 853c
00000090: 5d88 c63c 648d 653c e4da 553d 8136 b13c
000000a0: c79f a63c 42f3 ee3c b564 053c c02b 0a3d
000000b0: 0e54 e13c dea2 313d 2637 753d 33e0 0b3c
000000c0: 9485 623d dd77 fb3c 1664 853c 8b6a a63c
000000d0: 9b88 443d 1a6b 413d 8cc7 183d fccd 9c3c
000000e0: d547 703d d5e3 353d 1368 203a f471 003d
000000f0: 0a76 e33c a470 a73c e0e0 813c 526e b23b
00000100: 66c6 9b3d 89aa 083b c181 983d 3a6c e23b
00000110: 2861 e53c 1a7b b53c ad82 b33c 2433 693d
00000120: 58cd 863d 2c28 8b3c 6f98 cb3c 70db 803d
00000130: 003c 1d3d e2a6 583d 5352 823d 1ff8 e23c
00000140: 8876 8b3c 10be 5c3d c7e1 d23c e8f2 5b3c
00000150: b3ce a03c 26b2 a93c 1e91 a13d 8286 413d
00000160: 82c6 6b3d fbd3 363d 6c11 c43b 2cf1 623d
00000170: d1ce bf3c 5853 9c3c 180b 823d 9f9a 223c
00000180: ca77 203d 21f4 00bb f9bc 4e3d c917 3a3d
00000190: 7c3f 123c 38f2 813d 82c0 3a3d 1855 b73c
000001a0: c9fd 9b3d 2507 743d c049 693d 9be0 ec3c
000001b0: 9997 aa3c 5d44 b63c 997b 5d3d 74e5 4e3d
000001c0: f28a 7a3c fe2d 9b3d de37 803d 9d78 c73c
000001d0: 3add 703d a8a3 b03c 3db0 513d f14f 903d
000001e0: 9f7e 7bbb cec3 493c f90e ef3c 2d0e 1a3d
000001f0: 127c b5ba bcce a63b 6996 e33c 5167 d33c
00000200: 6463 283d cbf0 1b3d 99ab 363d c659 223d
00000210: 9225 2e3d f3f8 103d f8d6 533d 815e 803d
00000220: 5bec 893c 5161 703c 767c 5b3d 89df ca3b
00000230: 182a 8b3d 4a8f 763d 3c49 453d 51b7 ca3c
00000240: 7f1e 333d f553 373c f3a0 f73b b69e a33d
00000250: 875e 083c e2ec 243c 9687 d03c 484b 2f3d
00000260: 53b0 4a3d 18b3 ab3c f4a6 173d faaf 033d
00000270: 5c87 953d 1e9b 9a3d 6fed 6a3d 16d5 213d
00000280: 06b5 8c3d 2b90 e83b 5cb6 643d 904d 713c
00000290: fbe3 8d3d f8ce 613b 95f1 593d c15e d23b
000002a0: 6e9c 7e3d c087 3f3d 6783 953d 312f dd3b
000002b0: 422a 833d 9067 4d3c d83b 8d3c 8e58 5b3d
000002c0: 97bc 013d 41c3 bb3b 3e3a d93b 1e31 f13c
000002d0: 33b0 3c3d a88e 8e3d eeb7 833d 0de1 113d
000002e0: fbea 4a3c 9714 91ba 08a5 8f3d f91a 453c
000002f0: cd74 df3c c1d0 363a e727 b43a 710b 083d
00000300: 3ff2 943c 9cf8 043d ce78 e03c 5882 eb3c
00000310: 388e aa3c 1ed5 e73c d6b8 443d 1649 793d
00000320: 4737 8c3d 6bc4 643a 86bc 043b 6af8 eb3c
00000330: ec78 083d 3a2e 6d3d 5705 933d d020 3a3d
00000340: 86a8 f93b 894c fc3c c8b8 813d fdc9 5b3d
00000350: dccb fd3b 9e6f 223d 9592 6dba c9cc b03c
00000360: 4f4e 833d d94f a73c 43ea 7c3d 767a d03b
00000370: a3fa 963d 9300 6c3d 21c2 853d 6710 4f3d
00000380: 9cbc 2a3d da0f a63c add7 9b3c 7a43 413c
00000390: 3dbc 933d c5c5 c83c e714 0b3d 0de8 ccbb
000003a0: ead8 273d 0499 8d3c 397e 11bb b9ce 053d
000003b0: dda7 21bc fe61 ab3c a44c 6ebb 91c4 4a3d
000003c0: eb90 673b 080f 243d 3099 583d a003 4a39
000003d0: 0585 673d a3b0 813d 1d9e de3b d6cc 0f3d
000003e0: f7ed 243d a947 7f3d d6e5 6f3d c7f9 d9bb
000003f0: 8dfa e3bb 7b08 67bc 02ac 103c c87e a33c
0.012711893 0.010552757 0.043578357 0.040344905 0.020629788 0.06504329 -0.00062372984 0.044086147
0.008873772 0.020443333 0.00096164574 0.009506706 0.0053673377 0.056680437 0.024007037 0.059928924
0.017507311 0.028458418 0.044223946 0.07172539 0.027768169 0.060986042 0.049433105 0.06153096
0.062751874 0.054151945 0.025299963 0.025196373 0.053069774 0.05956937 0.03954972 0.062105283
0.01952053 0.066037394 0.039241996 0.016260942 0.024234945 0.014010761 0.052210703 0.021632435
0.02033986 0.029168729 0.008141686 0.03373313 0.0275059 0.043368213 0.059867047 0.00853734
0.05530317 0.030696804 0.016283076 0.020314476 0.04798184 0.04722128 0.037299678 0.01914119
0.058662254 0.04440673 0.0006119024 0.031358674 0.027766246 0.020439453 0.015854299 0.00544528
0.07606201 0.00208536 0.074466236 0.0069098743 0.02800043 0.022153426 0.021912897 0.056933537
0.06582135 0.016986929 0.02485296 0.062918544 0.0383873 0.052893527 0.06363358 0.027706204
0.017024294 0.053892195 0.025742425 0.013424613 0.019629812 0.02071483 0.07889007 0.047247417
0.05756236 0.044635754 0.005983522 0.05540578 0.023414047 0.01908271 0.06349772 0.00992456
0.03917674 -0.0019676762 0.050473187 0.04543284 0.008926269 0.06345028 0.045593746 0.022379443
0.07616765 0.059577126 0.0569551 0.028915694 0.02082424 0.022249395 0.05407295 0.050511792
0.015291916 0.07577132 0.06260656 0.024349505 0.058804728 0.021562412 0.051193465 0.070464976
-0.0038375033 0.01231475 0.029181944 0.037611175 -0.001384618 0.0050905626 0.027781682 0.025806101
0.04111041 0.038071435 0.044597242 0.039636396 0.0425163 0.035393666 0.051718682 0.06268025
0.016836336 0.01467164 0.053585492 0.0061911982 0.06795138 0.060195245 0.048165545 0.024745615
0.043730255 0.0111894505 0.0075570284 0.07989256 0.008323318 0.010066243 0.025455277 0.042796403
0.049484562 0.020959422 0.037024453 0.032150246 0.073012084 0.075491175 0.05735534 0.039509855
0.06870465 0.0070972643 0.055837974 0.014727965 0.069282494 0.0034455638 0.053208906 0.006419987
0.0621609 0.04676032 0.07300454 0.0067500104 0.064045444 0.012536898 0.01724045 0.05355125
0.031673994 0.005730063 0.0066292575 0.029442366 0.046066474 0.06960803 0.06431566 0.035615016
0.012385125 -0.0011068758 0.07013899 0.012030357 0.027277375 0.0006973856 0.0013744802 0.033214036
0.018181918 0.032463655 0.027401354 0.028748676 0.020819768 0.028299864 0.048027836 0.060860716
0.06846481 0.00087267783 0.002025397 0.028804976 0.033318445 0.057905413 0.07178753 0.04544145
0.0076189665 0.030798214 0.06334072 0.053659428 0.007745249 0.039657228 -0.0009062675 0.021582024
0.064114206 0.020423817 0.061746847 0.0063622547 0.07372024 0.057617735 0.06531168 0.050552752
0.04168378 0.02027123 0.01902374 0.011795873 0.07213638 0.024508366 0.03395548 -0.0062532485
0.04097835 0.017284878 -0.0022200479 0.03266785 -0.009866682 0.02092075 -0.00363616 0.049503867
0.003533418 0.040053397 0.052880466 0.00019265572 0.05652334 0.06332519 0.006793751 0.035107456
0.040266003 0.0623242 0.058568798 -0.00665209 -0.006957358 -0.014101143 0.008830072 0.019957915

conv2.bias f4 [32]
00000000: 77a5 a73d 6ed4 813d a50a 943d b3ff 123d
00000010: e9a4 d13c bd72 a9ba 5a6a 3a3c 4909 8a3c
00000020: adc0 f8bb 3fb5 893d 46a0 0fbd 924c b5bc
00000030: 3b4e fc3c b5b4 a9bc b854 14bd b664 823d
00000040: ab1d 3a3d 3c4e e1bc 1fb8 da3c ce6b 3a3d
00000050: 213e f73c 27e6 24bb 3b90 4cbd 922f 9cbc
00000060: fc76 843c b682 4bbc 1931 a8bc 87eb 0f3d
00000070: 4382 c23c 6621 fe3c f4e9 d33c 6f65 2bbd
0.08185857 0.06339346 0.07228593 0.035888385 0.02559133 -0.0012927871 0.011377895 0.01685013
-0.007591328 0.06724023 -0.035064958 -0.022131238 0.030799022 -0.02071605 -0.036213607 0.06366865
0.04543845 -0.027503125 0.026699124 0.045512967 0.030180993 -0.0025161596 -0.049942236 -0.019065652
0.016170017 -0.012421301 -0.020531224 0.035136726 0.023743754 0.031021785 0.025868393 -0.04184478

conv3.weight f4 [16, 32, 5]
00000000: e540 e13c 0ea3 e33d c69c bb3d 8c39 0e3d
00000010: 4c7c 823d 0102 5a3d be9d a2bb 2e51 823d
00000020: 2964 8b3d 9eb4 d03c f808 a83d cb17 863d
00000030: f571 03bb 68e6 6a3d 19a2 8e3d 419a c43d
00000040: 19c4 9ebc 2d35 2cbd ab9f 133a f5df 183d
00000050: f577 c7bc 394f 9e3c 833f aebc 8457 cbbc
00000060: 2c9c 713d d43d 603d bee4 d93c aa6d 903d
00000070: 9ed6 29bb d50f d93c 8402 953d 3c6d a43d
00000080: c7ac 153d 541e 5abd ec8a 0a3d bfdc 9e3d
00000090: e511 373d aecd 6dbd a4f4 e9bb 3418 a7bc
000000a0: 27bd 61bd 018b 4bbd 1703 883d dac9 13bd
000000b0: f278 06bd 51a2 103b 6da1 e43c bd72 ac3d
000000c0: c696 28bd 79cf 56ba c3cf 2c3a c01f 113d
000000d0: 399a f8bc 694b 03bc a440 eebc d970 89bb
000000e0: 1cd1 5e3d a2cd a3bc 7979 3e3b aac2 1cbd
000000f0: bed7 653d 7cb1 93bc 5e3b 493d 2c6a 37bd
00000100: ab16 7d3d 018f 453d 1e59 20bd 2717 323c
00000110: c152 e7bc 901d a7bc 0b42 c03c a08b 06bd
00000120: 2875 683d 1f3c 593d 6a31 ab3d 95bf 523b
00000130: 3885 12bd d37d b03d c155 403c 3192 07ba
00000140: cb84 4dbb 8248 d93d c1e7 f3bc 3b1d 423d
00000150: bb61 413d 3c11 78bc fe7e 753d b67d 7b3d
00000160: 8884 8b3d 67b6 133d 350d 653d 8dbb 633d
00000170: c909 033c 9efc 06bd 9c17 0a3d 1a6c 2e3d
00000180: a438 a63d c03c 403d 9645 023d c98e 673b
00000190: 9226 cd3d 4073 d03d 7e03 e03d c9ad d33c
000001a0: b450 0dbc 7ce7 46bd 4a41 80bd 1e57 44bd
000001b0: 3175 31bc d5cf 9b3d b7e4 72bd 6c0c 23bc
000001c0: 33a9 393d 2eb7 4f3d 05c3 8b3c dc44 89bb
000001d0: e701 8e3c f545 13bd d929 573d 33e2 743d
000001e0: 3950 c33c f67a 873d 69dd 653d c910 84bd
000001f0: 9393 b6bc 026d 60bd 91d0 233d 321f 6ebd
00000200: 4eeb 003d a091 5cbd 5df2 623d 714c 22bd
00000210: 894a 67bd 0f7b 8abc 232f 293d ea8b d73a
00000220: 2fe7 813d e01f 143d ad15 19bc 6971 e73c
00000230: d001 b03d ff05 68bc 981f cd3d 092e 583d
00000240: f2ba 8f3d 14ea a33c 0e7c bc3d a1cd dfbc
00000250: bad6 c23a ae8f a73d 12f9 1ebc eaa7 c83d
00000260: 30e7 803b c067 31bd 0b74 d53d c0dc 9f3d
00000270: 4be7 3c3d 87e2 5dbd f96d fa3c 7349 acbb
00000280: 0c9b 823d 690d 9c3b 4e4a a5bc ce51 c1bd
00000290: b221 37bd c1ac 353d 4ff6 9fbd c3d1 fcbb
000002a0: 10bc 9ebd b4d8 c8bc 4d1d 12bd 1e2a debc
000002b0: 7497 a7bc c4a3 20bd b1a6 45bd f1eb c43c
000002c0: e8bb adbb bd9d 64bd 53e5 c33c fd50 7f3d
000002d0: 1e28 c13c 4598 6d3c 6c60 0cbd 7dfe 1c3d
000002e0: 937f 4dbd 3389 c33c ed05 6a3d 1817 c9bc
000002f0: cd48 6cbd 45b4 113c 5f73 d4bc ad20 ff3c
00000300: 1d23 48bd f198 293d 1363 2e3d 57c1 d23c
00000310: 20ca 96bb 44eb 36bd 8563 253d fdd6 f2bc
00000320: 18ce 28bd c4f2 3f3d f4dc 0bbd 70a2 ab3c
00000330: 51dc 953c 1f19 3cbd 0c78 103d d40b babc
00000340: 7ea5 c63c ef1b 8ebd 8196 613c ad41 503d
00000350: 12f3 49bd a850 793d 976f 80bd 30cd 333c
00000360: d709 3f3c 566e 57bc 2fc9 683c 28bf 063c
00000370: f51f 48bd f138 a3bd c956 90bd f631 70bc
00000380: 3849 50bc 3640 01bd 3e24 c3bc 9d93 b6bd
00000390: d958 c3bd 7abc 51bd 8199 a1bd c6b2 de3c
000003a0: 9711 1abd b72f 4cbd 3cf7 5bbb 241c da39
000003b0: 105c cc3c ec8f 5dbc 6168 1a3c 2c16 d23a
000003c0: cdd7 5c3d 8605 d43b 3c67 773c 83ff 5cbc
000003d0: 162e 993c 24d6 b5bc 0814 68bd 7956 83bd
000003e0: fe51 e83c a004 4abc fc9c 813d 7c08 033d
000003f0: 1fc5 5a3d 23d1 c4bc 7149 133d 9a10 7bbb
0.027496764 0.111150846 0.091607615 0.03472285 0.06371364 0.053224567 -0.004962652 0.0636314
0.068062134 0.02547675 0.08204836 0.06547507 -0.0020056937 0.05734864 0.069645114 0.09599734
-0.019380616 -0.0420429 0.00056313974 0.037322957 -0.024349192 0.019324886 -0.02127052 -0.024822004
0.058986828 0.054746464 0.02659833 0.07052167 -0.0025915275 0.026496807 0.072758704 0.08028647
0.036541726 -0.05325158 0.033823892 0.07756948 0.0446948 -0.05805748 -0.007139759 -0.020397283
-0.05511203 -0.04969311 0.06641214 -0.036081173 -0.032830186 0.0022069404 0.027909005 0.08420322
-0.041159414 -0.0008194368 0.0006592238 0.03543067 -0.030346977 -0.008013585 -0.029083557 -0.0041943607
0.05439864 -0.019995514 0.0029064103 -0.038271584 0.05611395 -0.018028967 0.049128883 -0.044778988
0.061789196 0.048232082 -0.03914749 0.010869778 -0.028237702 -0.020399839 0.023468992 -0.032848
0.056752354 0.05303585 0.08359034 0.0032157649 -0.03577158 0.08617749 0.011739195 -0.00051716255
-0.0031359668 0.10609533 -0.029773595 0.047391158 0.047212344 -0.015140828 0.059935562 0.061399184
0.06812388 0.036062624 0.0559208 0.055598784 0.007997938 -0.03295576 0.033713922 0.042583562
0.08116272 0.046932936 0.031804644 0.003533291 0.10017122 0.10178232 0.10938166 0.025839703
-0.008625198 -0.048560604 -0.06262453 -0.047934644 -0.010831163 0.07608 -0.05930015 -0.009951692
0.045327377 0.050711803 0.017060766 -0.004189117 0.017334891 -0.035955388 0.052530143 0.059786033
0.023841964 0.0661525 0.056119356 -0.06448514 -0.022287166 -0.054791458 0.039993826 -0.05813522
0.031474404 -0.053849816 0.055406917 -0.03962368 -0.056467567 -0.016904382 0.04130472 0.0016444896
0.06342923 0.03616321 -0.009343547 0.02825232 0.08594096 -0.014161586 0.10015792 0.052778278
0.07018079 0.020009078 0.09203349 -0.027319731 0.0014865019 0.081817016 -0.009702938 0.09797652
0.0039338097 -0.043311834 0.10422524 0.078057766 0.046119016 -0.05417111 0.030570017 -0.0052577793
0.06377229 0.004762341 -0.020177033 -0.09439431 -0.04470987 0.044354204 -0.078106515 -0.0077154352
-0.07750714 -0.024517395 -0.035672475 -0.027119692 -0.02045796 -0.03921868 -0.048254672 0.024038287
-0.005301941 -0.055814493 0.023913061 0.062333096 0.0235787 0.014501636 -0.034271643 0.038328636
-0.050170492 0.023869133 0.057134558 -0.024547145 -0.057686616 0.008893077 -0.02593392 0.03114351
-0.04886161 0.041405622 0.042574953 0.025726957 -0.004601732 -0.04465796 0.040378112 -0.02964353
-0.04121217 0.04686238 -0.034146264 0.02095148 0.018293532 -0.045922395 0.035270736 -0.022710718
0.024248835 -0.06938922 0.013768793 0.050843883 -0.049304076 0.060867935 -0.06271284 0.0109742135
0.011660061 -0.013148865 0.014208122 0.008224286 -0.0488586 -0.07969845 -0.07047803 -0.014660349
-0.012712769 -0.031555377 -0.023820993 -0.08914874 -0.09538431 -0.051205136 -0.07890607 0.027184855
-0.03761443 -0.049850192 -0.0033564111 0.00041601167 0.024946243 -0.013523083 0.0094243 0.0016028336
0.05391674 0.006470385 0.015100297 -0.013488653 0.018698733 -0.022196837 -0.05665973 -0.06412978
0.02835941 -0.012330204 0.063287705 0.031990513 0.053410646 -0.024025505 0.03595871 -0.0038309456

conv3.bias f4 [16]
00000000: 5996 c23d 69fd 12bc cdf2 cd3c ef14 e53c
00000010: b33e e9bb 8c7e adbd 6285 8ebd 4588 563a
00000020: 236e 5cbd 0903 f03c eed3 163d b5df 35bd
00000030: 74a4 7fbc 380a c03d cfc7 6b3d c065 7dbd
0.09501333 -0.0089715505 0.02514019 0.027964083 -0.00711807 -0.084714025 -0.069590345 0.0008183758
-0.053815972 0.029298322 0.036823206 -0.044402797 -0.0156031735 0.09376949 0.0575636 -0.061864614

lstm.weight_ih_l0 f4 [128, 16]
00000000: 96b7 423e fbbd 503c 5f9e aabc 6d63 bb3d
00000010: f9b4 bcbd f6d0 16be 94a3 dc3c a3b9 263e
00000020: b755 033e fe05 313e 53d7 0a3e d3b6 833d
00000030: 0c24 903d 1bd7 87bd f123 0c3e 51ac 253e
00000040: 1395 d9bd 74b5 3abe e18f 603b 2048 eabd
00000050: efac 90bc 10aa 0f3e 6203 1fbc 3e66 523e
00000060: 5b6d 7cbc 0529 d3b9 a752 1c3d ee68 86bd
00000070: c244 643c 03ac 23bd 4fdd 10be 5bcc 713a
00000080: c823 943d 4717 153d 2c78 943d d12f 74bd
00000090: 090a 0abe f455 c93d 3789 833d 62ae 0bbe
000000a0: f77f 2b3e 5e8d 14bd d73c efbd 3786 c0bd
000000b0: 7f8c 4ebc dc1c cbbd e437 3c3d 05db a6bd
000000c0: 2a9e 55bd ab09 313e 7fec 95bc e461 993b
000000d0: 2582 78bd 75c3 09bd 2c01 93bd 3faf 5dbd
000000e0: 2eb7 edbd 0781 3abd d087 ac3d 3aa6 c13d
000000f0: 760c 133e 1f0e 40bd ae5c 15be 2dfa e6bc
00000100: 22ea 543e 7119 de3c 9bd8 4e3e d202 1e3e
00000110: 8f81 203e 0162 f6bc 0049 7f3d 80c1 9fbd
00000120: 0030 e63c 77cf b93d 06e8 9bbd 429a f0bd
00000130: d719 4bbd b256 263d e109 16bd 9040 983d
00000140: b8f7 55bd 4c5b 463e 3fad 42bd df50 0a3e
00000150: 4fc0 473e 8139 323e 209d 4abd 216d 65bd
00000160: 3b47 9abd 28d5 bebd 45bd 15bc 014e 10bd
00000170: ba4c d33d 7a0e 463e fabf a23d 0f23 953c
00000180: 208f 27bd 8de1 98bd 9e83 2f3e 2c55 34be
00000190: 2995 08b8 883a 3cbe ed10 61bd e03b ddbd
000001a0: 85e2 2fbe 19b8 0f3d 28d1 9abd ea8b f73c
000001b0: 5efa 353e ec80 bbbb 433b 4e3d 83a2 aabd
000001c0: ba68 253e 3fdb 4a3e ef9f abbc 6b93 e3bd
000001d0: 99ba 383e aea3 0c3e 66a6 f13d 39ea 683d
000001e0: c256 5e3d 0b0e 873d e64a 8a3d 8059 39bd
000001f0: f2b4 be3d 2d2b 513e 9263 29bd 47f2 febd
00000200: bacf 7bbd 07cd b83c 8671 f53d 1dbe 3b3d
00000210: 9796 5b3e 46d3 893d ecdb f63d 39f9 d5bd
00000220: c113 d53d 38e2 113e b985 b33d 6858 a63d
00000230: 268e cebd 417e 603e 33e3 a13a 207e 23be
00000240: 0cb9 a53d 1fbf 9d3d 0be1 0d3e 360c 0d3e
00000250: 2a22 563d a3c0 b33d facc 313e 9117 c23d
00000260: 92de 8a3d d407 24bd 8a92 e5bd fb8e 333d
00000270: 48ac d2bd 6490 d83c 9505 38be bc39 3cbe
00000280: 88d1 1fbd 7f57 17be f455 143e 13b4 913d
00000290: 407b f5bb b8f7 343e 5b26 f03d e741 193e
000002a0: 539b ecbd 2ec8 febd 0038 c7bc f646 053e
000002b0: ad51 e1bd 900f a0bd c9fb b33c 6b03 a53d
000002c0: 2795 173e 5489 7c3d f6cd ad3c 7cd8 30bd
000002d0: 1daf 363d ec53 ff3d 86ce c7bd 0754 f6bd
000002e0: ea9e 92bc 6fbd 0b3d 6a2a 063e af34 a63d
000002f0: 0f2b 5f3e 1975 7bbc 84ec 943d 5c33 d9bd
00000300: cf12 fabd 0b00 e6bd 86aa ea3d f360 0cbe
00000310: 1b62 a4bd 04ef 1b3d fc90 1abe 9a80 b23c
00000320: ccdc 0bbe d014 0a3e 8e5c eb3d 5ab8 b73d
00000330: ca4b 033e 18ef ca3d f624 743d 47bf 8c3d
00000340: 234e 393d d9f2 24bd 3491 693d afbe f0bd
00000350: 3eaa 0abe 061a 63bb d8bc 69bd 6bd5 1ebd
00000360: 6eaf a23d a8cb e6bc f641 4c3e 382a d8bd
00000370: d0b8 fcbd 0fe5 bc3d 3700 cb3b fe2a df3c
00000380: 5ecb b13d 20c9 2bbd 134f 07be 0834 d43d
00000390: 20c5 c6bc 6228 043e 439a 66bd 59c6 363e
000003a0: 0baf 253d 4996 3ebd 1e7b 90bc 7516 203e
000003b0: 462b 393e 7116 15be d1a8 aabd 4b8a 7abd
000003c0: 28a0 c03d a30c ccbd 2088 8dbd a1c7 453d
000003d0: cd12 543d bfd6 d3bd 8da7 0c3e 3192 4f3e
000003e0: 6722 90bd 7aea 4d3e 3747 c13d 7310 1b3d
000003f0: 2cb2 41bc 7efe 4d3e e216 0e3e e654 10be
0.19015345 0.012740607 -0.02082747 0.09149823 -0.09214205 -0.1472815 0.026933469 0.16281752
0.12825666 0.17287442 0.13558702 0.06431355 0.070381254 -0.06632825 0.13685586 0.16179015
-0.10624137 -0.18233281 0.0034265446 -0.11439538 -0.017660586 0.14029717 -0.009705396 0.20546815
-0.015406932 -0.00040275618 0.03816476 -0.065629825 0.013932409 -0.039958965 -0.14146923 0.0009223872
0.07233387 0.036399152 0.072494835 -0.059615914 -0.1348039 0.098308474 0.06422656 -0.1364074
0.16748033 -0.03626763 -0.11681526 -0.094005994 -0.012606739 -0.09917614 0.04595174 -0.081472434
-0.05215279 0.17288844 -0.018301247 0.004680859 -0.06067099 -0.033633668 -0.07177958 -0.054122206
-0.116072044 -0.045533206 0.08424342 0.09455533 0.14360222 -0.046888467 -0.14586136 -0.028195465
0.2079244 0.02711174 0.20199816 0.15430763 0.15674423 -0.030076029 0.062325478 -0.07800579
0.02809906 0.09072774 -0.07612614 -0.11748172 -0.04958519 0.040610023 -0.036630515 0.07434189
-0.052238196 0.19370764 -0.0475285 0.13507412 0.19506954 0.17404748 -0.049466252 -0.056012277
-0.075331174 -0.09318 -0.009139364 -0.03523064 0.10317369 0.1934146 0.07946773 0.018205194
-0.04090798 -0.074648954 0.17140052 -0.17610615 -3.2563843e-05 -0.18381703 -0.054947782 -0.10802436
-0.17176254 0.03508768 -0.07559425 0.030218083 0.17771289 -0.005722156 0.050349485 -0.08331778
0.16153231 0.19810198 -0.020950286 -0.11112102 0.18039931 0.13734314 0.11799316 0.056863997
0.054281957 0.06594475 0.06752567 -0.04525137 0.09311856 0.20426627 -0.041354723 -0.124485545
-0.0614774 0.022558702 0.119845435 0.045835603 0.21444164 0.0672975 0.120536655 -0.10447926
0.104041584 0.14246452 0.0876574 0.08122331 -0.100857064 0.21923162 0.0012351036 -0.15966082
0.080919355 0.07702469 0.13855378 0.1377419 0.052278675 0.08776977 0.17363349 0.09477151
0.06780733 -0.040046528 -0.11209591 0.04383753 -0.10286766 0.026436038 -0.1797088 -0.18381399
-0.039018184 -0.14779471 0.14485914 0.071144246 -0.007491499 0.17672622 0.11726066 0.14966546
-0.11553063 -0.12440525 -0.024318695 0.1301535 -0.110019065 -0.07815468 0.021970646 0.080572926
0.14802991 0.061654404 0.021216374 -0.043175206 0.044600595 0.12467179 -0.09756188 -0.12027746
-0.017898042 0.034116205 0.13102117 0.08115517 0.2179377 -0.0153477425 0.07271674 -0.10605499
-0.12210619 -0.11230477 0.11458306 -0.13708858 -0.08026525 0.03806974 -0.1509437 0.021789838
-0.13658446 0.13484502 0.11492263 0.08970709 0.1282188 0.09908885 0.05960556 0.06872421
0.045240533 -0.04027066 0.057023242 -0.1175512 -0.13541505 -0.0034652962 -0.05706486 -0.03877775
0.07943617 -0.028173283 0.19947037 -0.105549276 -0.12339938 0.09223377 0.006195094 0.02724218
0.08681367 -0.041939855 -0.13213758 0.10361487 -0.024263918 0.1290603 -0.05629946 0.17849101
0.040450137 -0.04653004 -0.017636832 0.15633567 0.18082914 -0.14559342 -0.083329804 -0.061167043
0.094055474 -0.09963348 -0.069107294 0.048286084 0.051775742 -0.10343694 0.1373579 0.20270611
-0.07037812 0.20108977 0.09437411 0.037857484 -0.011822265 0.20116612 0.13875917 -0.14094886

lstm.weight_hh_l0 f4 [128, 32]
00000000: afd7 a93d 030b a53d 34f2 80bd 9798 1a3d
00000010: e10f ffbd c5df 0ebe 2c63 333e 6685 603c
00000020: 5019 1dbe 7361 fd3d f1eb 5f3d 2743 db3d
00000030: 0cd3 48bd 3b87 14be 9e58 b1bb 0f4c 053d
00000040: b0d3 49be e414 d93d 51d6 c6bd b8d9 e73d
00000050: b54b 0ebe 7474 56be 2d38 86bd ce20 2d3e
00000060: 34d8 e63d f96a a03d fd35 773d 39f4 fa3d
00000070: a1ce ecbc 94e3 fdbd 412a 1f3d 9b8b d7bd
00000080: 39e9 c3bc 3773 f83d 6b3f 59be b89d da3d
00000090: 31bf ec3d 9472 84bc cb59 c6bd 6f2f 5abe
000000a0: f49b abbc d31a 31be 5618 653d 8839 a43d
000000b0: 5aff 20be dbb2 3bbe d22b e43d 884d 9dbd
000000c0: 008f 8bbc 6ae7 353e 479e c2bd d45a 01be
000000d0: 76a6 88bc f423 85bc 5d56 0ebe 1117 56bd
000000e0: 44de a5bd ac49 e33c 4a7d dfbd c361 19be
000000f0: 32ea 003e ed89 bdbd e6f2 073d 7185 cabd
00000100: f637 36bd fdc6 a43d 7932 48be 8724 96bc
00000110: e458 3c3d 7842 27be f968 0e3e ec5c 19be
00000120: ca43 89bd e7e7 10be d2d5 953d 33ba 8c3c
00000130: 294d 173c ba21 3cbe b265 2f3e 5306 c0bc
00000140: 9fd9 98bd c855 c63c d432 3c3c 0c1d acbb
00000150: d307 df3d 91e2 bb3d 5b30 e53d daef 453d
00000160: e876 01be f3ed 553c 17b9 443e 52d0 8a3d
00000170: 5c5d d9bd cdeb 21be ad79 1d3e eb6d 363e
00000180: 525d b53d d376 9b3b 5bd4 b83d a6d5 cb3d
00000190: 0aa3 c53d b7a7 003e ba29 e5bd 9664 fb3d
000001a0: dc99 b43d fe0b 003c 5558 083e 4f52 763d
000001b0: 4376 96bd a48f 0f3d 3fc0 3f3d 25df 5a3e
000001c0: f33a 07be d833 e93d 6297 a8bd 0dfc 4cbe
000001d0: ff20 a93d 415d f13d c4b6 053e 013c 0b3d
000001e0: ce64 5bbd 1249 2d3d 93d5 e2bd c110 2d3d
000001f0: 3edc 1abe 812a 7abd 9fd1 dbbc 9bed 02be
00000200: 7b6d 883d a889 c83d cd77 643c 6d7f acbc
00000210: cd09 db3d 23c1 483d 684d 743d 62ff 8e3d
00000220: 0f93 fd3d 2d4a 2abd 9146 4b3e b9e4 96bd
00000230: abd8 07be f59c 803d 37b3 bfbd 2aa1 52bd
00000240: d7bb 093e 6d29 5ebd 9354 d83d 9548 bb3d
00000250: 5ea6 85bd 35bf 14be 7ed1 1dbe c950 a13d
00000260: a18e c43d cbcb 153e a0cd 9ebd b38a 39be
00000270: 3609 fdbd 18d0 e4bd c70d c13d a724 25bd
00000280: b7da bb3c 20af afbd 1436 173e 9d42 3cbe
00000290: 9073 4abd 5c3c 0a3d c7e6 2c3e 2285 5abe
000002a0: ced1 45be 231b cb3d 0e2c e63c 9e1c e23d
000002b0: bec5 1a3e 2129 cf3d e265 d9bd 59b7 29bc
000002c0: c359 30be 8449 9abd 0844 0e3e 66f6 a23d
000002d0: 23ac 2d3c 1cc5 dbbd aefa 08be b5cc aebb
000002e0: 69d7 f73b dd74 043e 69a4 a33d 4eed 443d
000002f0: c58c 3e3d afac 973c ebe8 1d3d 5710 a83d
00000300: 9446 cbbd 0007 923d 85e6 2ebe 81f6 1ebe
00000310: 76a9 b2bd e41b 13be dbc3 f03b d46b 1e3e
00000320: b777 a33d c6ce 833b 05e9 06bd c8a3 68bd
00000330: 27c0 263c 3d65 7dbd bea4 933b 01ef f9bd
00000340: a7a4 b53d 6a26 093d 14aa 2fbd b300 173a
00000350: 86be aebd 9581 22be 5faa 4ebd 9b64 14be
00000360: 90af aebd b99e b63d 1176 d5bd a138 543d
00000370: c54d 223e 903a cc3c 50eb d0bd 21ff 3bbd
00000380: 34ed b1bd fd1a a53c bf56 20be ef14 bbbd
00000390: ade5 fb3b 1ad6 53be 5b23 bfbd 1211 1e3d
000003a0: ecdb aabd 53f7 0cbe 9624 3e3d e266 123e
000003b0: b2bf f33d e64d 96bd 4b05 873c 394f 053e
000003c0: e571 fd3d b2c2 3bbd a697 db3d 1ba2 a2bd
000003d0: 722d ba3d baa3 463d f6da 4abe 05b4 80bc
000003e0: 9f64 3d3c a752 c1bd 16a6 08be 70cc babc
000003f0: ccfb 21be 6525 1fbd d962 b4bd 06a8 03be
0.082930915 0.08058741 -0.062961966 0.037743177 -0.124542005 -0.13952549 0.175183 0.01370368
-0.15341687 0.123721026 0.05466837 0.10706168 -0.049029395 -0.14504711 -0.0054121753 0.03254324
-0.19709659 0.10599688 -0.09708846 0.113208234 -0.13896067 -0.20942861 -0.065536834 0.16907045
0.11271706 0.078329034 0.06035422 0.12253613 -0.028907122 -0.12396923 0.038858656 -0.105246745
-0.02391492 0.121313505 -0.21215598 0.10674614 0.11559904 -0.016167916 -0.096850954 -0.21307157
-0.020948388 -0.17295389 0.05593141 0.08018786 -0.15722409 -0.18329947 0.111411706 -0.076808035
-0.017035961 0.17764059 -0.09502845 -0.12632304 -0.016680937 -0.016252495 -0.13900132 -0.05226809
-0.080990344 0.02774509 -0.10912569 -0.149787 0.12589338 -0.09254823 0.03319063 -0.09888733
-0.044486962 0.080457665 -0.19550504 -0.018327964 0.04598321 -0.1633395 0.13907231 -0.14976853
-0.06702383 -0.14150964 0.073161736 0.01717863 0.009234705 -0.1837224 0.17128637 -0.023440516
-0.07463383 0.024210826 0.011486728 -0.005252486 0.10890164 0.091740735 0.11190864 0.048324443
-0.12643015 0.01305722 0.19211231 0.06778015 -0.1061351 -0.15812607 0.15378447 0.17815368
0.0885569 0.0047443896 0.090248786 0.099528596 0.09650238 0.12563978 -0.11189599 0.122750446
0.08818409 0.007815359 0.13314946 0.06013709 -0.073467754 0.035049096 0.0468142 0.21374185
-0.13206081 0.113868415 -0.08231999 -0.20018025 0.08258247 0.11785365 0.13058001 0.03399277
-0.05356293 0.042306013 -0.11075892 0.042252306 -0.15123078 -0.06107569 -0.026833354 -0.12785952
0.06661507 0.09791881 0.013944578 -0.021056855 0.10695229 0.049012315 0.059644133 0.06982304
0.12381565 -0.041574646 0.19851138 -0.07367844 -0.13266246 0.06279937 -0.093603544 -0.05142323
0.13450561 -0.054238725 0.10563006 0.09144703 -0.06525873 -0.14526065 -0.15411946 0.07876737
0.09597517 0.14628522 -0.077540636 -0.18119316 -0.123552725 -0.11172503 0.09426456 -0.040318158
0.02293144 -0.08578324 0.14766723 -0.18384786 -0.049426615 0.03374897 0.1688491 -0.21339849
-0.19318315 0.09917285 0.028097179 0.110406145 0.15114495 0.101152666 -0.10615136 -0.010358655
-0.17221741 -0.07533553 0.1389314 0.07957153 0.010600123 -0.10730955 -0.13376877 -0.0053344616
0.0075635207 0.12935205 0.07990343 0.048077874 0.046520967 0.01851496 0.038552206 0.082062416
-0.09925571 0.071302414 -0.17080124 -0.15523721 -0.08723728 -0.14366108 0.0073475665 0.1547082
0.07981818 0.004022452 -0.03293707 -0.05679682 0.010177649 -0.061864126 0.004505723 -0.122037895
0.088692956 0.0334839 -0.04288681 0.0005760297 -0.08532433 -0.15869744 -0.050455447 -0.14491503
-0.0852958 0.08916993 -0.1042291 0.051811818 0.15849979 0.024930269 -0.10201132 -0.045897607
-0.08687821 0.02015447 -0.15658091 -0.09134852 0.0076872916 -0.20687142 -0.093329154 0.0385905
-0.08342728 -0.13766222 0.04642161 0.14297059 0.11901797 -0.07339077 0.016482016 0.13018502
0.12375239 -0.045839973 0.10722284 -0.079410754 0.09090699 0.048495986 -0.1981009 -0.01571084
0.0115596345 -0.09439593 -0.13344607 -0.022802562 -0.15818709 -0.03885402 -0.08807916 -0.12857065

lstm.bias_ih_l0 f4 [128]
00000000: 825c 0b3e 78d3 13bd 7af7 043e 1afd acbd
00000010: 5489 f63d 45a7 173e 7af4 78bc 1f3d 603e
00000020: 62f2 1f3e eeea 023c df6e 173b df5e 753d
00000030: 37fe f0bd fb06 1b3c a647 03be b729 d33d
00000040: a122 623d d2d8 07be d551 c33b f87f d43d
00000050: fcaa bebd 6ce2 cc3d 08af 5cbd 15fc 763d
00000060: ffac e53c e387 c9bd fc0d e63c 0e39 cebd
00000070: ee77 1c3b f5a7 813d e073 9a3c 4eec 25ba
00000080: 5788 3e3e 7881 413e 218f 4ebd 8055 873d
00000090: 6551 e43d 6d8c 513d 53b9 0d3d 204e 89bb
000000a0: c50b b33d c4bc c0bd a0a7 9c3b 0cd4 dbbc
000000b0: 0ec2 fd3c ffb4 c93d 232f dfbd 75cb a6bd
000000c0: 085d 213d 5233 a73d 0fb2 eebd 1126 6b3d
000000d0: 855c dbbd acdf fbbd e86d 703e 6450 74bd
000000e0: 7856 bbbc ba80 4f3e cc2c 50bd 5008 9ebd
000000f0: 1acc 92bd 0916 4abd 1b92 9b3d f08f e53d
00000100: 9ed6 d93c 4a25 a5ba 48fd 033d ffef 12be
00000110: b398 ba3d 7610 22be dfbd d73d 1b1f 31be
00000120: 606f dabd d01b 0dbe 042b 783d ec79 073e
00000130: b76e 23be cc11 2c3d 2a00 c63b bb44 8c3d
00000140: e2e1 18be 777d 0abe ec9c df3c 8ba6 0d3d
00000150: 9c1e 4dbe ba2c 10be b6ca 31be 28a3 1f3c
00000160: 86cf 2bbe 3610 6bbd 3003 36bd 3ced e3bd
00000170: bcc5 09be 1ffe debd 4e51 a4bc 8be8 053e
00000180: 53fe 2a3d 45f3 443e e6a5 8b3d fd0c 1c3e
00000190: 7317 0d3e 96be 283d 3f8e 513e 9556 66bd
000001a0: 3518 6e3b 31ed 393d daef 9b3d a905 153c
000001b0: 61a4 913d a235 d8bd 1891 4f3e 5c03 d33d
000001c0: 2a84 eb3c 91f7 313e 739d 27bc 3b11 e7bd
000001d0: febe d9bd c2b9 413e f24c 88bc f3f0 ea3d
000001e0: 21eb 1e3c 19ca 1f3e 0959 98bc e4f6 133e
000001f0: 698c 653e dd86 883d 8e34 a4bd 133f 9f3d
0.13609508 -0.036090344 0.1298503 -0.08446713 0.12037912 0.14809902 -0.0151950065 0.21898316
0.15619805 0.007990582 0.0023106856 0.05990493 -0.11767238 0.0094621135 -0.128203 0.10310691
0.055208806 -0.13266304 0.005960683 0.103759706 -0.093099564 0.10004124 -0.05387786 0.060298998
0.028036593 -0.098403715 0.02808284 -0.10069476 0.0023875195 0.063308634 0.018854082 -0.00063294626
0.18606697 0.18897045 -0.050429467 0.06608105 0.11148337 0.05115931 0.034600567 -0.0041902214
0.08742479 -0.09411004 0.0047807246 -0.02683451 0.030976322 0.098489754 -0.108976625 -0.08144275
0.039395362 0.081640854 -0.11655056 0.05740935 -0.10711006 -0.122985214 0.23479426 -0.05964698
-0.02286838 0.20263949 -0.05082397 -0.07716429 -0.071678355 -0.04933742 0.07596227 0.112090945
0.026591595 -0.0012599614 0.03222397 -0.14349364 0.09111156 -0.15826592 0.10534262 -0.17297022
-0.10665774 -0.13780141 0.060587898 0.13230103 -0.15960203 0.04200916 0.0060425 0.06849047
-0.14929917 -0.13524424 0.027296506 0.034582656 -0.20031208 -0.14079562 -0.17362484 0.009743489
-0.16778383 -0.057388507 -0.044436634 -0.11129233 -0.13454336 -0.108883135 -0.0200583 0.1307699
0.04174645 0.19233425 0.06818752 0.1523933 0.13778476 0.041197382 0.20464419 -0.056234915
0.0036330346 0.04539222 0.076141074 0.009095588 0.07111431 -0.10557105 0.20270193 0.10303375
0.028749544 0.17379595 -0.01023041 -0.11282583 -0.10632132 0.18918517 -0.016638253 0.11471739
0.009699614 0.15604438 -0.018597143 0.1444965 0.22416843 0.06666348 -0.080178365 0.07775702

lstm.bias_hh_l0 f4 [128]
00000000: 85e2 2fbd 6d19 b0bd 3de3 7fbb 7874 6e3c
00000010: b95a 9a3d 0bf0 733c ed1e 403d 6e3c 953c
00000020: 670a 02be add7 3f3c c7b0 b43d 67f1 3c3e
00000030: 6715 33be 9649 2cbd f656 97bd 1e72 81bb
00000040: 4e8c 43bd b9ba 283e e684 abbd eb93 a4bd
00000050: 02e3 1c3a dd72 903d acad 703e 7973 b53d
00000060: a49f 513e 9b1b 9e3d f2ac d9bd bdb3 f83c
00000070: 609a 803d 9f83 1f3b 476d d43d 0e2f abbd
00000080: ca80 513e bbf4 89bd e4dc 5b3e a2e1 2f3e
00000090: fcd9 2e3e c6dc 10bc 65f2 0abe 0780 3e3e
000000a0: 444a b5bd ebf2 07be 7c3d 013d 4f8d abbd
000000b0: 2b9d 933b 01a2 353e 878d b23b 4984 f53b
000000c0: 5718 6abd 9df5 b33d 1e47 a73d 1e79 373e
000000d0: ee6a 32be 49b9 a43d 0de5 0dbd 9cce 1b3e
000000e0: 36a1 603c 0619 413e 02b8 7ebb 5d71 36be
000000f0: 2ba4 613c 41cf 553e c870 2bbd ee05 423d
00000100: 2439 bebd 0a95 ccbc 82cc 6e3d 6e03 95bd
00000110: 4977 28be 3e70 053e ef46 ecbd 18a7 86bd
00000120: e5fe 0f3e e7c4 603b 5788 ca3d 2cdb 3c3e
00000130: f08d 25bd f4f5 5fbd bce1 703c be85 ca3d
00000140: 29e6 54bd 18fa 213e 3412 623d 6f17 36be
00000150: bf26 ec3d f1f8 843c 0966 6a3c 16e6 2f3d
00000160: fec5 a73d 9d29 b6bd 0259 8fbb b755 21be
00000170: 6e96 66bd 94fe 54be e189 383e 67c7 21be
00000180: 0a02 223d cfbe 63bd 0637 f03d bd36 a03d
00000190: 1076 b13d 4623 263e 71df 3b3e ee94 583e
000001a0: 49c5 7dbc 9658 87bd c181 553e ea34 1e3e
000001b0: 5d4a e9bb cfb4 0dbd 5747 c2bd e055 253e
000001c0: 6920 b03d 9917 323e e710 813d 605c 483e
000001d0: 7538 1c3d 1c7a 623d 68d7 ef3d 2fa0 4e3e
000001e0: 40b6 2d3e fd93 4e3e b024 ab3d 6973 aa3d
000001f0: 79d5 d23d 0c89 383e eff2 fd3d e4c2 f93c
-0.042940635 -0.085985996 -0.0039045357 0.0145541355 0.07536835 0.014888774 0.046904493 0.018217292
-0.1269928 0.011709136 0.0882278 0.18451463 -0.17488633 -0.042062365 -0.07389633 -0.0039503714
-0.047741227 0.16477479 -0.08374958 -0.080360256 0.00059847545 0.070531584 0.2350375 0.08859915
0.20471054 0.07720109 -0.1062869 0.030359143 0.06279445 0.0024339927 0.103724055 -0.08358584
0.20459285 -0.06736132 0.21470982 0.17175916 0.17075342 -0.008841699 -0.13569029 0.18603526
-0.08852056 -0.1327626 0.031552777 -0.08376562 0.00450482 0.17737581 0.0054490003 0.0074925763
-0.05715212 0.087870814 0.081678614 0.17917296 -0.17423603 0.08043153 -0.034642268 0.15215534
0.013710311 0.18857202 -0.0038867001 -0.17816682 0.013772051 0.20879842 -0.041855603 0.047368936
-0.092882425 -0.024973411 0.058300503 -0.07276045 -0.16451754 0.13031098 -0.11536967 -0.06574839
0.14062078 0.003429705 0.09889286 0.18442982 -0.040418565 -0.05467792 0.014702257 0.098887905
-0.05197731 0.1581806 0.05519314 -0.17782377 0.11530828 0.016231986 0.014306554 0.042944036
0.08192061 -0.08894656 -0.004374624 -0.15755354 -0.056295805 -0.20800239 0.18021347 -0.15798722
0.039552726 -0.05560189 0.11729245 0.078229405 0.08665097 0.16224393 0.18346955 0.21150562
-0.015488931 -0.06608693 0.20850278 0.15449873 -0.0071194605 -0.03459626 -0.09486263 0.1614604
0.08599932 0.17391814 0.06302052 0.19566488 0.03813978 0.055292234 0.11711007 0.20178293
0.16964054 0.2017364 0.08356607 0.08322794 0.10294623 0.18021029 0.123998515 0.030488439

dense1.weight f4 [32, 32]
00000000: 26c1 d1bc 4922 4c3d 47e9 00be a6fd 19be
00000010: ff7c 97bd 8b54 a73d a69c 543e e607 5a3d
00000020: 15ed 013d e9b5 14be d37a ac3d fa44 643e
00000030: b034 803d 48d0 42be 5813 7cbd 7245 6a3e
00000040: f280 50bd 1cb2 cbbd 1ecf d13d 8053 c3b9
00000050: 6cb2 f7bd 9fec 2c3d 8fc5 52be 999b ba3d
00000060: 56fb e3bd cd1f 513d 362d 993d cde2 f73d
00000070: 8ba0 e4bd 7693 6dbe 0398 4abd a74c c23c
00000080: 1345 3c3e e829 953c 7a31 cbbd 7d07 593d
00000090: 5562 e83d f1a7 803c 9708 e8bc 947e 9fbd
000000a0: 6bf7 703d 0adb f1bd f46b b9bd b2d3 e73a
000000b0: b185 d03c a3a3 d7bd ac9e 59bd c56e 913d
000000c0: a737 513e db70 5dbd 0d83 1b3d 0a44 2e3d
000000d0: 8478 d5bd c291 553d ef5f b8bd 3d71 2fbd
000000e0: 41d9 cbbd 69d0 04be 06ec 72bd 45f8 473c
000000f0: 0378 dbbd 72e7 c9bc c600 4fbe 0ad5 2ebe
00000100: 7020 53be 0088 62bd 8b15 a3bd bd6c c13d
00000110: f4e2 17bd b8c2 4dbe 6e41 493e 8da2 1bbe
00000120: b944 e4bd 6ca1 3c3c 6558 9bbc 0d7d 6c3d
00000130: 50da 53bd 904e 40bd 75f6 d9bd 48a0 213d
00000140: 033a 40bc 672f 143e 85fe 283d 2c3f 883d
00000150: 38f6 11bd 4a4b 663d c4a9 e6bd dc5b ae3d
00000160: 33c8 42bd a18b 9abd 54f6 873e 825d fa3d
00000170: 433c 583d 8b87 37be 92bf 4b3e d29c 473e
00000180: 6db7 94bd 8aff 3e3d 5532 c43d 4000 5dbe
00000190: 1d8d c63d bbea e0bd 2bfa 74bc 8307 6abd
000001a0: 1b1a 1abc 930f 47bd ba17 373e 19c2 8dbd
000001b0: 98e2 ae37 f5ee 9bbd 60da 81bd 906d 8ebd
000001c0: 446c 04be dbd3 873b 2203 953d 822a 11be
000001d0: f254 d83d 88b0 023b 3167 25be 4760 493d
000001e0: 7a3f 5ebe a2a5 113e f019 e8bb 3033 b13d
000001f0: 163b f23c f7f6 01be 1b6c b33d fe45 4a3d
00000200: 7465 57be 57b4 71bd dae9 1abe d649 c03d
00000210: c459 4cbe 83a5 813c e449 ddbb 6cf6 8dbb
00000220: df68 7b3d ab73 693d ac43 adbd 4431 ae3d
00000230: d829 3f3d 93a4 3ebd a0bd 923d 91c5 723e
00000240: 609f 4fbe 9916 d03d bc48 ca3d 3b1c a63d
00000250: e8d1 d73c d3ab 03be 8102 abbd 93a7 6dbd
00000260: 5ea2 59bd 7996 a63d 4a40 773e 4451 d63d
00000270: c626 48be cdf2 dc3d 45a2 b6bd 183e ff3d
00000280: aaf2 7e3c 5b74 1e3e 45f5 b73d ac66 ebbd
00000290: 790d 853d 7ac7 6bbd 0908 853d a4d2 0cbe
000002a0: 606b 6abe 9415 02be 4910 973d c43c d03d
000002b0: bd6c 9fbc c96e b1bd 843d 6e3d f58e a1bc
000002c0: f11a b6bd ff37 99bd f874 ae3d 8db1 9c3d
000002d0: 70c5 1abe d0f8 f63c 5665 0fbe ae05 05bc
000002e0: 374b 383c 6f05 f5bd 2b0e 253e e358 9f3d
000002f0: 628a 9fbc b84d aabd 9927 2cbb b158 ffbc
00000300: 9274 523e c059 3d3d bad5 fc3d 31a1 84bd
00000310: f6dc 1a3e 5481 70bd e4af b53d 37d2 3e3e
00000320: 10cd e3bd 17f5 e4bd 4b33 54be f724 05be
00000330: 2190 b23c 8f0e dcbd a3dd df3d 93ed 29be
00000340: caee b6bb 36a5 f7bb 6629 1cbe a4ca 353d
00000350: 0501 f6bd 3b82 dbbd d664 743d e6d1 d4bd
00000360: 5efe 2e3e d5ab 0cbe 3fef b73d 566e 2f3e
00000370: 38fc 62ba d86c a63c 934d 2e3b fd63 0fbe
00000380: b4a3 0abc 6688 a93c 9f40 dfbd 17f6 41be
00000390: a37e a73d 1254 52be c04f 1c3d c650 a63c
000003a0: ddf2 33be b48b 21bd 896e 673e c15e e03d
000003b0: c4f0 1e3e a31b 42be 7612 253e 5e74 7a3d
000003c0: d7ce ffbc 33b2 22bc 88ff 6f3c 390d 5e3d
000003d0: 2241 943d 345f 42be 5833 b83d 85e1 7a3e
000003e0: ec9c 05be 288e b83d aaed 433e a427 50be
000003f0: f1b6 ee3b cfce d73d 3093 af3b 1ec0 b8bd
-0.025604796 0.049837384 -0.12588988 -0.15038165 -0.07396888 0.08170422 0.20762882 0.05323019
0.03172024 -0.14522518 0.08421864 0.22291937 0.06260049 -0.19024765 -0.061541885 0.22878054
-0.05090422 -0.09946081 0.102445826 -0.0003725551 -0.12094578 0.042217847 -0.20583175 0.09111709
-0.11131923 0.05105572 0.074793264 0.12103806 -0.11163434 -0.23200783 -0.049461376 0.023718191
0.18385725 0.018208459 -0.09921546 0.052985657 0.1134688 0.01570508 -0.028324408 -0.07787815
0.058829706 -0.118093565 -0.090537935 0.0017686991 0.025454374 -0.10529258 -0.053129837 0.07101206
0.20431386 -0.054062705 0.037966777 0.042545356 -0.10423377 0.05214096 -0.09002673 -0.0428326
-0.09953547 -0.12970127 -0.05930712 0.012205188 -0.1071625 -0.024646495 -0.20215139 -0.17073455
-0.20617843 -0.05530548 -0.07963093 0.09444568 -0.037081674 -0.2009381 0.19653866 -0.15198727
-0.1114592 0.011513095 -0.018963048 0.057736445 -0.05172187 -0.046949923 -0.10642711 0.039459497
-0.011732581 0.14471208 0.041258354 0.06652674 -0.035635203 0.056224145 -0.11262849 0.085136145
-0.047554206 -0.07546163 0.2655512 0.122248664 0.052791845 -0.179228 0.19897297 0.19493416
-0.07261548 0.04663042 0.095799126 -0.21582127 0.09694884 -0.10982271 -0.014952223 -0.05713607
-0.009405638 -0.048598837 0.17880145 -0.06921787 2.0847932e-05 -0.07613937 -0.0634048 -0.06954491
-0.12931925 0.004145128 0.07275988 -0.14176372 0.10563077 0.0019941647 -0.16152646 0.049164083
-0.21703902 0.1422334 -0.00708317 0.08652341 0.02956919 -0.12691866 0.08760854 0.049383156
-0.21034795 -0.059009876 -0.1512827 0.09389083 -0.19956118 0.015825992 -0.006753193 -0.0043323543
0.06137931 0.056995075 -0.08460173 0.085054904 0.046670765 -0.04654367 0.07165074 0.23708178
-0.2027564 0.1016056 0.09877154 0.08110853 0.026345208 -0.12858514 -0.08350087 -0.05802114
-0.05313336 0.08134169 0.24145618 0.10464719 -0.19546041 0.10788498 -0.08917669 0.12463015
0.015560785 0.15474074 0.08982328 -0.114941925 0.0649671 -0.057563283 0.06495673 -0.13752228
-0.22892523 -0.12703544 0.07376153 0.1016784 -0.01946103 -0.08663709 0.058164135 -0.019721488
-0.088918574 -0.074813835 0.08518404 0.076510526 -0.15114379 0.03014794 -0.140035 -0.00811903
0.011248401 -0.11963927 0.16118686 0.07780626 -0.019475166 -0.08315605 -0.002626872 -0.031170221
0.2055228 0.04622817 0.123454526 -0.06476057 0.15123352 -0.058717087 0.08871439 0.18634878
-0.11123097 -0.1117956 -0.20722692 -0.13002382 0.021797242 -0.10744964 0.10930946 -0.16594534
-0.005582665 -0.0075575365 -0.15250167 0.044382706 -0.12011913 -0.10718199 0.059666477 -0.103915974
0.17089221 -0.13737424 0.089811794 0.17131934 -0.00086587993 0.020315573 0.002659653 -0.14002986
-0.008461881 0.020694923 -0.10900997 -0.18941532 0.08178451 -0.20539883 0.038161993 0.020302188
-0.17573114 -0.039439872 0.2260076 0.10955573 0.15521532 -0.18955855 0.16120324 0.061146133
-0.031226559 -0.009930181 0.014648326 0.05421183 0.072389856 -0.1898163 0.08994168 0.24500091
-0.13048142 0.09011489 0.1913363 -0.20327622 0.007284992 0.105374925 0.0053581223 -0.090210184

dense1.bias f4 [32]
00000000: 6976 e2bd 46fd eabd a056 263e a33c c23c
00000010: 1b8d 883d fab2 5a3e e39d 953d a1bd 613e
00000020: 8f2a 6e3e e552 a93d 0404 82bc 50bf 053e
00000030: 89f2 8cbc 0e51 a13c 1032 b93c 010d ae3c
00000040: 3b12 8d3c 9204 45bd 228c 113e 3ffc a53d
00000050: 2a3f 753d e663 413e e03d 3b3e d7ce 9c3d
00000060: 6fec b3bd 3027 2bbe 25e9 1fbd 457f 52be
00000070: 59ea 513e 430b d3bc 419c 39be 4ac5 0d3d
-0.11057741 -0.11474089 0.16243982 0.023710554 0.06667539 0.21357337 0.07305505 0.22044994
0.23258422 0.08267764 -0.015871055 0.13061261 -0.017205494 0.01969197 0.02260688 0.021246435
0.017220607 -0.04810006 0.14213613 0.08104753 0.05987469 0.18885764 0.18285322 0.07656639
-0.087853305 -0.16714168 -0.039040703 -0.20556362 0.20499553 -0.025762206 -0.18126012 0.034611978
