ecg/CL_trial_5_best_model.pth (torch, 142416 bytes, 15 tensors)

conv1.weight f4 [64, 1, 50]
0	0x3e01a637	0.12661062
1	0x3e079c74	0.13243276
2	0xbcb2236b	-0.021745404
3	0x3e0d0a90	0.1377356
4	0xbcdabfcc	-0.026702784
5	0x3cefa81e	0.02925497
6	0xbd914ebe	-0.07095097
7	0x3da13984	0.07872298
8	0x3de2de3b	0.11077543
9	0xbdf38402	-0.11890413
10	0x3ddf437d	0.10901544
11	0x3c45a895	0.012064119
12	0x3dbd72d7	0.092504196
13	0x3c2f3eb3	0.010696101
14	0x3d7d4bbf	0.061839815
15	0xbcc306c6	-0.02380694
16	0x3dde58e5	0.10856799
17	0x3cb1e9bc	0.021717899
18	0xbd804d1b	-0.06264707
19	0x3d2eb489	0.04265264
20	0xbd6c497a	-0.05768726
21	0xbc14a219	-0.00907185
22	0xbd46470a	-0.048407592
23	0x3dd2a250	0.10284865
24	0xbdd65f3e	-0.10467385
25	0xbd71759e	-0.05895006
26	0xbd0d2680	-0.034460545
27	0xbda5f9bf	-0.08104276
28	0x3c855868	0.016277507
29	0xbe0c3361	-0.13691474
30	0x3e065404	0.13117987
31	0xbdf30223	-0.11865642
32	0x3de37784	0.1110678
33	0x3ccb0691	0.024783405
34	0xbd3ca9c5	-0.046060342
35	0x3db39e31	0.08770407
36	0x3caf56fb	0.02140378
37	0x3de94c3d	0.113914944
38	0x3cad5f09	0.02116348
39	0xbd24d722	-0.04024423
40	0x3d3447fa	0.044013955
41	0xbd025038	-0.031814784
42	0x3d8d0da6	0.06887369
43	0x3e0d0a60	0.13773489
44	0x3dc0131d	0.093786456
45	0xbd47abeb	-0.048747938
46	0x3dc47efe	0.09594534
47	0x3d069771	0.03285927
48	0x3d9fdfd3	0.07806363
49	0xbda86191	-0.08221734
50	0xbe13a353	-0.14417772
51	0xbd6e5cef	-0.058194097
52	0xbde1da06	-0.11027913
53	0x3defbf24	0.11706379
54	0x3d2f8773	0.042853784
55	0x3d767019	0.0601655
56	0x3d3eceba	0.04658387
57	0x395189a2	0.00019983065
58	0x3de5f64c	0.11228618
59	0xbdcdf8bd	-0.10057209
60	0x3c12c61b	0.008958365
61	0xbdc552d8	-0.09634942
62	0x3d37258f	0.044713553
63	0xbd1ff3fa	-0.039051034
64	0x3d5ccab0	0.053904235
65	0xbc9462b1	-0.018113466
66	0x3e046046	0.1292735
67	0xbd95281f	-0.07283043
68	0xbd9880b6	-0.07446425
69	0xbd989743	-0.07450726
70	0x3e0cdb59	0.1375555
71	0x3d6d1c6e	0.05788844
72	0x3e14c316	0.14527544
73	0xbde72cf1	-0.11287869
74	0xbe0dff33	-0.13866882
75	0xbddcb27e	-0.10776232
76	0xbdb88140	-0.090090275
77	0x3d84948b	0.06473645
78	0x3d751522	0.059834607
79	0x3e02ef2c	0.1278655
80	0xbd82d0b4	-0.06387463
81	0xbdb41739	-0.08793492
82	0x3dad5b81	0.084647186
83	0xbd42e6ee	-0.047583513
84	0x3dc41bc3	0.09575608
85	0xbcbcac90	-0.023031503
86	0x3db8f89d	0.09031794
87	0xbdd18855	-0.102310814
88	0xbd821d24	-0.063532144
89	0x3d58da05	0.052942295
90	0x3d27c55f	0.040959712
91	0xbcd08890	-0.025455743
92	0x3dc19ae4	0.09453371
93	0x3dd7dd10	0.10540211
94	0xbdc5c8f4	-0.096574694
95	0xbd8e2d5a	-0.06942244
96	0x3e0c646d	0.13710184
97	0xbd283d4a	-0.041074075
98	0xbd3be9f7	-0.045877423
99	0xbe0951a9	-0.13410057
100	0xbdb4a035	-0.088196196
101	0x3cfa6e97	0.030570311
102	0xbc84aeb7	-0.016196592
103	0xbdcc4153	-0.09973397
104	0x3bf48859	0.007462543
105	0xbdbe5639	-0.092937894
106	0xbdef44b0	-0.11683023
107	0xbd9933e2	-0.07480599
108	0xbdf7ae94	-0.12093845
109	0xbdb28ddd	-0.087184645
110	0x3e144f37	0.14483343
111	0x3cf763e5	0.030199
112	0x3d3f6f52	0.046737023
113	0xbe04d7b7	-0.12972914
114	0xbdc93bab	-0.09825834
115	0xbd552b62	-0.052043326
116	0x3cb2809a	0.021789838
117	0xbe001b79	-0.1251048
118	0xbd8be80c	-0.06831369
119	0xbdbbd185	-0.09170822
120	0xbbc7b71c	-0.0060948264
121	0xbd735829	-0.059410248
122	0xbc8c3f2b	-0.017119965
123	0xbdd39de7	-0.10332852
124	0xbdd60b86	-0.10451417
125	0xbdb78f77	-0.089629106
126	0xbd61140c	-0.05495076
127	0xbdefeb62	-0.117148176
128	0x3dfa020e	0.12207423
129	0xbcc40ac4	-0.023930915
130	0x3e00fb06	0.12595758
131	0x3d45c917	0.048287477
132	0xbdee7d8d	-0.11645041
133	0x3dd04a76	0.10170452
134	0xbd2fcae5	-0.042918105
135	0xbd78085d	-0.06055485
136	0xbdfdf300	-0.12399864
137	0xbe167848	-0.14694321
138	0x3d09af89	0.03361467
139	0xbd1be556	-0.03806051
140	0x3d41aebc	0.04728578
141	0xbdfd4078	-0.12365812
142	0x3dccf31e	0.100073084
143	0xbddf02bd	-0.10889194
144	0xbcfa5505	-0.030558119
145	0x3cd116f5	0.025523642
146	0x3d8e13f9	0.06937403
147	0x3de09f7f	0.109679215
148	0x3dfc90d3	0.123323105
149	0xbdf2b3c3	-0.11850693
150	0x3d4603a8	0.04834333
151	0xbd50ad27	-0.05094638
152	0xbc0b30f0	-0.008495554
153	0xbdc9eec6	-0.098599955
154	0x3e0dd7ff	0.13851927
155	0xbdc2ee70	-0.095181346
156	0x3dab2805	0.083572425
157	0x3d732acd	0.05936699
158	0x3d6077c1	0.054801706
159	0xbd88235c	-0.06647369
160	0x3e13e2c0	0.14441967
161	0x3d33b4f2	0.043873735
162	0x3cad548c	0.02115848
163	0xbdfa831d	-0.12232039
164	0x3d84bb07	0.06480985
165	0xbc4b8d7d	-0.01242387
166	0xbd3d3ce2	-0.04620064
167	0x3e140cc5	0.14457996
168	0x3d5c7cb6	0.05382987
169	0xbd77a757	-0.060462322
170	0xbd621cf0	-0.05520338
171	0x3c2c4fb0	0.010517046
172	0x3dc2b977	0.09508031
173	0xbcc80328	-0.024415568
174	0xbda305c2	-0.079600826
175	0xbd436dc0	-0.047712088
176	0xbdd6c6cd	-0.10487137
177	0x3d847618	0.06467837
178	0x3e0459e9	0.12924923
179	0xbdefa38c	-0.11701116
180	0x3d57e2be	0.052706473
181	0x3dc432ec	0.09580025
182	0x3d318a06	0.04334452
183	0xbd115ceb	-0.035489004
184	0x3db5a05d	0.088684775
185	0x3db4bdd0	0.08825266
186	0x3d870e15	0.06594483
187	0xbc7a5a8b	-0.015280376
188	0xbcec5111	-0.02884725
189	0x3cd2882c	0.025699697
190	0xbc64227e	-0.013924239
191	0xbce32146	-0.027725827
192	0x3de66c69	0.11251146
193	0x3e14cd70	0.14531493
194	0x3b981106	0.004640701
195	0xbc717c31	-0.014739082
196	0x3ca8e15d	0.020615274
197	0x3c6ba43a	0.014382416
198	0x3d786611	0.060644213
199	0x3d86f337	0.06589358
200	0xbe0e05e9	-0.13869442
201	0xbd783ea1	-0.060606603
202	0x3de6fda4	0.11278847
203	0x3d4876e7	0.04894152
204	0xbc6f8ddc	-0.014621224
205	0xbdbfa82c	-0.09358248
206	0xbdc390b2	-0.09549083
207	0xbe0ae178	-0.13562572
208	0xbd5e6b54	-0.054301575
209	0x3d2346cb	0.039862435
210	0x3da99e04	0.08282092
211	0x3d684051	0.056701962
212	0xbe0b833d	-0.13624282
213	0xbdc6713e	-0.09689568
214	0xbd0a6dd5	-0.03379615
215	0x3e008dfc	0.12554163
216	0x3c1d62c2	0.009606065
217	0xbd3f7c39	-0.046749327
218	0x3d49cd44	0.049268022
219	0xbd843fd5	-0.064574875
220	0xbdd3b9a8	-0.103381455
221	0x3dbae497	0.09125631
222	0xbd9cb94a	-0.076525286
223	0xbd24d734	-0.040244296
224	0xbe1c46d4	-0.15261394
225	0x3daaba89	0.0833636
226	0x3dd49391	0.103797086
227	0x3d473576	0.04863497
228	0xbdd0afd9	-0.1018979
229	0xbe122f64	-0.1427589
230	0xbdf04989	-0.11732776
231	0x3dd32165	0.10309104
232	0x3d87365a	0.066021636
233	0x3df1bcd3	0.118035935
234	0x3d939f0b	0.072080694
235	0x3cc63a81	0.024197819
236	0xbc688884	-0.014192704
237	0xbdf9fee5	-0.122068204
238	0xbe0ba578	-0.1363734
239	0xbe1725c8	-0.14760506
240	0x3d2fbea7	0.04290643
241	0xbdaeba3b	-0.085316144
242	0xbd390e55	-0.045179684
243	0xbdc7a34a	-0.09747942
244	0xbd29a781	-0.04141951
245	0xbdebd14c	-0.115145296
246	0xbddb82eb	-0.1071833
247	0x3d05bd76	0.032651387
248	0xbd64dfee	-0.05587762
249	0x3d9a08b3	0.075211905
250	0xbce2dde7	-0.027693702
251	0xbdb07d22	-0.08617617
252	0xbbdfb0f4	-0.0068265144
253	0xbd50fe16	-0.051023565
254	0xbcda41de	-0.026642736
255	0xbdf2d5b5	-0.11857168

conv1.bias f4 [64]
0	0xbd585f00	-0.052824974
1	0x3dc33c83	0.09533026
2	0x3e015b71	0.12632538
3	0x3e33eb7e	0.17570302
4	0xbdbd3db9	-0.09240288
5	0x3e2735cd	0.16329117
6	0x3e126357	0.14295708
7	0x3e44b46e	0.19209453
8	0x3dfe6f13	0.124235295
9	0xbc4e4058	-0.012588583
10	0x3e162e4b	0.14666097
11	0x3e37346b	0.1789109
12	0xbd18a69c	-0.037268266
13	0x3d221110	0.039567053
14	0x3e16d182	0.14728358
15	0x3e1ceb80	0.15324211
16	0x3e088277	0.13331018
17	0x3e2d24d7	0.16908585
18	0xbd05c239	-0.03265593
19	0x3c877b26	0.016538214
20	0xbcccd97d	-0.02500605
21	0x3dfbd2f3	0.12296095
22	0x3d8b0c48	0.06789452
23	0xbd6279ce	-0.055291943
24	0x3c8e5a25	0.017376969
25	0xbd9065a3	-0.07050636
26	0xbe09b4a7	-0.1344782
27	0x3e3abf1e	0.18236968
28	0xbcf90f03	-0.030402666
29	0x3de53b8a	0.11192997
30	0x3c95035b	0.018190077
31	0x3bd4c1d7	0.006492834
32	0x3d18e1ae	0.0373246
33	0x3e1d5d49	0.15367617
34	0x3d21a8b7	0.03946754
35	0x3e2b2b0a	0.16715637
36	0x3dfd8f6d	0.12380872
37	0x3e14d66b	0.14534919
38	0xbdbcdd44	-0.092218906
39	0xbd0f56af	-0.034994777
40	0xbd9b2c06	-0.07576756
41	0x3c6d7476	0.0144930985
42	0x3cf49d35	0.029860118
43	0x3d70e487	0.05881169
44	0x3e33eaad	0.1756999
45	0x3de75446	0.11295371
46	0xbd718fcc	-0.058975026
47	0xbd881c32	-0.06646003
48	0x3e223a37	0.1584252
49	0x3d8fc7a1	0.07020498
50	0x3dc4dfd4	0.09613004
51	0xbcbfc643	-0.023409968
52	0x3d0aebb8	0.033916205
53	0x3d9a91fb	0.07547375
54	0xbd4c0898	-0.049812883
55	0x3e06ad70	0.13152099
56	0x3e0103af	0.12599061
57	0xbd2d85ee	-0.042364053
58	0xbc7c0dd5	-0.015384157
59	0x3c4eefa1	0.012630374
60	0x3d889ef5	0.06670944
61	0x3ba2aea6	0.0049646674
62	0x3e3d1180	0.18463707
63	0xbdb36c47	-0.08760887

conv2.weight f4 [32, 64, 10]
0	0x3cf087a1	0.029361548
1	0x3cdb368a	0.026759405
2	0x3d6cab6d	0.057780672
3	0x3d61aee9	0.055098448
4	0x3d12550a	0.03572563
5	0x3da72027	0.081604294
6	0x3c22331a	0.009899879
7	0x3d85094a	0.064959124
8	0x3cecc183	0.028900867
9	0x3d1a71c1	0.03770614
10	0x3c659a3e	0.014013825
11	0x3ca82660	0.020526111
12	0x3c92e154	0.01792971
13	0x3d8e9484	0.06961921
14	0x3d19612b	0.037446182
15	0x3d9388d4	0.07203832
16	0x3cf1da52	0.029523049
17	0x3d29ef2c	0.041487858
18	0x3d6503ec	0.055911943
19	0x3dae825c	0.08520958
20	0x3d1d0e4a	0.038343705
21	0x3d92790d	0.07151995
22	0x3d7a2fc9	0.061080728
23	0x3d935323	0.071935914
24	0x3d986f0a	0.07443054
25	0x3d84e98c	0.06489858
26	0x3d1d190c	0.038353965
27	0x3d176e45	0.036970396
28	0x3d81f7b6	0.06346075
29	0x3d909f0c	0.07061586
30	0x3d5de2c5	0.054171342
31	0x3d9f0be9	0.077659436
32	0x3d09dbdf	0.03365695
33	0x3da4e3d6	0.08051269
34	0x3d605b08	0.054774314
35	0x3d025cbf	0.03182673
36	0x3d1f851d	0.038945306
37	0x3ce4765f	0.027888475
38	0x3d893652	0.06699814
39	0x3d10044a	0.03516034
40	0x3cf05166	0.029335689
41	0x3d1ef27a	0.038805462
42	0x3c86bf30	0.016448587
43	0x3d34d979	0.04415271
44	0x3d1bcf01	0.03803921
45	0x3d63e92c	0.055642292
46	0x3d9124db	0.07087108
47	0x3ca42718	0.020038173
48	0x3d852516	0.06501214
49	0x3d2976c6	0.041373037
50	0x3cec1228	0.028817251
51	0x3d042cf8	0.032269448
52	0x3d76efd8	0.060287327
53	0x3d73f96c	0.05956404
54	0x3d49ba11	0.049249712
55	0x3d005b9f	0.031337377
56	0x3d916807	0.0709992
57	0x3d6711c7	0.05641344
58	0x3c48b0a5	0.012249147
59	0x3d311479	0.043232415
60	0x3d1fab1b	0.03898154
61	0x3d04fdda	0.032468654
62	0x3cea935c	0.02863472
63	0x3c982d9e	0.01857644
64	0x3db6633e	0.08905648
65	0x3c6fe6b1	0.014642403
66	0x3db12d65	0.086512364
67	0x3ca46ecd	0.020072365
68	0x3d21b939	0.039483283
69	0x3d0e722d	0.034776855
70	0x3d14ccdf	0.036328193
71	0x3d9044ec	0.07044396
72	0x3da3f030	0.080047965
73	0x3cfea908	0.03108646
74	0x3d1fd695	0.039023
75	0x3d9ca851	0.07649291
76	0x3d56119e	0.052262895
77	0x3d863dda	0.06554766
78	0x3d9e6a5e	0.07735132
79	0x3d2e4dee	0.04255479
80	0x3ce4b75c	0.027919464
81	0x3d859bf8	0.06523889
82	0x3d10b90d	0.03533273
83	0x3cbb4ce0	0.022863805
84	0x3cf7ba5d	0.030240232
85	0x3d08425e	0.033266418
86	0x3db9dabb	0.09074923
87	0x3d6dc21c	0.058046445
88	0x3d8d041c	0.068855494
89	0x3d67be6f	0.056578096
90	0x3c99f49f	0.018793402
91	0x3d9cd010	0.07656872
92	0x3d2c2763	0.04202975
93	0x3d178436	0.03699132
94	0x3da9d646	0.082928225
95	0x3cf45dd5	0.029829899
96	0x3d6951c2	0.056962736
97	0x3c4dde25	0.01256517
98	0x3d8f81c4	0.07007173
99	0x3d87c009	0.06628425
100	0x3caeaf15	0.02132372
101	0x3d9b96a6	0.07597093
102	0x3d671e63	0.056425463
103	0x3d11adf3	0.03556628
104	0x3db618ab	0.08891424
105	0x3d949d4a	0.07256563
106	0x3d8cd8f4	0.06877318
107	0x3d24c269	0.040224466
108	0x3d0b271c	0.033972844
109	0x3d0928e5	0.033486266
110	0x3d873550	0.066019654
111	0x3d7e58a6	0.06209626
112	0x3cd95a5f	0.02653235
113	0x3db40331	0.08789671
114	0x3d994fb4	0.07485905
115	0x3d158626	0.036504887
116	0x3d91a16d	0.07110868
117	0x3d0941c6	0.033509992
118	0x3d84399a	0.06456299
119	0x3da93afe	0.08263205
120	0x3bf23990	0.007392116
121	0x3cb49c3f	0.02204716
122	0x3d1f3a73	0.0388741
123	0x3d4677c3	0.048454057
124	0x3c28d0b6	0.010303667
125	0x3c59e85b	0.013300027
126	0x3d206c12	0.039165564
127	0x3d0f1c28	0.03493896
128	0x3d53f5b1	0.05174798
129	0x3d4637de	0.048393123
130	0x3d8178b4	0.063218504
131	0x3d64a2b4	0.05581923
132	0x3d62def3	0.055388402
133	0x3d55576c	0.052085325
134	0x3d859346	0.06522231
135	0x3d9e3b85	0.07726196
136	0x3d0bbed9	0.034117553
137	0x3d027f8b	0.031859916
138	0x3d8f5f0e	0.07000552
139	0x3cda1502	0.026621345
140	0x3da1d81b	0.07902547
141	0x3d92931b	0.071569644
142	0x3d755a1a	0.05990038
143	0x3d1cbfa1	0.03826869
144	0x3d62a6b3	0.055334758
145	0x3cc486f4	0.023990132
146	0x3ca6e703	0.020373827
147	0x3dbe076c	0.09278759
148	0x3ca4dcbd	0.020124787
149	0x3cbb9db4	0.022902347
150	0x3d17b55d	0.037038196
151	0x3d60c113	0.05487163
152	0x3d80518c	0.06265554
153	0x3d094355	0.03351148
154	0x3d48de8d	0.049040366
155	0x3d346714	0.044043615
156	0x3db07bb8	0.086173475
157	0x3db53451	0.08847869
158	0x3d8f0f6f	0.069853656
159	0x3d591efa	0.053008057
160	0x3da75274	0.081700236
161	0x3ca6a01d	0.02034002
162	0x3d8d8ab2	0.0691122
163	0x3ce94b9e	0.02847844
164	0x3dad3aea	0.084585026
165	0x3c88a06d	0.01667806
166	0x3d889805	0.066696204
167	0x3cab27d1	0.02089301
168	0x3d9d5bda	0.07683535
169	0x3d750946	0.059823297
170	0x3db67c94	0.0891048
171	0x3cb66881	0.022266628
172	0x3da41db1	0.08013476
173	0x3cec052b	0.028811058
174	0x3d0bee8f	0.034163054
175	0x3d914c75	0.07094661
176	0x3d3d8eb7	0.04627868
177	0x3cdadd2c	0.026716791
178	0x3cb3a8f0	0.021931142
179	0x3d3c9409	0.046039615
180	0x3d69353d	0.056935538
181	0x3da49d12	0.08037771
182	0x3d9b4e56	0.07583301
183	0x3d42cd2b	0.047558945
184	0x3cb9a4b2	0.02266154
185	0x3c05d6fa	0.00816893
186	0x3da74f67	0.08169442
187	0x3cd0401d	0.025421197
188	0x3d1f9e6c	0.038969442
189	0x3c518bae	0.01278965
190	0x3c99cc91	0.018774303
191	0x3d6acc66	0.057323836
192	0x3d1911b6	0.037370406
193	0x3d5c197c	0.05373524
194	0x3d46d657	0.048544254
195	0x3d2c711f	0.04210007
196	0x3d1bd288	0.038042575
197	0x3d39c659	0.045355175
198	0x3d82dda8	0.06389934
199	0x3d9fda8d	0.07805357
200	0x3d9dc6d1	0.07703937
201	0x3c376aed	0.011194927
202	0x3c3c7391	0.011502163
203	0x3d1d0f65	0.03834476
204	0x3d2ce068	0.042206198
205	0x3d881d60	0.06646228
206	0x3da6d817	0.081466846
207	0x3d632fbc	0.055465445
208	0x3cb0f530	0.02160129
209	0x3d2b5093	0.04182489
210	0x3da8e414	0.082466274
211	0x3d90962a	0.070598915
212	0x3cdd2ad9	0.02699797
213	0x3d709832	0.058738895
214	0x3ca4f75c	0.020137481
215	0x3d26fead	0.04077022
216	0x3dacbc77	0.08434384
217	0x3d1e54e4	0.038655177
218	0x3da47d0d	0.08031664
219	0x3ccb62d7	0.024827404
220	0x3db724fc	0.08942601
221	0x3d93b15d	0.07211564
222	0x3da487d4	0.0803372
223	0x3d848477	0.06470578
224	0x3d5cc2d9	0.05389676
225	0x3d0476f4	0.032340005
226	0x3d041013	0.032241892
227	0x3cd76972	0.026295397
228	0x3db165e5	0.08662013
229	0x3d206520	0.03915894
230	0x3d5a993d	0.053368796
231	0x3bcfdef5	0.006343717
232	0x3d6e2fdf	0.058151122
233	0x3d0081ec	0.031373903
234	0x3c5b9257	0.013401589
235	0x3d519ae1	0.051173095
236	0x3c27b01e	0.010234861
237	0x3d20dfe2	0.03927601
238	0x3c649873	0.013952362
239	0x3d8def57	0.06930416
240	0x3c869fcc	0.016433619
241	0x3d5f9006	0.05458071
242	0x3d7ca442	0.061680086
243	0x3c591c98	0.013251446
244	0x3d910f13	0.07082953
245	0x3d9e92a9	0.07742817
246	0x3c8ec6c0	0.017428756
247	0x3d38a527	0.045079377
248	0x3d6718dc	0.056420192
249	0x3d9b6101	0.075868614
250	0x3d8ae0f9	0.067811914
251	0x3bc21f3e	0.0059241345
252	0x3bd0425a	0.006355566
253	0xba83ff6f	-0.0010070632
254	0x3cd2549a	0.025675107
255	0x3d1677ce	0.03673535

conv2.bias f4 [32]
0	0x3dc2d437	0.09513133
1	0x3d9be0fd	0.076112725
2	0x3db4c951	0.088274606
3	0x3d2cd0f7	0.042191472
4	0x3c9ed81b	0.019390156
5	0xbba84373	-0.0051349937
6	0x3b53fc96	0.0032346598
7	0xbb854eae	-0.0040682172
8	0xbc6182a3	-0.013764056
9	0x3d863ae0	0.06554198
10	0xbd3098a2	-0.043114312
11	0xbcf72a2a	-0.030171473
12	0x3d06909d	0.032852758
13	0xbcb2c6ff	-0.021823404
14	0xbd34fedc	-0.044188365
15	0x3d997285	0.07492546
16	0x3d5d708a	0.054062404
17	0xbd16f98f	-0.03685909
18	0x3cd73104	0.02626849
19	0x3d75e79c	0.060035333
20	0x3d1735f1	0.036916677
21	0xbc1b5e65	-0.009482955
22	0xbd6d7f79	-0.057982896
23	0xbcde13c1	-0.027109029
24	0x3c0b1879	0.008489721
25	0xbca72db6	-0.020407539
26	0xbcd77adc	-0.026303701
27	0x3d3c308f	0.045944747
28	0x3cf0b84f	0.02938476
29	0x3d31f59b	0.04344712
30	0x3d207fd0	0.03918439
31	0xbd4c54d4	-0.049885586

conv3.weight f4 [16, 32, 5]
0	0x3d1d6338	0.0384247
1	0x3dfe8dc7	0.12429386
2	0x3dd723d7	0.10504883
3	0x3d4f8ef1	0.05067343
4	0x3da24933	0.07924118
5	0x3d80309f	0.06259274
6	0x3bcb6959	0.006207627
7	0x3d96ff85	0.07372955
8	0x3da26679	0.07929701
9	0x3d19da47	0.03756168
10	0x3dc2bb22	0.09508349
11	0x3da47f2b	0.08032068
12	0x3c235614	0.009969253
13	0x3d8b53d2	0.06803097
14	0x3dab5a3a	0.08366819
15	0x3dde5de1	0.1085775
16	0xbc100096	-0.008789202
17	0xbcd011e0	-0.025399148
18	0x3c6d564d	0.014485908
19	0x3d559201	0.052141193
20	0xbc98afb4	-0.01863847
21	0x3cd84c14	0.026403464
22	0xbc750579	-0.014954918
23	0xbc9da3d2	-0.019243155
24	0x3d84a032	0.06475867
25	0x3d76e48f	0.060276564
26	0x3d046ef2	0.03233237
27	0x3d9cb693	0.07652011
28	0x3b340d10	0.0027473606
29	0x3d02d9ff	0.03194618
30	0x3da3dc30	0.08000982
31	0x3db2929c	0.0871937
32	0x3d35a171	0.044343416
33	0xbd3bcc65	-0.045849223
34	0x3d275c51	0.040859524
35	0x3dbe9d31	0.09307326
36	0x3d7d7757	0.06188139
37	0xbd2e8f91	-0.042617384
38	0x3c28dfb1	0.010307238
39	0xbbae9a46	-0.0053284494
40	0xbd4af07b	-0.049545746
41	0xbd34e0f5	-0.04415985
42	0x3d94f40d	0.072731115
43	0xbcedb1fd	-0.029015535
44	0xbcd5299f	-0.026020823
45	0x3c487582	0.012235047
46	0x3d23f419	0.04002771
47	0x3dc77708	0.097395
48	0xbcebb24b	-0.02877154
49	0x3c148f04	0.009067301
50	0x3c0e00df	0.0086672
51	0x3d31ca90	0.04340607
52	0xbcb72591	-0.02235678
53	0xb83f5cf1	-4.5624507e-05
54	0xbcad3c91	-0.021147044
55	0x3b79ef45	0.0038137
56	0x3d7f9086	0.062393688
57	0xbc458f2f	-0.012058063
58	0x3c32a109	0.010902652
59	0xbcf8183a	-0.03028499
60	0x3d8e0266	0.06934051
61	0xbb12c285	-0.0022393775
62	0x3d86cc88	0.0658198
63	0xbd0d62a2	-0.03451789
64	0x3d9c93f6	0.07645409
65	0x3d4ccf24	0.050002232
66	0xbd18e373	-0.037326287
67	0x3c730abf	0.014834105
68	0xbcb50d58	-0.02210109
69	0xbc83bf39	-0.016082393
70	0x3c808ecf	0.015693096
71	0xbcd191ef	-0.025582282
72	0x3d82e56d	0.06391416
73	0x3d78e49b	0.06076489
74	0x3dba92c6	0.09110026
75	0x3c860ee8	0.01636453
76	0xbcc7ff6b	-0.024413785
77	0x3dc8fbea	0.09813674
78	0x3cca9d95	0.024733344
79	0x3c39df74	0.011344779
80	0x3c034077	0.008010975
81	0x3df30a8a	0.118672445
82	0xbc940334	-0.018067934
83	0x3d7c09a9	0.06153265
84	0x3d7c79bf	0.061639544
85	0xbcd2a368	-0.025712684
86	0x3d4b3638	0.049612254
87	0x3d54d78d	0.051963378
88	0x3d799518	0.060933203
89	0x3d09e81e	0.03366863
90	0x3d8a7aee	0.06761728
91	0x3d8e8870	0.06959617
92	0x3cb4845b	0.022035768
93	0xbc9fa39f	-0.0194872
94	0x3d451409	0.04811481
95	0x3d55278f	0.05203968
96	0x3dbefe1d	0.09325812
97	0x3d6fa52f	0.05850714
98	0x3d42c812	0.047554083
99	0x3c839cbd	0.01606595
100	0x3de5b610	0.11216366
101	0x3deeb8d8	0.1165635
102	0x3dfb1854	0.122604996
103	0x3d1c8b19	0.03821859
104	0x3b9e7dd0	0.0048367754
105	0xbd2d85dc	-0.042363986
106	0xbd6608a6	-0.05616059
107	0xbd2a87c0	-0.041633368
108	0xbb6eb75b	-0.0036425206
109	0x3daa7710	0.083234906
110	0xbd520866	-0.05127754
111	0xbafc87f5	-0.0019266593
112	0x3d5a8625	0.053350586
113	0x3d7094aa	0.058735527
114	0x3ccd87df	0.025089202
115	0x3b7b2a5d	0.003832481
116	0x3ccfbbe9	0.025358157
117	0xbce4c967	-0.027928067
118	0x3d780dfd	0.060560215
119	0x3d8ae359	0.067816444
120	0x3cf68c13	0.03009609
121	0x3d9463a3	0.07245567
122	0x3d7d070f	0.06177431
123	0xbd70f85f	-0.058830615
124	0xbc8c0229	-0.017090874
125	0xbd422023	-0.04739393
126	0x3d3eed1d	0.046612848
127	0xbd4f2892	-0.0505758
128	0x3d1fa7ad	0.038978267
129	0xbd4363cd	-0.0477026
130	0x3d7dd5e4	0.06197156
131	0xbd05241d	-0.032505143
132	0xbd4af247	-0.04954746
133	0xbc28c8c8	-0.010301776
134	0x3d43a962	0.047768958
135	0x3c33f49f	0.010983615
136	0x3d977e9a	0.07397194
137	0x3d365b73	0.044520807
138	0x3a9c0c0b	0.0011905445
139	0x3d290ce9	0.041272078
140	0x3dc47388	0.09592348
141	0xbb6778ee	-0.0035319882
142	0x3dea02c6	0.1142631
143	0x3d87d9c3	0.066333316
144	0x3daf867f	0.08570575
145	0x3cfc8361	0.030824365
146	0x3dd5cf5e	0.10439943
147	0xbc592190	-0.013252631
148	0x3c4de814	0.012567539
149	0x3dc509b9	0.09620995
150	0x3af49bac	0.0018662116
151	0x3de34911	0.11097921
152	0x3c807d0a	0.015684623
153	0xbce71e83	-0.028212791
154	0x3df373de	0.11887334
155	0x3db03ce9	0.08605368
156	0x3d5da4c1	0.0541122
157	0xbd3d18f8	-0.04616639
158	0x3d1dd5e9	0.03853408
159	0x3b3309d0	0.002731908
160	0x3d4501e3	0.048097502
161	0xbc2b237b	-0.010445471
162	0xbd12c257	-0.03582987
163	0xbddc5eba	-0.10760255
164	0xbd6dbeab	-0.058043163
165	0x3cf8ced1	0.030372055
166	0xbdb97c85	-0.09056953
167	0xbcb1e75e	-0.02171677
168	0xbdbc3eb7	-0.091916494
169	0xbd1b7032	-0.037948795
170	0xbd550a25	-0.052011628
171	0xbd28b410	-0.041187346
172	0xbd0f26c5	-0.034949083
173	0xbd5cfdb6	-0.053952895
174	0xbd79e3b4	-0.06100817
175	0x3c07379c	0.008253004
176	0xbc935a02	-0.017987255
177	0xbd8cddd0	-0.06878245
178	0x3c1b0a3d	0.00946289
179	0x3d402f44	0.046920076
180	0x3c4ef8fa	0.012632603
181	0x3b86171e	0.0040921113
182	0xbd3a4db2	-0.045484252
183	0x3cdf193d	0.027233714
184	0xbd7f26f3	-0.062293004
185	0x3c9058f2	0.017620537
186	0x3d5065c4	0.0508783
187	0xbcfb1dc0	-0.030653834
188	0xbd83027c	-0.06396958
189	0x3b197a43	0.002341882
190	0xbd049ab5	-0.032374103
191	0x3cc3e603	0.02391339
192	0xbd65ad73	-0.056073617
193	0x3d096534	0.03354378
194	0x3d0c5430	0.034259975
195	0x3c6e6999	0.014551544
196	0xbc7abb1a	-0.015303398
197	0xbd6578b9	-0.056023333
198	0x3ced78cb	0.028988263
199	0xbd2751c5	-0.040849466
200	0xbd47870a	-0.048712768
201	0x3d23992b	0.039940994
202	0xbd273bdc	-0.04082857
203	0x3c6dccbb	0.014514144
204	0x3c44d136	0.01201277
205	0xbd7aaf0f	-0.061202105
206	0x3ca692fe	0.020333763
207	0xbd1de414	-0.03854759
208	0x3c1fc68b	0.009751926
209	0xbdb0d276	-0.08633892
210	0x3bbce96d	0.005765131
211	0x3d2f764e	0.042837434
212	0xbd6abf0f	-0.057311114
213	0x3d587c75	0.052853066
214	0xbd90d1d6	-0.07071273
215	0x3b4433fd	0.0029938214
216	0x3b7104a7	0.0036776455
217	0xbcaced1d	-0.021109158
218	0x3bcc2453	0.006229916
219	0x3984be07	0.00025318583
220	0xbd8454e0	-0.06461501
221	0xbdc07bb5	-0.09398595
222	0xbdb74e46	-0.08950476
223	0xbd014e12	-0.031568594
224	0xbcefe0b7	-0.029281957
225	0xbd25f913	-0.04052074
226	0xbd06e9be	-0.032937758
227	0xbdc99d7d	-0.09844492
228	0xbdd64ff8	-0.104644716
229	0xbd7772fc	-0.060412392
230	0xbdad43c7	-0.08460193
231	0x3ca1329e	0.019677456
232	0xbd394007	-0.045227077
233	0xbd6bab0a	-0.057536162
234	0xbc33771b	-0.01095369
235	0xbc63ff37	-0.013915828
236	0x3c307284	0.01076949
237	0xbcdc7a1d	-0.026913697
238	0xbb740d6a	-0.003723944
239	0xbc46293d	-0.012094793
240	0x3d1e077b	0.038581353
241	0xbc058fca	-0.008151958
242	0xba2f1bb5	-0.0006679849
243	0xbce9a56e	-0.028521266
244	0x3b734bb7	0.0037123987
245	0xbd0d6239	-0.0345175
246	0xbd8d1e74	-0.06890574
247	0xbd9c2225	-0.076237
248	0x3c8107bc	0.015750758
249	0xbcd43fac	-0.025909267
250	0x3d46e547	0.0485585
251	0x3c841b32	0.016126249
252	0x3d207440	0.039173365
253	0xbd226213	-0.039644312
254	0x3ca3ec70	0.020010203
255	0xbc93951b	-0.018015435

conv3.bias f4 [16]
0	0x3de6bad3	0.11266103
1	0xbca0550c	-0.019571804
2	0x3d0c537d	0.034259308
3	0x3ca3e924	0.020008631
4	0x3a482752	0.0007635254
5	0xbdbde94a	-0.09273012
6	0xbdb11bf4	-0.0864791
7	0x3bf3deff	0.0074423547
8	0xbd5b8e7b	-0.053602677
9	0x3caaf1da	0.020867277
10	0x3d518079	0.05114791
11	0xbd52a6d5	-0.051428635
12	0xbbc3ef65	-0.005979466
13	0x3dc54974	0.09633151
14	0x3d515a9f	0.051111814
15	0xbd8db5fa	-0.06919475

lstm.weight_ih_l0 f4 [128, 16]
0	0x3e4c9379	0.19978131
1	0x3c9caea1	0.019126238
2	0xbbfda167	-0.007740188
3	0x3dbfa193	0.0935699
4	0xbda33951	-0.079699166
5	0xbe10a2ab	-0.14124553
6	0x3d277430	0.04088229
7	0x3e328072	0.1743181
8	0x3e0355b6	0.12825665
9	0x3e31e73d	0.17373367
10	0x3e196945	0.14981563
11	0x3d85fb95	0.06542126
12	0x3da8898d	0.08229361
13	0xbd7320b4	-0.05935736
14	0x3dfcc593	0.12342372
15	0x3e22f563	0.1591392
16	0xbdc043b5	-0.09387914
17	0xbe36ad99	-0.1783966
18	0x3c981315	0.018563787
19	0xbe08adfb	-0.13347618
20	0xbb9a0274	-0.0046999995
21	0x3e08c763	0.1335731
22	0x3bce27a8	0.0062913485
23	0x3e60c920	0.21951723
24	0xbc7c6dcb	-0.015407036
25	0xbc71da1b	-0.014761473
26	0x3d5619f1	0.052270833
27	0xbd9742c8	-0.073857844
28	0x3cce1056	0.025154274
29	0xbcfb5f2a	-0.030685026
30	0xbe189dee	-0.14903995
31	0xbbe96553	-0.0071226745
32	0xbbe6d243	-0.007044108
33	0x3d164b9b	0.036693197
34	0xbb7d5b4a	-0.003865915
35	0xbd3cc86e	-0.046089582
36	0xbe5945e0	-0.21218061
37	0x3dd7c9af	0.10536515
38	0x3ca2e9c7	0.019886864
39	0xbe1bb044	-0.15203959
40	0x3e2b7fd4	0.16747981
41	0xbce9f73b	-0.028560271
42	0xbe106794	-0.14102012
43	0xbdb1b9a3	-0.086779855
44	0xbdaebde9	-0.08532316
45	0xbe2da239	-0.16956414
46	0x3d5b6a6a	0.05356828
47	0xbd981b87	-0.074271254
48	0xbd24f848	-0.040275842
49	0x3e35c6dc	0.1775164
50	0xbba73bce	-0.005103565
51	0xbc19e1d3	-0.00939222
52	0xbd42aa16	-0.047525488
53	0xbd29ed66	-0.041486166
54	0xbd7f3be3	-0.06231297
55	0xbd376647	-0.044775274
56	0xbdedb7dd	-0.11607335
57	0xbd2c3c66	-0.042049788
58	0x3dc22a38	0.09480709
59	0x3dc854ca	0.09781797
60	0x3e1f4941	0.15555288
61	0xbd2ff05c	-0.042953834
62	0xbe1d682d	-0.15371771
63	0xbd303e26	-0.04302802
64	0x3e593b71	0.21214081
65	0x3d0537b2	0.03252382
66	0x3e5568f4	0.20840818
67	0x3e166c64	0.14689785
68	0x3e272613	0.16323118
69	0xbd13ceb4	-0.0360858
70	0x3d8938c2	0.06700279
71	0xbd949e68	-0.07256776
72	0x3ce6329f	0.02810031
73	0x3dc29b5a	0.09502287
74	0xbd921a37	-0.07133906
75	0xbe10ddb5	-0.14147075
76	0xbd2fb76f	-0.042899545
77	0x3d55b6bf	0.052176233
78	0xbd4a8d4c	-0.049451157
79	0x3da7f105	0.08200268
80	0xbd3c1950	-0.045922577
81	0x3e4d6a0f	0.2005999
82	0xbd28c554	-0.04120381
83	0x3e0d7601	0.13814546
84	0x3e4de8fe	0.2010841
85	0x3e39f749	0.18160738
86	0xbd2c0781	-0.041999344
87	0xbd4b51aa	-0.049638428
88	0xbd9a47b4	-0.075332075
89	0xbdb470e6	-0.08810596
90	0xbabaf78f	-0.0014264452
91	0xbcf52a9d	-0.029927546
92	0x3ddf3aff	0.108999245
93	0x3e4cd875	0.20004447
94	0x3db146e9	0.08656103
95	0x3ca58114	0.02020315
96	0xbd0b5b26	-0.034022473
97	0xbdb1ead1	-0.08687366
98	0x3e3921f2	0.18079355
99	0xbe304b1e	-0.17216155
100	0x3bf1d8ca	0.0073805796
101	0xbe44c87c	-0.19217104
102	0xbd5d3a87	-0.054010894
103	0xbdd3cc3a	-0.103416875
104	0xbe2fe29b	-0.17176287
105	0x3cd04533	0.025423622
106	0xbd81be75	-0.06335155
107	0x3c92437e	0.017854448
108	0x3e3c78d3	0.18405466
109	0x3b411e75	0.0029467617
110	0x3d2e0171	0.042481843
111	0xbdb99bd2	-0.090629235
112	0x3e322a70	0.17399001
113	0x3e53f0b7	0.20697294
114	0xbbd4d179	-0.0064946976
115	0xbdda3b40	-0.10655832
116	0x3e46df17	0.1942104
117	0x3e143476	0.14473137
118	0x3e045a34	0.12925035
119	0x3d944637	0.07239955
120	0x3d5e56a7	0.054281857
121	0x3d949f25	0.07256917
122	0x3da4aec5	0.08041147
123	0xbd1bc891	-0.038033072
124	0x3ddd322e	0.10800587
125	0x3e61ed3f	0.22063158
126	0xbd0ab3ca	-0.033862866
127	0xbdf3c160	-0.11902118
128	0xbd6aff10	-0.057372153
129	0x3d05910f	0.03260904
130	0x3e06968f	0.13143371
131	0x3d48175d	0.048850406
132	0x3e637e84	0.2221623
133	0x3d95dbe4	0.073173314
134	0x3e0452b1	0.1292217
135	0xbdbffde6	-0.09374599
136	0x3dd51400	0.10404205
137	0x3e185d23	0.14879279
138	0x3dc55268	0.09634858
139	0x3db1dbed	0.08684526
140	0xbdbabd4c	-0.09118137
141	0x3e705936	0.23471531
142	0x3c09cb48	0.008410282
143	0xbe1d393f	-0.15353869
144	0x3dc1678d	0.09443579
145	0x3d8a26f0	0.06745708
146	0x3e16b37e	0.14716908
147	0x3e06a136	0.13147435
148	0x3d7c03b0	0.061526954
149	0x3da3c3f1	0.07996357
150	0x3e3e5ddf	0.18590496
151	0x3de17a7c	0.1100969
152	0x3d8ae15a	0.06781264
153	0xbd3ab5b2	-0.045583434
154	0xbdcdb953	-0.100451134
155	0x3d1bb7df	0.03801715
156	0xbdc23279	-0.09482283
157	0x3d1991d3	0.037492584
158	0xbe3fe754	-0.18740588
159	0xbe43d9a9	-0.19126
160	0xbd05f8a3	-0.03270782
161	0xbe0e803a	-0.13916102
162	0x3e1cd4a4	0.15315491
163	0x3d9a63ee	0.07538591
164	0x35b98352	1.3821793e-06
165	0x3e3bb746	0.18331632
166	0x3e0112cf	0.12604831
167	0x3e217753	0.15768175
168	0xbdec9bb3	-0.11553135
169	0xbdefcb32	-0.11708678
170	0xbc84eeac	-0.016227089
171	0x3e0c425c	0.13697189
172	0xbdd4ed85	-0.10396866
173	0xbd8c5796	-0.06852643
174	0x3cf1b10b	0.029503366
175	0x3dadf91b	0.08494779
176	0x3e20842b	0.15675418
177	0x3d92b294	0.07162967
178	0x3d000815	0.031257708
179	0xbd204e41	-0.03913713
180	0x3d5dc96d	0.054147173
181	0x3e07e82b	0.13272159
182	0xbdb62493	-0.08893695
183	0xbdd8647f	-0.10566043
184	0xbc92a037	-0.017898662
185	0x3d2e871c	0.04260932
186	0x3e102f36	0.1408051
187	0x3db5d2e2	0.08878113
188	0x3e6aa4dc	0.22914451
189	0xbbaa0381	-0.005188406
190	0x3da47ed7	0.08032005
191	0xbdcb5d79	-0.09929938
192	0xbe1349f4	-0.1438368
193	0xbdcd1d3c	-0.10015342
194	0x3dd73107	0.10507398
195	0xbe0ca6af	-0.1373546
196	0xbdb55be0	-0.088554144
197	0x3d05983b	0.03261588
198	0xbe1accf2	-0.15117243
199	0x3c3bac33	0.01145463
200	0xbe0bdce2	-0.13658479
201	0x3e1218fc	0.14267343
202	0x3de0c2e1	0.1097467
203	0x3dc83bd5	0.09777037
204	0x3df18aae	0.11794029
205	0x3da3c717	0.07996958
206	0x3d876ecb	0.06612929
207	0x3d9a4447	0.07532554
208	0x3d5a938e	0.053363375
209	0xbd14c72e	-0.036322765
210	0x3d8c7a80	0.068593025
211	0xbdff2e8a	-0.124600485
212	0xbdfcd352	-0.12344994
213	0xbc90a127	-0.017654968
214	0xbd47f703	-0.048819553
215	0xbcda8495	-0.026674548
216	0x3da2afef	0.07943713
217	0xbcfbd8bc	-0.030742995
218	0x3e564354	0.20924121
219	0xbdedc3b2	-0.116095915
220	0xbde59763	-0.11210515
221	0x3dd0a1ee	0.10187136
222	0xbad04252	-0.0015888906
223	0x3c928dfd	0.01788997
224	0x3dcdf4f5	0.100564875
225	0xbd63f2f1	-0.05565161
226	0xbdf0a884	-0.11750892
227	0x3dbae368	0.091254056
228	0xbc532d19	-0.01288917
229	0x3df8229d	0.12115977
230	0xbd491610	-0.049093306
231	0x3e423a5c	0.18967575
232	0x3d25b0b9	0.04045174
233	0xbd49782f	-0.04918688
234	0xbbccff0b	-0.0062559894
235	0x3e17f5e8	0.148399
236	0x3e45d5b3	0.19319801
237	0xbe0978d4	-0.13424999
238	0xbdbaceba	-0.09121461
239	0xbd8d6820	-0.06904626
240	0x3dd21ad3	0.102590226
241	0xbdb76ce7	-0.08956318
242	0xbd6b5004	-0.057449356
243	0x3d50d795	0.050986845
244	0x3d82b9e6	0.063831136
245	0xbdc37002	-0.09542848
246	0x3e17b79c	0.14816135
247	0x3e5c2683	0.21499066
248	0xbd9023b5	-0.070380606
249	0x3e53fe3b	0.2070245
250	0x3dd7ac7c	0.10530946
251	0x3d3931e0	0.04521358
252	0xb9937aab	-0.0002812942
253	0x3e5c46cf	0.21511386
254	0x3e15dd3b	0.14635174
255	0xbe08ab4b	-0.13346593

lstm.weight_hh_l0 f4 [128, 32]
0	0x3d8c8c1e	0.06862663
1	0x3dca7deb	0.09887298
2	0xbd382d72	-0.044965215
3	0x3cea53a5	0.028604338
4	0xbe0d9266	-0.13825378
5	0xbe1d76f5	-0.1537741
6	0x3e408ee1	0.18804504
7	0x3b06345d	0.0020477988
8	0xbe2bcadb	-0.16776602
9	0x3de41dc7	0.11138492
10	0x3d860fd1	0.065459855
11	0x3deef715	0.11668221
12	0xbd127303	-0.035754215
13	0xbe2232e0	-0.1583972
14	0x3c3327d1	0.010934786
15	0x3d34eb6d	0.044169832
16	0xbe55d256	-0.20881018
17	0x3df6f906	0.12059216
18	0xbdae0481	-0.08496953
19	0x3dd0cb12	0.101949826
20	0xbe1334b0	-0.14375567
21	0xbe629972	-0.22128847
22	0xbd9b929f	-0.07596325
23	0x3e3be52f	0.18349145
24	0x3dca76e4	0.09885958
25	0x3dc3c245	0.09558538
26	0x3d884201	0.06653214
27	0x3decdafb	0.11565205
28	0xbd1fe3b3	-0.03903551
29	0xbe0aa281	-0.13538553
30	0x3d4c23ed	0.04983895
31	0xbdbf7937	-0.09349292
32	0xbd25d06e	-0.040481977
33	0x3e0bee4d	0.13665123
34	0xbe42f372	-0.1903818
35	0x3dc5403a	0.09631391
36	0x3dd8ab48	0.10579544
37	0xbce39707	-0.027781976
38	0xbdac4978	-0.084124506
39	0xbe657ad5	-0.22410138
40	0xbd01627d	-0.031588066
41	0xbe3ca08f	-0.18420623
42	0x3d8832ed	0.06650338
43	0x3dc33d7c	0.095332116
44	0xbe0e6845	-0.13906963
45	0xbe46c1e1	-0.19409896
46	0x3e003b79	0.12522687
47	0xbd87ecd4	-0.06636968
48	0xbce11b8b	-0.027478954
49	0x3e4458ee	0.19174549
50	0xbdb4bc41	-0.08824969
51	0xbe09ec0e	-0.13468954
52	0xbcdc1413	-0.02686504
53	0xbceacfaa	-0.028663475
54	0xbe1a5b81	-0.15073968
55	0xbd1f3c69	-0.03887597
56	0xbdc5f97b	-0.09666725
57	0x3d2df50e	0.04247003
58	0xbdca32a6	-0.09872942
59	0xbe260505	-0.16212852
60	0x3deb0ac0	0.1147666
61	0xbdd328a8	-0.10310489
62	0x3d3dc102	0.046326645
63	0xbdae2a93	-0.08504214
64	0x3cb4f236	0.022088151
65	0x3c346b7e	0.011011956
66	0xbe146f0e	-0.14495489
67	0x3d01347d	0.031544197
68	0x3dd88b9c	0.105735034
69	0xbdcf47ce	-0.101211175
70	0x3d835790	0.064131856
71	0xbdb667b3	-0.08906498
72	0xbafe988f	-0.0019424128
73	0xbda03aa8	-0.07823688
74	0x3c495808	0.012289055
75	0xbd40bdda	-0.047056057
76	0xbcff3ebf	-0.03115785
77	0xbdec0180	-0.115237236
78	0x3dd0650a	0.10175522
79	0xbdb3a0c4	-0.08770898
80	0xbc535780	-0.01289928
81	0xbd2bcc9c	-0.041943178
82	0xbd59877d	-0.053107727
83	0x3d78dc65	0.06075706
84	0x3e22a9d2	0.15885094
85	0x3e1ae7da	0.15127507
86	0x3e2d2b1f	0.1691098
87	0xbca2db21	-0.01987988
88	0xbd500174	-0.050782636
89	0xbd58f9e7	-0.0529727
90	0x3df529e9	0.11970884
91	0x3de6c968	0.11268884
92	0xbd2b29d2	-0.04178793
93	0xbdce5788	-0.10075289
94	0x3db231c6	0.087009
95	0x3debf15b	0.11520644
96	0x3d9c4371	0.07630051
97	0x3c8b9937	0.017040832
98	0x3dbf0a0d	0.09328089
99	0x3db78051	0.08960021
100	0x3db2b2d4	0.08725515
101	0x3deac85a	0.11463995
102	0xbdc4bd96	-0.09606473
103	0x3de52c78	0.11190122
104	0x3d9f2838	0.07771343
105	0xbb049c06	-0.0020234599
106	0x3e12e704	0.14345938
107	0x3d92cd13	0.07168021
108	0xbd7a2932	-0.061074443
109	0x3ccfa26d	0.025346005
110	0x3d6e2823	0.058143746
111	0x3e64f7f5	0.22360213
112	0xbe1214b8	-0.14265716
113	0x3dfe7823	0.12425258
114	0xbd9814da	-0.07425852
115	0xbe58194d	-0.21103401
116	0x3d9db66a	0.07700808
117	0x3ddc2447	0.10749107
118	0x3df5bef3	0.11999311
119	0x3d45e8ed	0.04831784
120	0xbd88bfbd	-0.06677196
121	0x3d5bc7cc	0.053657338
122	0xbdcbed8b	-0.09957417
123	0x3d080e73	0.033216905
124	0xbe253b33	-0.16135864
125	0xbd914287	-0.07092767
126	0xbc878433	-0.01654253
127	0xbdf0f9f6	-0.11766426
128	0x3d713722	0.05889047
129	0x3de433f1	0.111427195
130	0x3ce614ba	0.028086055
131	0xbd0344b4	-0.032047942
132	0x3dccc96d	0.099993564
133	0x3d2fff75	0.042968232
134	0x3d72508b	0.059158843
135	0x3d827767	0.063704304
136	0x3df010fb	0.11721989
137	0xbd3e0cff	-0.046399113
138	0x3e532ca3	0.20622496
139	0xbd802a03	-0.06258013
140	0xbe023412	-0.12715176
141	0x3d6847fa	0.056709267
142	0xbda3fc28	-0.08007079
143	0xbd2eac4b	-0.04264478
144	0x3e040d17	0.12895618
145	0xbd49f87b	-0.049309235
146	0x3dedf639	0.11619229
147	0x3da85695	0.08219639
148	0xbd902c90	-0.070397496
149	0xbe1a83ae	-0.15089294
150	0xbe2d4933	-0.16922455
151	0x3dbbd476	0.09171383
152	0x3db4cee2	0.08828522
153	0x3e2290d9	0.15875567
154	0xbd935bf6	-0.071952745
155	0xbe4414d6	-0.19148573
156	0xbe062d11	-0.13103129
157	0xbdf80507	-0.12110334
158	0x3dca8d43	0.09890225
159	0xbd022fd2	-0.031783886
160	0x3c9ecba1	0.019384207
161	0xbdab2da6	-0.08358316
162	0x3e42d21e	0.19025466
163	0xbe430be0	-0.19047499
164	0xbd63413e	-0.05548214
165	0x3cdf95cb	0.027293107
166	0x3e35221f	0.17688797
167	0xbe612473	-0.2198656
168	0xbe4c6a99	-0.19962539
169	0x3dbb3bd6	0.09142272
170	0x3d0c0f32	0.03419418
171	0x3dee2540	0.116281986
172	0x3e2163c3	0.15760712
173	0x3dc4173e	0.095747456
174	0xbdccb0c7	-0.09994655
175	0xbb82e659	-0.0039947447
176	0xbe377173	-0.17914371
177	0xbd89ed1b	-0.067346774
178	0x3e13c6da	0.14431325
179	0x3d9a9dd1	0.07549632
180	0x3c0639af	0.008192464
181	0xbde97582	-0.11399366
182	0xbe0d1ae3	-0.13779788
183	0xbacdfb05	-0.0015715068
184	0x3b81d360	0.0039619654
185	0x3e092b52	0.13395432
186	0x3d97e9e6	0.074176595
187	0x3d2a6710	0.041602194
188	0x3d225c76	0.03963896
189	0x3c487671	0.01223527
190	0x3d3adaf1	0.045618955
191	0x3db61881	0.088913925
192	0xbde2b5d7	-0.110698394
193	0x3da51e1b	0.08062383
194	0xbe3b918a	-0.18317237
195	0xbe22a97f	-0.1588497
196	0xbdc66a57	-0.096882515
197	0xbe1bdb33	-0.15220337
198	0x3c682c2f	0.01417069
199	0x3e15adc7	0.14617072
200	0x3d90c36a	0.07068522
201	0xbb8749b8	-0.004128661
202	0xbcd7c1ea	-0.026337583
203	0xbd488dd3	-0.04896338
204	0xbaa0fdee	-0.0012282708
205	0xbd939033	-0.07205238
206	0x3c3214f4	0.010869253
207	0xbde9776b	-0.1139973
208	0x3da430d9	0.080171295
209	0x3d3049ed	0.04303925
210	0xbd0a314c	-0.03373842
211	0xbc0678d9	-0.008207523
212	0xbdc9b9ee	-0.098499164
213	0xbe2acc19	-0.1667942
214	0xbd70361f	-0.058645364
215	0xbe09dc4a	-0.1346294
216	0xbdc1b901	-0.09459115
217	0x3dcb3c03	0.09923556
218	0xbdb4c78f	-0.08827125
219	0x3d6ebf50	0.05828792
220	0x3e1ac8e4	0.15115696
221	0x3c86fa84	0.016476877
222	0xbdc329a6	-0.09529428
223	0xbd2c444b	-0.042057317
224	0xbdcb0a8a	-0.099141195
225	0x3d0fd10a	0.035111465
226	0xbde6f0be	-0.11276387
227	0xbdd1e999	-0.10249633
228	0xbbdb3d11	-0.0066906293
229	0xbe614ed6	-0.2200273
230	0xbdad6cc0	-0.08468008
231	0x3ccf6c70	0.025320262
232	0xbdc80241	-0.09766055
233	0xbe1c166a	-0.15242925
234	0x3d743681	0.05962229
235	0x3e1e7496	0.15474162
236	0x3e03ed23	0.12883429
237	0xbdb3b28e	-0.08774291
238	0x3d134e92	0.035963602
239	0x3e136620	0.14394426
240	0x3de253f9	0.11051173
241	0xbd041a2c	-0.032251522
242	0x3dfd632b	0.123724304
243	0xbdc1ebb3	-0.09468784
244	0x3daa609a	0.083192065
245	0x3d10c4b6	0.03534385
246	0xbe578ae3	-0.21049075
247	0xbb018c61	-0.001976751
248	0x39f2a848	0.00046283216
249	0xbda40597	-0.08008879
250	0xbe0a3ca3	-0.13499694
251	0xbd0377c9	-0.032096658
252	0xbe2e06f7	-0.16994844
253	0xbd56e556	-0.052464806
254	0xbd9c6089	-0.076356
255	0xbdf09d9d	-0.11748812

lstm.bias_ih_l0 f4 [128]
0	0x3e164a83	0.14676861
1	0xbcc66cdb	-0.024221828
2	0x3d9ae4b6	0.075631544
3	0xbd98856d	-0.07447324
4	0x3e03d2be	0.1287336
5	0x3e1f4aa2	0.15555814
6	0xbc1bec3d	-0.009516773
7	0x3e6beda8	0.23039877
8	0x3e2abcb3	0.16673546
9	0x3c6eb12e	0.01456861
10	0x3c26b5db	0.010175194
11	0x3d9345d0	0.0719105
12	0xbdf76e2a	-0.12081559
13	0x3cb879ec	0.022519074
14	0xbdee5e03	-0.11639025
15	0x3dea9129	0.11453468
16	0x3d848a7b	0.064717256
17	0xbe0aa23c	-0.1353845
18	0x3c92796d	0.017880166
19	0x3de1b378	0.11020559
20	0xbdf7626a	-0.12079318
21	0x3ddc427b	0.10754868
22	0xbd1ad23c	-0.03779815
23	0x3d9dbff1	0.077026255
24	0x3d28ac1d	0.041179765
25	0xbdb8a68b	-0.090161406
26	0x3d1e1401	0.038593296
27	0xbde483a1	-0.11157919
28	0x3c42d3a8	0.011891283
29	0x3d96edba	0.073695615
30	0x3d534f09	0.051589046
31	0x3c0bab23	0.008524689
32	0x3e49ebf7	0.1971892
33	0x3e4d41eb	0.20044677
34	0xbde20938	-0.110369146
35	0x3d9b900a	0.07595833
36	0x3df6e70e	0.12055789
37	0x3d6dd7f8	0.058067292
38	0x3d2227b0	0.03958863
39	0x3c50604e	0.012718273
40	0x3dd155f9	0.10221476
41	0xbdaf9c26	-0.08574705
42	0x3c5f6a2a	0.013636151
43	0xbc4f2a01	-0.012644292
44	0x3cbf0f40	0.023322701
45	0x3de496a5	0.11161546
46	0xbdcbd963	-0.099535726
47	0xbd85d24f	-0.06534254
48	0x3d4a65d3	0.049413513
49	0x3daf1e9a	0.08550759
50	0xbdd8ab63	-0.105795644
51	0x3d802d0b	0.06258591
52	0xbdf8ab9d	-0.12142108
53	0xbded1f91	-0.115782864
54	0x3e81a1b6	0.25318688
55	0xbd306d0a	-0.043072738
56	0xbbedf4e0	-0.0072618574
57	0x3e5a32e0	0.2130847
58	0xbd1eb1e1	-0.038743857
59	0xbdb83253	-0.089939736
60	0xbd7dca20	-0.06196034
61	0xbd1f0eb2	-0.038832374
62	0x3dddd54c	0.10831699
63	0x3dfa8e42	0.12234165
64	0x3c96ac32	0.018392656
65	0x3c46fa0a	0.012144575
66	0x3dbbad2d	0.0916389
67	0xbe12595d	-0.14291902
68	0x3daac12e	0.08337627
69	0xbe2aef64	-0.16692883
70	0x3ddd7950	0.10814154
71	0xbe3a50ce	-0.18194887
72	0xbdece9b3	-0.11568012
73	0xbe046f78	-0.12933147
74	0x3d8e8bf7	0.0696029
75	0x3e1388eb	0.14407699
76	0xbe2f17d9	-0.17098941
77	0x3d162f6b	0.036666315
78	0x3c44d52d	0.012013716
79	0x3da0620b	0.078312
80	0xbe22b444	-0.15889078
81	0xbe128e4e	-0.14312097
82	0x3d0bc291	0.0341211
83	0x3ccc6bf4	0.02495382
84	0xbe540d74	-0.20708257
85	0xbe18a369	-0.14906086
86	0xbe3cba7b	-0.18430512
87	0x3c9906ee	0.018680062
88	0xbe348d10	-0.17631936
89	0xbd42e915	-0.047585566
90	0xbd107280	-0.035265446
91	0xbdd4c17f	-0.10388469
92	0xbe13905d	-0.14410539
93	0xbdf240fa	-0.118287995
94	0xbc367af1	-0.01113771
95	0x3dfc6ec0	0.123258114
96	0x3d55dd9f	0.052213307
97	0x3e5083ee	0.20362827
98	0x3cf67c53	0.03008858
99	0x3e2390d1	0.15973212
100	0x3e1e595e	0.15463778
101	0x3d65b336	0.056079112
102	0x3e55ecdc	0.20891136
103	0xbd3af0be	-0.045639746
104	0x3c951ccc	0.018202208
105	0x3d51015d	0.05102669
106	0x3dc03fa3	0.09387138
107	0x3cd076a6	0.025447201
108	0x3d80b290	0.06284058
109	0xbdc22c93	-0.09481158
110	0x3e59ec1a	0.21281472
111	0x3dee53ac	0.11637053
112	0x3d3b2a4e	0.04569464
113	0x3e2c9091	0.16852023
114	0x3aaf773b	0.0013386974
115	0xbdcd22ea	-0.10016425
116	0xbe13da10	-0.14438653
117	0x3e4df0a9	0.20111336
118	0xbaae248d	-0.001328604
119	0x3e069b0c	0.13145083
120	0x3cacfd2f	0.021116821
121	0x3e2c2d50	0.1681416
122	0xbc387dc9	-0.011260458
123	0x3e089b31	0.13340451
124	0x3e74ef16	0.23919329
125	0x3dab982e	0.08378635
126	0xbd88bc48	-0.06676537
127	0x3dc9654a	0.098337725

lstm.bias_hh_l0 f4 [128]
0	0xbd042a6d	-0.032267023
1	0xbd97caf6	-0.074117586
2	0xbd6e12c0	-0.05812335
3	0x3cc918fb	0.024548044
4	0x3dab76eb	0.08372291
5	0x3cb71307	0.02234794
6	0x3d5760f8	0.05258271
7	0x3cf2c083	0.029632812
8	0xbdee8038	-0.116455495
9	0x3c95cef7	0.018287165
10	0x3dc4cc09	0.09609229
11	0x3e493ca1	0.19652034
12	0xbe364d75	-0.17802985
13	0xbced9cbd	-0.029005403
14	0xbd7e4b57	-0.06208357
15	0x3bf5057c	0.0074774604
16	0xbd1c99f4	-0.03823276
17	0x3e25f14f	0.16205333
18	0xbd931ba3	-0.07183006
19	0xbd97606a	-0.073914364
20	0xbcddf6c0	-0.027095199
21	0x3d9fd2ee	0.078039035
22	0x3e80926c	0.2511171
23	0x3dd7b564	0.105326444
24	0x3e5f1509	0.21785368
25	0x3daefcf2	0.08544339
26	0xbdc42670	-0.09577644
27	0x3c9f8990	0.019474775
28	0x3d941119	0.072298236
29	0x3c520f2b	0.012820999
30	0x3e0bbbea	0.13645902
31	0xbd986dc7	-0.07442813
32	0x3e5ce46a	0.21571508
33	0xbd64e79d	-0.055884946
34	0x3e1e7c28	0.1547705
35	0x3e39fee7	0.18163644
36	0x3e3824cb	0.17982785
37	0xbafd74f6	-0.0019337225
38	0xbe05d6c9	-0.13070215
39	0x3e4fd069	0.20294346
40	0xbd970012	-0.0737306
41	0xbdfec521	-0.12439943
42	0x3d258319	0.040408228
43	0xbd8e7d89	-0.06957538
44	0xbb4e5c1d	-0.003148801
45	0x3e4312d7	0.19050156
46	0x3c73f444	0.01488978
47	0x3cc1459d	0.023592765
48	0xbd410f8d	-0.04713397
49	0x3dbbe0e5	0.091737546
50	0x3dbd4dc8	0.09243351
51	0x3e3cc620	0.18434954
52	0xbe411274	-0.18854696
53	0x3db37966	0.08763389
54	0xbc851dfc	-0.01624965
55	0x3e2cc771	0.16872956
56	0x3cf029d9	0.02931683
57	0x3e4bcb2c	0.19901723
58	0x3c063d78	0.008193366
59	0xbe438661	-0.1909423
60	0x3cc06e34	0.023490049
61	0x3e609112	0.2193034
62	0xbc1ba9af	-0.009500905
63	0x3d6c029d	0.05761968
64	0xbdcf03bf	-0.101081364
65	0xbc3d8b52	-0.011568861
66	0x3df114cb	0.11771544
67	0xbd93d618	-0.072185695
68	0xbe30630b	-0.17225282
69	0x3df9229c	0.12164804
70	0xbde68b7c	-0.11257073
71	0xbd990a7e	-0.07472704
72	0x3e06c1bf	0.13159846
73	0x3c42f716	0.01189973
74	0x3ddcfeca	0.10790785
75	0x3e48ea2b	0.19620578
76	0xbd54327b	-0.051805954
77	0xbd75d857	-0.06002077
78	0x3ca95b5d	0.020673448
79	0x3ddea30e	0.10870944
80	0xbd7c2f93	-0.061568808
81	0x3e19e941	0.15030386
82	0x3d7e0658	0.06201777
83	0xbe3ff392	-0.18745258
84	0x3dde48e6	0.10853748
85	0x3c0286cf	0.007966711
86	0x3b6da65e	0.0036262493
87	0x3d5480ca	0.051880635
88	0x3d964af3	0.07338514
89	0xbda21604	-0.079143554
90	0x3b9d2c96	0.004796575
91	0xbe19bfce	-0.15014574
92	0xbd86e07a	-0.06585784
93	0xbe5ea001	-0.21740724
94	0x3e41ac5d	0.18913408
95	0xbe297892	-0.165499
96	0x3d4ce156	0.050019585
97	0xbd357c0f	-0.044307765
98	0x3da23030	0.07919347
99	0x3daf3e53	0.08556809
100	0x3dd3f9ba	0.10350366
101	0x3e356060	0.17712545
102	0x3e403e0e	0.18773672
103	0x3e636e53	0.22210054
104	0xba711aeb	-0.00091974315
105	0xbd779cfd	-0.06045245
106	0x3e67a976	0.22623238
107	0x3e2ef347	0.1708499
108	0xbc7c32b5	-0.015392949
109	0xbcc345ca	-0.023836989
110	0xbdad9134	-0.08474961
111	0x3e32fdf8	0.17479694
112	0x3dd2d47c	0.102944344
113	0x3e2cb099	0.16864242
114	0x3d98c26a	0.074589565
115	0x3e555391	0.2083266
116	0x389c5f4f	7.456412e-05
117	0x3d89aafc	0.06722066
118	0x3e079901	0.1324196
119	0x3e5fc2c1	0.21851636
120	0x3e39671d	0.18105741
121	0x3e5af734	0.21383363
122	0x3dba2b30	0.090902686
123	0x3d93bbf4	0.072135836
124	0x3df19ac8	0.117971
125	0x3e4a11d9	0.19733371
126	0x3e0cb596	0.13741145
127	0x3d512def	0.051069196

dense1.weight f4 [32, 32]
0	0xbca0ac3c	-0.019613378
1	0x3d289e7b	0.041166764
2	0xbc13bc7a	-0.009017104
3	0xbe1a34d7	-0.1505922
4	0xbd8a24e3	-0.06745317
5	0x3da1f764	0.07908514
6	0x3e5b5d39	0.2142228
7	0x3d7245ba	0.059148528
8	0x3cc3fca5	0.023924181
9	0xbe0d4a53	-0.13797884
10	0x3da3b1ac	0.079928726
11	0x3e64b075	0.22332938
12	0x3d520e35	0.05128308
13	0xbe3af8b0	-0.18258929
14	0xbd8cbf0b	-0.06872376
15	0x3e63d2e7	0.22248422
16	0xbd3247c6	-0.04352548
17	0xbdd026a8	-0.10163623
18	0x3dc450ad	0.095857
19	0xbbf903ad	-0.007599315
20	0xbd98b390	-0.07456124
21	0x3d155876	0.036461316
22	0xbe4e36d4	-0.20138103
23	0x3dae9dcf	0.08526193
24	0xbdd7804b	-0.10522517
25	0x3d3c39a5	0.04595341
26	0x3d8f54fe	0.06998633
27	0x3ded6d21	0.1159308
28	0xbde8138d	-0.11331854
29	0xbe66ab98	-0.22526395
30	0xbd62ab10	-0.05533892
31	0x3c2212c0	0.009892166
32	0x3e45a76c	0.19302148
33	0xba4c6140	-0.0007796474
34	0xbe08b160	-0.13348913
35	0x3d7ea20a	0.06216625
36	0x3df7ccf7	0.12099641
37	0x3cbb5a1e	0.02287012
38	0xbd1565f5	-0.036474187
39	0xbd922a92	-0.07137026
40	0x3d8eb468	0.069680035
41	0xbde48f75	-0.11160175
42	0xbdc78e7d	-0.09743974
43	0xbc805ec0	-0.01567018
44	0x3cd56a21	0.026051583
45	0xbdc8e8b2	-0.09810008
46	0xbd8c0209	-0.06836326
47	0x3d815106	0.06314282
48	0x3e5a8e34	0.21343309
49	0xbd800efe	-0.062528595
50	0x3cde9e23	0.027175015
51	0x3d4a7017	0.049423303
52	0xbdcaa20e	-0.09894191
53	0x3d701e4d	0.058622647
54	0xbd964d95	-0.07339016
55	0xbd770fe4	-0.06031789
56	0xbdaff068	-0.08590776
57	0xbe0c934a	-0.13728061
58	0xbd70af93	-0.05876119
59	0x3c8adddc	0.016951494
60	0xbdcea435	-0.10089914
61	0xbc802e60	-0.015647113
62	0xbe57378c	-0.21017283
63	0xbe3821e3	-0.17981677
64	0xbe6087b9	-0.21926774
65	0xbd3f3712	-0.04668338
66	0xbd8a8cb5	-0.06765119
67	0x3dc16b81	0.09444333
68	0xbd3de759	-0.04636321
69	0xbe57742a	-0.21040407
70	0x3e56aecb	0.20965116
71	0xbe24b81e	-0.1608586
72	0xbdf734fd	-0.120706536
73	0x3a6d4873	0.00090516283
74	0xbc3a7863	-0.0113812415
75	0x3d83bf75	0.06433002
76	0xbd362dd7	-0.04447731
77	0xbd6afffd	-0.057373036
78	0xbdbffe67	-0.09374695
79	0x3d4911a3	0.049089085
80	0xbcafa20d	-0.021439577
81	0x3e1d618a	0.1536924
82	0x3d4c80ec	0.049927637
83	0x3d6eaed8	0.058272213
84	0xbd2df371	-0.042468492
85	0x3d406024	0.046966687
86	0xbdf0ee2e	-0.11764179
87	0x3dc761b8	0.09735435
88	0xbd74f48d	-0.059803534
89	0xbd7d955b	-0.061910015
90	0x3e8c1c73	0.27365455
91	0x3e042dab	0.12908046
92	0x3d35a0ee	0.044342928
93	0xbe41c0a9	-0.1892115
94	0x3e54fe9d	0.20800252
95	0x3e4b8521	0.19875003
96	0xbda442c1	-0.08020545
97	0x3d66c1cb	0.05633716
98	0x3e0072a9	0.1254374
99	0xbe61820f	-0.2202227
100	0x3daf14f2	0.08548917
101	0xbdedf89d	-0.11619685
102	0xbbc64913	-0.0060511916
103	0xbd822cf8	-0.06356233
104	0xbc94d5c9	-0.018168347
105	0xbd63cca7	-0.055615094
106	0x3e41925b	0.18903486
107	0xbd7860dd	-0.06063925
108	0x3bde5e83	0.006786169
109	0xbda910de	-0.0825517
110	0xbd5c36f7	-0.053763356
111	0xbd8020b3	-0.06256237
112	0xbe0ba2ed	-0.1363637
113	0x3c3761f8	0.011192791
114	0x3dacc33b	0.08435675
115	0xbe177940	-0.14792347
116	0x3de1f680	0.11033344
117	0xbb7ddd7f	-0.0038736758
118	0xbe3054e3	-0.17219882
119	0x3d7e0a78	0.062021703
120	0xbe6ab345	-0.22919948
121	0x3e16bf17	0.14721332
122	0x3b41cd62	0.002957188
123	0x3d9c7d41	0.07641078
124	0x3c9119b7	0.017712457
125	0xbe098e76	-0.13433251
126	0x3dca947a	0.09891601
127	0x3d5a5293	0.053301405
128	0xbe66bf9e	-0.22534034
129	0xbd2c3139	-0.04203913
130	0xbdf12cce	-0.11776124
131	0x3dafc087	0.085816436
132	0xbe58d633	-0.2117546
133	0x39916a35	0.00027735686
134	0x3bf2f27d	0.0074141608
135	0xbc846d7d	-0.01616549
136	0x3d42545d	0.047443736
137	0x3d249a18	0.040186018
138	0xbd8fbf4a	-0.07018907
139	0x3dcac874	0.09901515
140	0x3d7c7ebc	0.0616443
141	0xbd77aaaf	-0.06046551
142	0x3da8414c	0.082155794
143	0x3e80c68c	0.2515148
144	0xbe5eac53	-0.21745424
145	0x3def07bd	0.11671398
146	0x3de7a9dd	0.11311696
147	0x3d8a559d	0.06754611
148	0x3d03664b	0.032079976
149	0xbe1297e7	-0.14315759
150	0xbdcb6a19	-0.09932346
151	0xbd3b9d8a	-0.045804538
152	0xbd870f53	-0.0659472
153	0x3dc28984	0.09498885
154	0x3e798cfd	0.24370189
155	0x3dc4efc3	0.096160434
156	0xbe577d25	-0.21043833
157	0x3db9c784	0.09071258
158	0xbd93d206	-0.07217793
159	0x3e0c01d8	0.13672578
160	0x3c296bc5	0.010340636
161	0x3e280b4d	0.16410561
162	0x3e0e5ee4	0.13903385
163	0xbe06e0f2	-0.13171747
164	0x3d58e57d	0.052953232
165	0xbd89825f	-0.067143194
166	0x3d94da8d	0.07268248
167	0xbe185145	-0.14874752
168	0xbe73d429	-0.23811401
169	0xbe0dc172	-0.13843325
170	0x3dac556a	0.08414729
171	0x3debc48f	0.115121
172	0xbc143aa1	-0.009047181
173	0xbdc7511f	-0.097322695
174	0x3d825cca	0.06365354
175	0xbc088fe9	-0.008335092
176	0xbdcd28a1	-0.10017515
177	0xbd827ba4	-0.06371239
178	0x3dbbbe0d	0.09167109
179	0x3d8e0d17	0.069360904
180	0xbe132084	-0.14367872
181	0x3c9fa0b4	0.019485809
182	0xbe1ea9df	-0.15494488
183	0x392604b9	0.00015832753
184	0x3bba023f	0.0056765373
185	0xbdeb5483	-0.11490729
186	0x3e2c8462	0.16847375
187	0x3d67bb28	0.05657497
188	0xbd100219	-0.03515825
189	0xbdbeb5cc	-0.09312019
190	0x3c265a61	0.010153384
191	0xbc9fc2fd	-0.019502157
192	0x3e5e8dd5	0.21733792
193	0x3d0b48c2	0.034004934
194	0x3da57426	0.08078794
195	0xbd50954e	-0.050923638
196	0x3e2a8583	0.16652493
197	0xbd3206ee	-0.04346364
198	0x3d9e114e	0.07718144
199	0x3e4f8177	0.2026423
200	0xbdc52f08	-0.09628111
201	0xbdc50c1e	-0.09621452
202	0xbe64acdd	-0.22331567
203	0xbe1524d0	-0.14564824
204	0x3c656bc9	0.014002749
205	0xbdbdfa5d	-0.09276269
206	0x3dd6116c	0.10452542
207	0xbe39e561	-0.18153907
208	0x3c249d6c	0.010047298
209	0xbcba2ee7	-0.022727443
210	0xbe2a9134	-0.16656953
211	0x3d72a971	0.059243623
212	0xbde57a16	-0.11204927
213	0xbdbad128	-0.09121925
214	0x3d9da0d9	0.07696695
215	0xbdee1869	-0.116257496
216	0x3e3c307c	0.1837787
217	0xbe1634cc	-0.14668578
218	0x3dca4148	0.09875733
219	0x3e397e94	0.18114692
220	0x3c5aa766	0.013345575
221	0x3d11dbdb	0.03561006
222	0xbc403c5f	-0.011733144
223	0xbe1b6b96	-0.1517776
224	0xbccd0fc5	-0.025031934
225	0x3d078131	0.03308219
226	0xbda668fa	-0.081254914
227	0xbe4d0037	-0.20019613
228	0x3d894ea0	0.0670445
229	0xbe5f4558	-0.21803796
230	0x3d5c1e9b	0.053740125
231	0x3c0eb6f5	0.008710613
232	0xbe404bce	-0.18778917
233	0xbd4d5d87	-0.050138023
234	0x3e746200	0.23865509
235	0x3dfbbd7d	0.122920014
236	0x3e2d8f10	0.16949105
237	0xbe4e427f	-0.20142554
238	0x3e310997	0.17288814
239	0x3d97a045	0.07403616
240	0xbd32cdc2	-0.043653257
241	0x3af51a1b	0.0018699797
242	0x3cd01e45	0.025405059
243	0x3d37668d	0.044775534
244	0x3d85dfc0	0.065368176
245	0xbe4ea935	-0.20181735
246	0x3da02c64	0.07820967
247	0x3e860570	0.26176023
248	0xbe162cbc	-0.14665502
249	0x3dd48e4d	0.10378704
250	0x3e54bf7d	0.20776172
251	0xbe55f9f3	-0.2089613
252	0xbbaf06fd	-0.0053414092
253	0x3dbe36e1	0.09287811
254	0x3c976f62	0.018485729
255	0xbd99ad27	-0.07503729
