ecg/CL_trial_9_best_model.pth (torch, 142416 bytes, 15 tensors)

conv1.weight f4 [64, 1, 50]
0	0x3e009281	0.12555887
1	0x3e06f5e6	0.1317974
2	0xbcb33966	-0.021877956
3	0x3e0f380e	0.13986227
4	0xbcc02ecc	-0.023459814
5	0x3d0bced0	0.03413278
6	0xbd8579d0	-0.065173745
7	0x3db1145f	0.086464636
8	0x3ddea94b	0.10872134
9	0xbdfaebf7	-0.12252038
10	0x3dd44926	0.103655145
11	0x3bd29363	0.0064262613
12	0x3da93679	0.08262343
13	0xbbf9c1f2	-0.007621997
14	0x3d297f55	0.0413812
15	0xbd392b5f	-0.045207378
16	0x3dad7f19	0.084715076
17	0xbacbc205	-0.0015545493
18	0xbdaacec6	-0.0834022
19	0x3cba8f8a	0.022773523
20	0xbd9da720	-0.07697892
21	0xbcd74789	-0.026279228
22	0xbd874325	-0.06604604
23	0x3dac6b5c	0.08418915
24	0xbdfe86d6	-0.12428062
25	0xbda2c52e	-0.07947765
26	0xbd69225b	-0.05691753
27	0xbddda685	-0.10822777
28	0xbc804a81	-0.015660526
29	0xbe2d0436	-0.16896138
30	0x3dce946c	0.10086903
31	0xbe181d60	-0.14854956
32	0x3da51f40	0.08062601
33	0xbb961288	-0.004579846
34	0xbd97d5d9	-0.07413835
35	0x3d780955	0.060555775
36	0xbb78aed9	-0.0037946014
37	0x3dafe8d1	0.08589328
38	0x3a06567f	0.0005124583
39	0xbd7a9e2a	-0.061185993
40	0x3cb74481	0.022371532
41	0xbd5db930	-0.054131687
42	0x3d1418e4	0.03615655
43	0x3d8734a1	0.06601835
44	0x3d70cdf7	0.058790173
45	0xbd9db7ac	-0.07701048
46	0x3d929d28	0.071588814
47	0x3aa3e6ed	0.0012504734
48	0x3d47e313	0.04880054
49	0xbdd9beac	-0.10632071
50	0xbe2fad97	-0.17156063
51	0xbdb04538	-0.086069524
52	0xbe0e3a18	-0.13889349
53	0x3db3c88d	0.087784864
54	0x3c7124ef	0.014718278
55	0x3d0b1b76	0.033961736
56	0x3c96b578	0.018397078
57	0xbcdfcccf	-0.02731934
58	0x3db76c94	0.089562565
59	0xbdf7d283	-0.12100699
60	0xbc31017d	-0.0108035775
61	0xbde97836	-0.113998815
62	0x3d018877	0.031624284
63	0xbd2044e1	-0.039128188
64	0x3d655316	0.05598744
65	0xbc4ce2dd	-0.01250526
66	0x3e0c24dd	0.13685937
67	0xbd883966	-0.06651573
68	0xbd88091e	-0.06642364
69	0xbd875499	-0.066079326
70	0x3e159d8e	0.14610884
71	0x3d98af96	0.07455365
72	0x3e28cad2	0.1648362
73	0xbdca5e47	-0.09881263
74	0xbe00bc95	-0.12571938
75	0xbdbca741	-0.09211589
76	0xbd90d359	-0.07071561
77	0x3db2089a	0.08693047
78	0x3d9ab0ae	0.0755323
79	0x3e180caa	0.14848581
80	0xbd1f4925	-0.038888115
81	0xbd7a5d48	-0.061124116
82	0x3dec2213	0.11529937
83	0xbc85babf	-0.016324399
84	0x3e080ad3	0.13285379
85	0x3c7f7c24	0.015593562
86	0x3df6cd55	0.12050883
87	0xbdac2a63	-0.08406522
88	0xbd49ab9d	-0.04923593
89	0x3d8e8494	0.06958881
90	0x3d664b6f	0.056224283
91	0xbc854c39	-0.016271697
92	0x3dce052d	0.10059581
93	0x3de32c21	0.11092401
94	0xbdb652d4	-0.08902517
95	0xbd6bec60	-0.05759847
96	0x3e1a77e2	0.15084794
97	0xbcfe119b	-0.031014254
98	0xbd1ece52	-0.03877098
99	0xbe020018	-0.12695348
100	0xbdfb342a	-0.12265809
101	0xbacf2bf3	-0.0015805945
102	0xbd148988	-0.036263973
103	0xbdeeadc9	-0.11654241
104	0xbbfe3e9c	-0.0077589285
105	0xbddec9df	-0.108783476
106	0xbe06d7cd	-0.13168259
107	0xbdb70df1	-0.08938206
108	0xbe0bd149	-0.13654055
109	0xbdd0c50d	-0.101938345
110	0x3e05defa	0.1307334
111	0x3c78f5ac	0.0151952915
112	0x3cfa3ba4	0.030546017
113	0xbe158291	-0.14600588
114	0xbdfef25f	-0.12448572
115	0xbd9ce34a	-0.076605394
116	0x3c03e3c1	0.008049906
117	0xbe0b8ad0	-0.13627172
118	0xbdb96a7f	-0.09053516
119	0xbde882d1	-0.11353076
120	0xbcde3afe	-0.027127739
121	0xbda44fab	-0.08023008
122	0xbd1cc0ab	-0.03826968
123	0xbdfe4cad	-0.124169685
124	0xbe00339f	-0.12519692
125	0xbde425f8	-0.111400545
126	0xbd9ebdc7	-0.07751041
127	0xbe0e002f	-0.13867258
128	0x3de3cf07	0.11123472
129	0xbd1208c2	-0.035652883
130	0x3de841b0	0.11340654
131	0x3d182581	0.03714514
132	0xbe023e81	-0.12719156
133	0x3dbb51a3	0.0914643
134	0xbd81bb8a	-0.06334598
135	0xbda72fcb	-0.08163413
136	0xbe148c11	-0.14506556
137	0xbe2c332d	-0.16816397
138	0x3c5930ef	0.013256296
139	0xbd66f082	-0.05638171
140	0x3cfb582b	0.03068169
141	0xbe0d441c	-0.13795513
142	0x3dab8515	0.08374993
143	0xbe01261c	-0.12612194
144	0xbd405a0d	-0.04696088
145	0x3ba1f6d7	0.0049427557
146	0x3d2aee1b	0.04173098
147	0x3da05295	0.07828251
148	0x3dc2cd47	0.0951181
149	0xbe11dc5e	-0.1424422
150	0x3c3f66ed	0.011682254
151	0xbda97cf6	-0.082757875
152	0xbd10674a	-0.035254754
153	0xbdfb01d1	-0.12256206
154	0x3df332c1	0.11874915
155	0xbdee562c	-0.1163753
156	0x3d82e5fe	0.06391524
157	0x3d353d72	0.044248052
158	0x3d066d10	0.032818854
159	0xbdb97150	-0.09054816
160	0x3df4ae72	0.11947335
161	0x3ca52bb6	0.020162445
162	0x3a71f1b5	0.00092294376
163	0xbe147425	-0.1449743
164	0x3d2e1cd3	0.042507958
165	0xbcffb937	-0.031216247
166	0xbd37ad5c	-0.044843063
167	0x3e2f8579	0.1714076
168	0x3d775dc7	0.060392167
169	0xbd8fbc89	-0.07018382
170	0xbd87925e	-0.06619714
171	0xbab0e9d0	-0.0013497416
172	0x3d9ed838	0.07756084
173	0xbd4175cd	-0.047231484
174	0xbdf36e73	-0.11886301
175	0xbdc2d0ce	-0.095124826
176	0xbe1f0093	-0.15527563
177	0x3cd3ff10	0.02587846
178	0x3dbf1631	0.093304045
179	0xbe22ee04	-0.15911108
180	0x3ce6856e	0.028139796
181	0x3da85648	0.08219582
182	0x3d01f0f5	0.031723935
183	0xbd47b3a2	-0.048755296
184	0x3d85bc15	0.065300144
185	0x3d4d93a0	0.050189614
186	0x3d0ba886	0.034096263
187	0xbd2116eb	-0.039328497
188	0xbd492c09	-0.04911426
189	0x3bf3de35	0.0074422606
190	0xbd070c11	-0.03297049
191	0xbd60a9f3	-0.054849576
192	0x3d904936	0.07045214
193	0x3dd9ac77	0.10628598
194	0xbcd77bc9	-0.026304143
195	0xbd4a62ea	-0.049410738
196	0xbc65f58f	-0.0140355965
197	0xbc7e55da	-0.015523398
198	0x3d0b1da1	0.033963803
199	0x3d0fec1a	0.035137273
200	0xbe2b439f	-0.16725014
201	0xbdb843e8	-0.08997327
202	0x3da89d39	0.08233113
203	0x3ca8581d	0.020549828
204	0xbd29cd9e	-0.041455857
205	0xbdf40083	-0.1191416
206	0xbdf245a7	-0.118296914
207	0xbe2195a0	-0.15779734
208	0xbd9cc75d	-0.07655213
209	0x3c89d016	0.016822856
210	0x3d75ac6a	0.05997888
211	0x3d0fa7e8	0.035072237
212	0xbe21ad87	-0.15788852
213	0xbdf2e0aa	-0.118592575
214	0xbd5f782f	-0.054557975
215	0x3dd728ae	0.10505806
216	0xbc2e6561	-0.010644288
217	0xbd868f44	-0.065702945
218	0x3cf4dfc8	0.029891863
219	0xbdaca78c	-0.084303945
220	0xbdfa9676	-0.122357294
221	0x3d920008	0.07128912
222	0xbdc89fde	-0.09796117
223	0xbd7dd056	-0.061966263
224	0xbe31d477	-0.17366205
225	0x3d7d7357	0.061877575
226	0x3dbbf84a	0.09178217
227	0x3d1644e1	0.03668678
228	0xbde7f158	-0.113253295
229	0xbe1dd49b	-0.15413134
230	0xbdff7d5c	-0.12475082
231	0x3dbc5e7e	0.091977105
232	0x3d40344c	0.046924874
233	0x3dcb7637	0.09934657
234	0x3d6e9895	0.058250982
235	0x3b98394b	0.0046455017
236	0xbcecbbfb	-0.02889823
237	0xbe0c7aff	-0.13718794
238	0xbe1b542e	-0.15168831
239	0xbe23cc11	-0.15995814
240	0x3cf1ac56	0.029501121
241	0xbdcdfc2c	-0.100578636
242	0xbd732702	-0.059363373
243	0xbde110a5	-0.10989503
244	0xbd5a33b8	-0.05327198
245	0xbe0058b8	-0.12533844
246	0xbdefef00	-0.117155075
247	0x3cc036c5	0.023463616
248	0xbd7c7fdc	-0.061645374
249	0x3d8fc18e	0.070193395
250	0xbcfa7493	-0.030573165
251	0xbdb9bc7a	-0.09069152
252	0xbc36f968	-0.0111678615
253	0xbd51cd75	-0.05122133
254	0xbcd49c14	-0.02595333
255	0xbdf5ee22	-0.12008311

conv1.bias f4 [64]
0	0xbd8ac4ad	-0.06775794
1	0x3dc22de5	0.0948141
2	0x3e08d96c	0.1336419
3	0x3e31a431	0.1734779
4	0xbdb14a9a	-0.08656807
5	0x3e21a3f9	0.15785207
6	0x3e0c76de	0.13717219
7	0x3e387a07	0.180153
8	0x3e09607c	0.13415712
9	0xbc55c68a	-0.013047824
10	0x3e133723	0.14376502
11	0x3e45fc50	0.19334531
12	0xbce09926	-0.027416777
13	0x3d08010d	0.033204127
14	0x3e0659fc	0.13120264
15	0x3e0fecfa	0.14055243
16	0x3df9d9b9	0.121997304
17	0x3e20f727	0.15719281
18	0xbc90d531	-0.017679783
19	0x3a5914e2	0.0008281005
20	0xbcd3ae12	-0.02583984
21	0x3dce8355	0.10083643
22	0x3d4bcc57	0.04975542
23	0xbdab2398	-0.08356398
24	0xbcfda871	-0.030964108
25	0xbdfe3d09	-0.12413985
26	0xbe156af0	-0.14591575
27	0x3e49dd21	0.1971326
28	0xbcecc61e	-0.028903063
29	0x3dea579c	0.114424914
30	0xbc7ac694	-0.015306134
31	0x3c1b7cb0	0.009490177
32	0x3d1040fe	0.03521823
33	0x3e19bb0d	0.1501276
34	0x3ca6d4fe	0.020365234
35	0x3e398e9b	0.18120806
36	0x3df62723	0.120191835
37	0x3dfee453	0.12445893
38	0xbd8b4c46	-0.068016574
39	0xbd768664	-0.06018676
40	0xbd78f85f	-0.06078374
41	0x3ccd46aa	0.02505811
42	0x3c2b1ad0	0.010443404
43	0x3d42c0b6	0.047547065
44	0x3e3e8304	0.18604666
45	0x3e0978c8	0.1342498
46	0xbd2b65d9	-0.041845176
47	0xbd937dfc	-0.07201764
48	0x3e2f9c7f	0.17149542
49	0x3d944246	0.07239203
50	0x3ddbc02c	0.10730013
51	0xbd0a7ee1	-0.033812407
52	0x3b6e903d	0.003640189
53	0x3d9b9c7f	0.07598209
54	0xbdbfdce3	-0.09368303
55	0x3def7699	0.116925426
56	0x3e0d504e	0.13800165
57	0xbc9e4ae0	-0.019322813
58	0xbd240765	-0.040046114
59	0x3ce6c9eb	0.028172454
60	0x3da062f6	0.07831375
61	0x3b9aa2ed	0.0047191293
62	0x3e48ee20	0.19622087
63	0xbdd89c0d	-0.10576639

conv2.weight f4 [32, 64, 10]
0	0x3dbab343	0.09116223
1	0x3da454ae	0.08023964
2	0x3debee48	0.11520058
3	0x3de6b11b	0.11264249
4	0x3db5562d	0.08854327
5	0x3e104410	0.14088464
6	0x3d5cfa47	0.05394962
7	0x3df46b4c	0.11934528
8	0x3da3b0b3	0.07992687
9	0x3dcf5378	0.10123342
10	0x3da139c8	0.07872349
11	0x3db1b3dd	0.08676884
12	0x3daa7c8c	0.08324537
13	0x3e09c4bb	0.13453953
14	0x3dc74477	0.097298555
15	0x3e0b7da1	0.13622142
16	0x3dc1463c	0.09437224
17	0x3dd7ec90	0.105431676
18	0x3df784de	0.12085889
19	0x3e16e02c	0.14733952
20	0x3dd910cb	0.10598906
21	0x3e0f2b8c	0.13981456
22	0x3e02843f	0.1274576
23	0x3e106cb8	0.14103973
24	0x3e118ada	0.14213124
25	0x3e0a4bc7	0.1350547
26	0x3dd88e0f	0.105739705
27	0x3dd4c40c	0.103889555
28	0x3e0651a2	0.13117078
29	0x3e0bd6bb	0.13656132
30	0x3de08ddb	0.10964557
31	0x3e059051	0.13043334
32	0x3db1f672	0.08689584
33	0x3e06fc7d	0.13182254
34	0x3dde1425	0.10843686
35	0x3dad6cb1	0.08467997
36	0x3dbcaa8a	0.09212215
37	0x3daa0760	0.08302188
38	0x3df3ab12	0.118978634
39	0x3db41d86	0.08794694
40	0x3dce3a57	0.10069721
41	0x3de1421e	0.10998939
42	0x3db6a4ae	0.08918129
43	0x3de7c5e7	0.11317044
44	0x3ddbd56e	0.10734068
45	0x3e031056	0.127992
46	0x3e122057	0.14270149
47	0x3db6a3f3	0.089179896
48	0x3e076cf3	0.13225155
49	0x3de0d9ac	0.109790176
50	0x3dba67ff	0.09101867
51	0x3dcbbcd0	0.099481225
52	0x3e0026a8	0.12514746
53	0x3e003f63	0.1252418
54	0x3dea491a	0.11439724
55	0x3dc179ff	0.09447097
56	0x3e0a5bee	0.13511631
57	0x3df4a5ab	0.11945661
58	0x3d9fe3b6	0.07807104
59	0x3ddeb07d	0.10873506
60	0x3dd8621f	0.1056559
61	0x3dc64bf4	0.09682456
62	0x3dbd6375	0.092474855
63	0x3da9d52a	0.08292611
64	0x3e1d6c3c	0.1537332
65	0x3da0ec93	0.07857623
66	0x3e1abde4	0.151115
67	0x3dad140f	0.084510915
68	0x3dcfe275	0.10150615
69	0x3dcb5a9c	0.09929392
70	0x3dbf9ae5	0.09355716
71	0x3e06eecb	0.1317703
72	0x3e0e59ed	0.13901491
73	0x3dbb8481	0.091561325
74	0x3dc1cf14	0.09463325
75	0x3e0c63d1	0.13709952
76	0x3dda27be	0.106521115
77	0x3dfccd20	0.12343812
78	0x3e08f58a	0.13374916
79	0x3dc88314	0.09790626
80	0x3db8f610	0.09031308
81	0x3e04d0db	0.12970297
82	0x3dcc3ac6	0.09972148
83	0x3db6f4e8	0.08933431
84	0x3dc72004	0.09722903
85	0x3dc8931b	0.09793683
86	0x3e20fc0b	0.15721147
87	0x3dfd5d70	0.123713374
88	0x3e0985b9	0.13429917
89	0x3dfcc67d	0.12342546
90	0x3d940c4e	0.072289094
91	0x3e03743c	0.12837309
92	0x3dc3af1f	0.09554886
93	0x3dbe5da8	0.09295207
94	0x3e0a3c40	0.13499546
95	0x3dad317f	0.08456706
96	0x3de447ce	0.11146508
97	0x3d87cba5	0.06630639
98	0x3dfa2e97	0.122159176
99	0x3de87c70	0.113518596
100	0x3da89a9a	0.08232613
101	0x3e0d46c4	0.13796526
102	0x3df4f5ca	0.11960943
103	0x3dc6cd41	0.09707118
104	0x3e18e7bd	0.14932151
105	0x3e0a9646	0.13533887
106	0x3e06d3be	0.1316671
107	0x3dd53dd6	0.10412185
108	0x3dc4b1a8	0.09604198
109	0x3dc6d371	0.09708298
110	0x3e07eba8	0.1327349
111	0x3e041e14	0.12902099
112	0x3db9149c	0.09037134
113	0x3e1a6620	0.1507802
114	0x3e0d3f63	0.13793711
115	0x3dcdbb1f	0.10045456
116	0x3e04f34d	0.12983437
117	0x3dc46151	0.09588874
118	0x3e026d7d	0.12737079
119	0x3e17311f	0.14764832
120	0x3da5388c	0.08067426
121	0x3dccd546	0.10001616
122	0x3debdb19	0.11516399
123	0x3dff11e4	0.12454584
124	0x3dabd58b	0.083903395
125	0x3db57148	0.08859497
126	0x3ddd5fdf	0.108093016
127	0x3deb6c15	0.114952244
128	0x3e02c44a	0.12770191
129	0x3deb33c6	0.114844844
130	0x3de84ce7	0.11342793
131	0x3de1e252	0.11029495
132	0x3de787b8	0.11305183
133	0x3dcc60db	0.09979411
134	0x3df240c4	0.11828759
135	0x3e04f5c8	0.12984383
136	0x3db28b64	0.08717993
137	0x3daab0e1	0.08334518
138	0x3defcc76	0.1170892
139	0x3d96223d	0.07330749
140	0x3e0d6a0a	0.13809982
141	0x3e06875a	0.1313757
142	0x3df8c7ef	0.12147509
143	0x3dcd8684	0.100354224
144	0x3df3479d	0.118788935
145	0x3daf13a0	0.08548665
146	0x3da448ea	0.0802172
147	0x3e1dfeac	0.15429181
148	0x3da9df50	0.082945466
149	0x3daa8876	0.08326809
150	0x3dcac807	0.099014334
151	0x3df77ab6	0.12083952
152	0x3e036086	0.1282979
153	0x3dc242ea	0.09485419
154	0x3dea9baf	0.114554755
155	0x3ddc8221	0.107670076
156	0x3e1924a7	0.14955388
157	0x3e1bf5ee	0.15230533
158	0x3e063eaf	0.1310985
159	0x3df10a0e	0.11769496
160	0x3e18154f	0.14851879
161	0x3dacf8c1	0.084458835
162	0x3e0ace1e	0.1355519
163	0x3dbcdd70	0.09221923
164	0x3e1aed81	0.15129663
165	0x3da262f2	0.079290286
166	0x3e06ea85	0.131754
167	0x3db2602b	0.08709749
168	0x3e0e0bb5	0.13871653
169	0x3dfa8a17	0.1223337
170	0x3e121374	0.14265233
171	0x3da376db	0.07981654
172	0x3e06dff5	0.1317137
173	0x3daa0a1b	0.08302709
174	0x3dab8234	0.08374444
175	0x3df8cf46	0.12148909
176	0x3dc8aedc	0.09798977
177	0x3d9f1d7a	0.07769294
178	0x3d9c6bc3	0.076377414
179	0x3dcf4a40	0.10121584
180	0x3dfe44e3	0.12415483
181	0x3e1b9c00	0.15196228
182	0x3e152ca2	0.14567807
183	0x3de8d991	0.113696225
184	0x3dbab577	0.09116643
185	0x3d9e024f	0.07715284
186	0x3e1664a1	0.14686824
187	0x3db88cc8	0.09011227
188	0x3ddc3253	0.10751786
189	0x3da9ce9c	0.08291361
190	0x3dabce9f	0.08389019
191	0x3def6f7e	0.11691187
192	0x3dd028c3	0.10164025
193	0x3de75e88	0.11297327
194	0x3de0ffe7	0.109863095
195	0x3ddc9b9e	0.10771869
196	0x3dc374cd	0.09543762
197	0x3dcd79bf	0.10032987
198	0x3df969c1	0.12178374
199	0x3e02ca09	0.12772383
200	0x3e172a42	0.14762214
201	0x3daae8b4	0.08345166
202	0x3daafe9e	0.083493456
203	0x3ddd9c54	0.10820833
204	0x3dd28ee6	0.10281162
205	0x3e0f197d	0.13974567
206	0x3e21009a	0.15722886
207	0x3df3e374	0.119086176
208	0x3daf3dfa	0.08556743
209	0x3de524af	0.111886375
210	0x3e0e8714	0.13918716
211	0x3e00e7b0	0.12588382
212	0x3dac33ec	0.08408341
213	0x3de52553	0.1118876
214	0x3d95db08	0.073171675
215	0x3dc7506a	0.09732135
216	0x3e0bd00a	0.1365358
217	0x3dbc5a79	0.09196944
218	0x3e0660db	0.13122885
219	0x3d9ff516	0.07810418
220	0x3e1dfe3f	0.15429018
221	0x3e06919a	0.1314148
222	0x3e0d8405	0.13819893
223	0x3dfed3dd	0.124427535
224	0x3de61ca8	0.112359345
225	0x3dbdf5c1	0.092753895
226	0x3db9a45a	0.09064551
227	0x3db3dad5	0.08781973
228	0x3e136484	0.14393812
229	0x3db594e3	0.088662885
230	0x3df7ca07	0.120990805
231	0x3da834c0	0.08213186
232	0x3dff9e72	0.12481393
233	0x3dcb9218	0.099399745
234	0x3da7e169	0.081972905
235	0x3df150b8	0.11782974
236	0x3d90d43f	0.07071733
237	0x3de2bf95	0.110716976
238	0x3da71c67	0.08159714
239	0x3e0d39bf	0.1379156
240	0x3db2c30f	0.08728611
241	0x3e056842	0.13028052
242	0x3e0a8e97	0.13530956
243	0x3dc02d70	0.093836665
244	0x3e159ca3	0.14610533
245	0x3e1cf97f	0.1532955
246	0x3dc699e0	0.09697318
247	0x3df889b1	0.121356376
248	0x3e07a873	0.13247852
249	0x3e19629f	0.14979027
250	0x3dfe9930	0.12431562
251	0x3d74b1bb	0.05973981
252	0x3d6dd645	0.05806567
253	0x3d0f1578	0.034932584
254	0x3d923f50	0.07140982
255	0x3d8cf537	0.068827085

conv2.bias f4 [32]
0	0x3e1381da	0.14405003
1	0x3d9c1573	0.076212786
2	0x3e13a27c	0.14417452
3	0x3d96db34	0.073660284
4	0x3d19127b	0.03737114
5	0xbd1bd865	-0.038048167
6	0xbcf5f7ee	-0.030025449
7	0x3d032242	0.032015093
8	0xbd405c33	-0.046962928
9	0x3db45d07	0.08806806
10	0xbd9c4e7f	-0.076321594
11	0xbd81c694	-0.06336704
12	0x3d5d37dc	0.05400835
13	0xbcf9188b	-0.03040721
14	0xbd9dedd8	-0.07711381
15	0x3dd3d439	0.10343213
16	0x3d99136a	0.07474406
17	0x3cfb9d4c	0.030714653
18	0x3d4ce45a	0.05002246
19	0x3da780d9	0.081788726
20	0x3dd2c8bb	0.102921925
21	0xbd2ed987	-0.04268792
22	0xbdbabcb7	-0.09118026
23	0xbd770f98	-0.060317606
24	0xbcbe355a	-0.0232188
25	0xbd5aa53f	-0.053380247
26	0xbd739c78	-0.059475392
27	0x3d3f9042	0.046768434
28	0x3d5af3b2	0.053455062
29	0x3c90db32	0.017682645
30	0x3da37cc1	0.07982779
31	0xbdaa2799	-0.08308334

conv3.weight f4 [16, 32, 5]
0	0x3d98d31c	0.07462141
1	0x3e24480e	0.16043112
2	0x3e1214a8	0.14265692
3	0x3db4932c	0.08817133
4	0x3df4ec9a	0.11959191
5	0x3dd5bf81	0.10436917
6	0x3d305516	0.043049894
7	0x3de7e56c	0.113230556
8	0x3df7aa15	0.120929874
9	0x3d9e9929	0.07744057
10	0x3e077d8d	0.13231488
11	0x3defdf04	0.11712459
12	0x3d3fed8f	0.046857413
13	0x3dde5848	0.10856682
14	0x3dfa494d	0.12221012
15	0x3e15fdd5	0.1464761
16	0x3ceefadc	0.029172353
17	0x3c471de4	0.012153123
18	0x3d565b4d	0.052333165
19	0x3dbae027	0.09124785
20	0x3c95b8f2	0.018276665
21	0x3d8149f3	0.06312933
22	0x3cd3f741	0.025874736
23	0x3ccef69e	0.02526408
24	0x3dded469	0.10880358
25	0x3dbf6649	0.09345681
26	0x3d8628ae	0.06550728
27	0x3de0a8e4	0.10969713
28	0x3d131290	0.035906374
29	0x3d8547ec	0.06507859
30	0x3de7b834	0.11314431
31	0x3df66961	0.12031818
32	0x3d9ea51a	0.077463344
33	0xbc4fe9ba	-0.012690002
34	0x3d976932	0.07393111
35	0x3e0de598	0.13857114
36	0x3de10c0e	0.109886274
37	0x3b970923	0.0046092435
38	0x3d680668	0.056646734
39	0x3d257421	0.040393952
40	0xbc866b4d	-0.016408587
41	0xbc348385	-0.011017685
42	0x3dd8e386	0.10590272
43	0x3b8830ea	0.0041562216
44	0x3bea42d1	0.0071490784
45	0x3d50ee0d	0.051008273
46	0x3dad0bd7	0.08449524
47	0x3e1398d4	0.14413768
48	0x3c6ec722	0.014573844
49	0x3d6213ff	0.05519485
50	0x3d2aea26	0.041727208
51	0x3d9c53e3	0.076331876
52	0x3c2e256d	0.01062904
53	0x3d068a99	0.03284702
54	0x3c3e486e	0.011613948
55	0x3d170bc7	0.036876466
56	0x3dc36274	0.09540263
57	0x3ca9aeb8	0.020713195
58	0x3d33e1f0	0.043916643
59	0x3b303d4c	0.0026892005
60	0x3dddbd8c	0.10827169
61	0x3d0c725a	0.03428874
62	0x3dd4aae8	0.1038416
63	0x3b9fc756	0.0048760576
64	0x3de91a35	0.11381952
65	0x3c81eb5d	0.0158593
66	0xbd841ed1	-0.0645119
67	0xbc53dbb3	-0.012930798
68	0xbd42d88c	-0.047569796
69	0xbd025e6e	-0.031828336
70	0xbc8670c7	-0.016411198
71	0x3b90b0ca	0.004415606
72	0x3dbf73ef	0.093482845
73	0x3dbdccc7	0.09267574
74	0x3dfa12f4	0.12210646
75	0x3d5a8eac	0.05335872
76	0x3c7e2fb1	0.0155143
77	0x3e0c7566	0.13716659
78	0x3d832cf7	0.06405061
79	0x3d576747	0.052588727
80	0x3d45faf1	0.04833502
81	0x3e1fd026	0.15606746
82	0x3c9143ad	0.017732466
83	0x3dcff96e	0.10154997
84	0x3dcee336	0.10101931
85	0x3cc41628	0.023936346
86	0x3dcc4cc2	0.09975578
87	0x3dcdda2d	0.10051379
88	0x3ddd175d	0.10795472
89	0x3d9bcfcd	0.07607994
90	0x3dd9031b	0.105962954
91	0x3ddd1e81	0.10796834
92	0x3d765bfe	0.060146324
93	0x3ca88bd3	0.020574486
94	0x3db15cc6	0.08660273
95	0x3db9f822	0.09080531
96	0x3e04e072	0.12976244
97	0x3dcbea07	0.099567465
98	0x3daf4938	0.08558887
99	0x3d5bcb30	0.05366057
100	0x3e195adc	0.14976066
101	0x3e1bf92f	0.15231775
102	0x3e25443e	0.16139314
103	0x3da3f6d3	0.08006062
104	0x3d365578	0.044515103
105	0xbc165d75	-0.009177555
106	0xbcbc36ce	-0.022975352
107	0xbc0a687d	-0.0084477635
108	0x3cf1fdc0	0.029539943
109	0x3dee6deb	0.11642059
110	0xbc94b922	-0.018154684
111	0x3cffa419	0.031206178
112	0x3db11a34	0.08647576
113	0x3dbc22a6	0.09186296
114	0x3d6e88e9	0.058236036
115	0x3d175a0a	0.036951102
116	0x3d6f8c83	0.05848361
117	0x3baadbb5	0.0052141794
118	0x3dbfed16	0.093713924
119	0x3dceca12	0.100971356
120	0x3d650904	0.0559168
121	0x3dc9af51	0.09847892
122	0x3dae540e	0.08512126
123	0xbd1158ee	-0.0354852
124	0x3b8eedc9	0.0043618423
125	0xbc8a0d0c	-0.016851924
126	0x3d976e48	0.07394081
127	0xbc9ea3fd	-0.019365305
128	0x3d8f46e2	0.06995942
129	0xbcb6de1f	-0.022322712
130	0x3dc2dedd	0.09515164
131	0x3a321095	0.0006792632
132	0xbc861548	-0.01636757
133	0x3cbb6df4	0.022879578
134	0x3da5c7d5	0.080947556
135	0x3d5ce6c7	0.053931024
136	0x3de7e98c	0.113238424
137	0x3da645c2	0.08118774
138	0x3d30e456	0.043186508
139	0x3da91331	0.082556136
140	0x3e0c3c9f	0.13695
141	0x3d1f30a0	0.03886473
142	0x3e1f1b11	0.15537669
143	0x3ddaf095	0.10690419
144	0x3e02e97e	0.12784383
145	0x3d91bc56	0.07116
146	0x3e1278e0	0.14303923
147	0x3cb94aa9	0.022618609
148	0x3d553434	0.052051738
149	0x3e0b2c96	0.13591227
150	0x3d224aa7	0.039621975
151	0x3e19ccf3	0.15019588
152	0x3d69152b	0.056904953
153	0x3c104bf0	0.008807167
154	0x3e201a3c	0.15635008
155	0x3df3d8ea	0.119066074
156	0x3db2688d	0.08711348
157	0xbc56eaa0	-0.013117462
158	0x3d92421f	0.07141518
159	0x3d124dde	0.03571879
160	0x3c66a396	0.014077088
161	0xbd32aed0	-0.043623745
162	0xbd8cdcdd	-0.06878064
163	0xbe114fce	-0.141906
164	0xbdbbad67	-0.09163933
165	0xbbe79aab	-0.0070679984
166	0xbe043ba0	-0.1291337
167	0xbd737b1f	-0.05944359
168	0xbe04e43b	-0.12977688
169	0xbd99b111	-0.07504476
170	0xbdbda5fa	-0.09260173
171	0xbdaff634	-0.085918814
172	0xbd9d5292	-0.07681765
173	0xbdc7f88b	-0.09764203
174	0xbdd85b2b	-0.10564264
175	0xbcf7b555	-0.030237833
176	0xbd6aacab	-0.057293575
177	0xbddb3d8a	-0.10705097
178	0xbcee3009	-0.02907564
179	0x3bec4cfd	0.007211326
180	0xbca5347d	-0.02016663
181	0xbcea5494	-0.028604783
182	0xbda0d39f	-0.078528635
183	0xbbda4d5d	-0.0066620545
184	0xbdc4323b	-0.09579893
185	0xbc7f4fb1	-0.015582965
186	0x3c90ca47	0.017674578
187	0xbd82c3c4	-0.063849956
188	0xbdc70769	-0.0971821
189	0xbcfcba8a	-0.030850668
190	0xbd864889	-0.06556804
191	0xbc180b8a	-0.009280095
192	0xbdb6ca81	-0.08925343
193	0x39b60d0e	0.00034723472
194	0x3a8bdfdc	0.0010671574
195	0xbca32ad6	-0.019917887
196	0xbd465c82	-0.048428066
197	0xbdb4b919	-0.08824367
198	0xbb7ade58	-0.00382795
199	0xbd96245c	-0.07331154
200	0xbda7b670	-0.08189094
201	0x3bddc764	0.006768154
202	0xbd9789a0	-0.07399297
203	0xbc98ab94	-0.018636502
204	0xbcad49ff	-0.021153448
205	0xbddbef61	-0.10739017
206	0xbccdbd5f	-0.025114713
207	0xbdab04b0	-0.083505034
208	0xbd12c652	-0.035833664
209	0xbe045ce1	-0.12926055
210	0xbcdf8400	-0.027284622
211	0x3c203614	0.009778518
212	0xbdb9152a	-0.0903724
213	0x3ca1dfe9	0.019760089
214	0xbdd4767f	-0.10374164
215	0xbcf56387	-0.029954685
216	0xbcefdafc	-0.029279225
217	0xbd5d149a	-0.053974725
218	0xbcdace15	-0.026709596
219	0xbd05c347	-0.032656934
220	0xbde649d0	-0.11244547
221	0xbe116a7b	-0.14200775
222	0xbe096ce7	-0.13420449
223	0xbda0da4e	-0.07854138
224	0xbd9ce553	-0.076609276
225	0xbd9857ee	-0.07438646
226	0xbd8aefca	-0.067840174
227	0xbe0891bf	-0.13336848
228	0xbe0ead62	-0.13933328
229	0xbdc2fca1	-0.095208414
230	0xbddd6d28	-0.108118355
231	0xbc396ffd	-0.011318204
232	0xbd9cfe6f	-0.07665717
233	0xbdb6d2b7	-0.089269094
234	0xbd2d583e	-0.042320482
235	0xbd5f0983	-0.05445243
236	0xbcf3098a	-0.029667635
237	0xbd8d4879	-0.06898589
238	0xbd36b139	-0.044602606
239	0xbd5e3961	-0.05425394
240	0xb8c9f44a	-9.629929e-05
241	0xbd38e384	-0.04513885
242	0xbd228081	-0.039673332
243	0xbd85d2bd	-0.06534336
244	0xbd08f454	-0.033436134
245	0xbd6f32da	-0.058398105
246	0xbdbe09dc	-0.09279224
247	0xbdcd36f8	-0.1002025
248	0xbc00c93d	-0.007860479
249	0xbd468cee	-0.048474245
250	0x3c1f1673	0.009709942
251	0xbcb5b3d6	-0.022180479
252	0xb9786592	-0.00023688961
253	0xbd9f9d24	-0.07793644
254	0xbc9cf36c	-0.019159041
255	0xbd60cc81	-0.05488253

conv3.bias f4 [16]
0	0x3e1fa4fd	0.15590282
1	0xbd584422	-0.05279935
2	0x3d7f1c28	0.06228271
3	0xbbc2d6b3	-0.0059460043
4	0x3d1b4815	0.03791054
5	0xbe00f676	-0.12594017
6	0xbd9e044f	-0.077156655
7	0x3d165bbb	0.036708575
8	0xbd57f32a	-0.052722134
9	0xbb992adc	-0.0046742987
10	0x3d857d66	0.065180585
11	0xbdad1e33	-0.08453026
12	0x3d66e8b3	0.056374263
13	0x3c695a0b	0.014242659
14	0x3c92377c	0.017848723
15	0xbdd1b8f1	-0.10240353

lstm.weight_ih_l0 f4 [128, 16]
0	0x3e6f5efb	0.23376076
1	0x3d61098e	0.054940753
2	0x3cfa767b	0.030574074
3	0x3df603c7	0.12012439
4	0xbd26133a	-0.04054568
5	0xbde0dc65	-0.10979537
6	0x3d9d5817	0.076828174
7	0x3e57eafa	0.2108573
8	0x3e0355b0	0.12825656
9	0x3e346606	0.17617044
10	0x3e40a209	0.18811812
11	0x3dc2d03e	0.09512375
12	0x3e0087bf	0.12551783
13	0xbe232f6b	-0.15936057
14	0x3dba024b	0.090824686
15	0x3e377105	0.17914207
16	0xbd69e25e	-0.057100646
17	0xbe4021c9	-0.18762888
18	0x3d46ef56	0.048568092
19	0xbe2bcff0	-0.1677854
20	0x3cf6dd60	0.030134857
21	0x3dd26c4e	0.10274564
22	0x3cf0fbdd	0.029416973
23	0x3e811883	0.25214013
24	0xbc7c6f9a	-0.015407467
25	0xbd7b6b36	-0.06138154
26	0x3daa8e6a	0.083279446
27	0xbdda9738	-0.10673374
28	0x3d86435c	0.065558165
29	0xbe0ceaee	-0.13761494
30	0xbe3a52b1	-0.18195607
31	0xbd1b378f	-0.03789478
32	0x3df89a3e	0.12138794
33	0x3deb0be9	0.11476881
34	0x3dfca03c	0.1233525
35	0xbc3616af	-0.011113807
36	0xbdd4436a	-0.10364421
37	0x3e0c3d07	0.13695155
38	0x3df067d8	0.117385566
39	0xbd80f425	-0.06296567
40	0x3e2b7f41	0.16747762
41	0x3cfc84ac	0.030824982
42	0xbd310293	-0.043215346
43	0xbd5db5d5	-0.054128487
44	0x3d341775	0.043967683
45	0xbdadd2e8	-0.08487493
46	0x3db10dec	0.086452335
47	0xbd3a153a	-0.0454304
48	0xbc0d8e52	-0.008639889
49	0x3e0308e8	0.12796366
50	0x3ce8b31e	0.028405722
51	0xbd766005	-0.060150165
52	0xbc7249bf	-0.01478809
53	0xbd972ba4	-0.07381371
54	0xbd086fe3	-0.03330983
55	0xbc3b4a55	-0.011431296
56	0xbdedbaad	-0.11607871
57	0xbd2b1d5f	-0.041776057
58	0x3e032cf0	0.12810111
59	0x3e043f80	0.12914848
60	0x3e422095	0.18957742
61	0xbe0f52e4	-0.13996464
62	0xbe3f2d8e	-0.18669721
63	0xbd8ccdd9	-0.068752
64	0x3e862c8d	0.26205865
65	0x3d2d5015	0.0423127
66	0x3e6f98e0	0.23398161
67	0x3da91187	0.08255296
68	0x3e4500cd	0.19238587
69	0xbd874fc7	-0.06607013
70	0x3dc05f66	0.09393196
71	0xbd271832	-0.04079456
72	0x3ce63d76	0.028105479
73	0x3da26389	0.07929141
74	0xbd21d184	-0.03950645
75	0xbe2c1b52	-0.16807297
76	0xbc222901	-0.009897471
77	0xbd2ca53e	-0.042149775
78	0xbd9b806f	-0.07592856
79	0x3dcd6d64	0.1003063
80	0xbcbe8b10	-0.02325967
81	0x3e759479	0.23982419
82	0xbc270fcc	-0.010196637
83	0x3e2659c0	0.16245174
84	0x3e6d1c08	0.23155224
85	0x3e5a2418	0.21302831
86	0x3ae554e4	0.0017496613
87	0xbca9a3e8	-0.02070804
88	0xbd9a49a8	-0.0753358
89	0xbd3bf469	-0.045887385
90	0x3ce22586	0.027605783
91	0x3b2aba45	0.0026050967
92	0x3e06d4f3	0.13167171
93	0x3e547832	0.20748976
94	0x3df47616	0.119365856
95	0x3d462db6	0.048383437
96	0xbb402868	-0.002932096
97	0xbe03bd7a	-0.12865248
98	0x3e54eecf	0.20794223
99	0xbe5418f9	-0.20712651
100	0x3d10ee12	0.03538329
101	0xbe65bb51	-0.22434737
102	0xbc11af77	-0.008891932
103	0xbd94eaf7	-0.072713785
104	0xbe2fe2f6	-0.17176422
105	0xbc02d176	-0.00798451
106	0xbd195869	-0.03743783
107	0xbc6c55e3	-0.014424774
108	0x3e5c2152	0.21497086
109	0xbdac6599	-0.08417816
110	0x3c1b52aa	0.009480158
111	0xbdf24fc8	-0.11831623
112	0x3e4ea322	0.20179418
113	0x3e7655ef	0.24056219
114	0x3ceadac9	0.028668778
115	0xbdaa8992	-0.08327021
116	0x3e67e32a	0.2264525
117	0x3e355764	0.17709118
118	0x3e28a369	0.16468586
119	0x3de00593	0.10938563
120	0x3d5e563b	0.054281455
121	0x3def34ef	0.11680018
122	0x3df4562d	0.11930499
123	0xbba54be0	-0.0050444454
124	0x3e0870da	0.133243
125	0x3e582e7b	0.21111481
126	0xba4ba249	-0.0007768018
127	0xbdb32e4c	-0.08749065
128	0xbc08742b	-0.008328478
129	0x3d910e3e	0.070827946
130	0x3e2dc6cf	0.1697037
131	0x3d961d7b	0.07329842
132	0x3e83f60d	0.2577366
133	0x3dd8c284	0.10583976
134	0x3e3216a7	0.17391454
135	0xbd56c7ae	-0.052436523
136	0x3dd51502	0.104043975
137	0x3e38530d	0.18000431
138	0x3e15eca5	0.14641054
139	0x3df5067d	0.11964128
140	0xbd3832fd	-0.0449705
141	0x3e5f5e02	0.21813205
142	0x3d29a120	0.041413426
143	0xbdfb3497	-0.1226589
144	0x3e022bd8	0.12712038
145	0x3d51da96	0.05123385
146	0x3e35870a	0.17727295
147	0x3ddb5279	0.1070909
148	0x3dcd25d8	0.10016984
149	0x3d40cbd8	0.0470694
150	0x3e647a38	0.22312248
151	0x3e12bf5c	0.1433081
152	0x3d8aeccf	0.06783449
153	0xbdc251bc	-0.09488246
154	0xbd8eae17	-0.06966799
155	0x3ba3c86b	0.004998257
156	0xbd80361d	-0.06260321
157	0xbd56e8e1	-0.052468184
158	0xbe61d8a4	-0.22055298
159	0xbe647923	-0.22311835
160	0xbc6b4496	-0.014359614
161	0xbdc83388	-0.09775454
162	0x3e3479a8	0.17624533
163	0x3dc966ed	0.09834085
164	0x3cb75b9a	0.022382546
165	0x3e5d2e00	0.21599579
166	0x3e2b124d	0.167062
167	0x3e36ebea	0.17863432
168	0xbdec9d47	-0.11553436
169	0xbd94e295	-0.072697796
170	0x3bfed30b	0.007776623
171	0x3e2e19ae	0.17001984
172	0xbdb0db59	-0.08635587
173	0xbd8a1fec	-0.0674437
174	0x3d8044d2	0.062631264
175	0x3deee04c	0.11663875
176	0x3e4c9951	0.1998036
177	0x3dc8872b	0.09791406
178	0x3d8d6798	0.069045246
179	0xbc5834b0	-0.013196155
180	0x3dbf8afe	0.093526825
181	0x3e297b65	0.16550978
182	0xbd514347	-0.05108955
183	0xbd83c213	-0.06433501
184	0xbc92a58f	-0.01790121
185	0x3d9f3193	0.077731274
186	0x3e3abd9e	0.18236396
187	0x3df9a5f4	0.12189856
188	0x3e8abccd	0.2709717
189	0xbc136b4a	-0.008997748
190	0x3de865b0	0.1134752
191	0xbd88c0aa	-0.06677373
192	0xbdfe8d69	-0.124293156
193	0xbe001ecc	-0.12511748
194	0x3d802d4a	0.06258638
195	0xbd8d13ad	-0.068885185
196	0xbe0b1722	-0.13583043
197	0x3ae97726	0.0017811998
198	0xbe176e96	-0.14788279
199	0xbd20464f	-0.03912955
200	0xbe0bdd3d	-0.13658614
201	0x3e2f2fdc	0.171081
202	0x3debd3c3	0.11515
203	0x3e05e740	0.13076496
204	0x3def89a9	0.116961785
205	0x3e1c252e	0.15248558
206	0x3dc8e1f1	0.0980872
207	0x3dd70b42	0.10500194
208	0x3dc167fc	0.094436616
209	0xbdde6926	-0.10859899
210	0x3dc7a233	0.09747734
211	0xbe3dde52	-0.1854184
212	0xbdc3177f	-0.09525966
213	0xbd4c20f6	-0.04983612
214	0xbc9ebf16	-0.019378226
215	0x3ba68eb4	0.0050829295
216	0x3da2b1f7	0.079441
217	0xbd8d3615	-0.06895081
218	0x3e78359a	0.24239197
219	0xbe183360	-0.14863348
220	0xbd9f7916	-0.07786767
221	0x3b7f4e9b	0.0038956765
222	0xbd0d4d29	-0.034497414
223	0xbc14ce75	-0.009082426
224	0x3de2c678	0.11073011
225	0xbdc43229	-0.0957988
226	0xbdc40dc8	-0.09572941
227	0x3d74b4b8	0.05974266
228	0xba7b460a	-0.0009585327
229	0x3db4812e	0.088137016
230	0xbd12bde4	-0.035825625
231	0x3e599aae	0.21250412
232	0x3d25b795	0.04045828
233	0xbda6ef92	-0.08151163
234	0x3bc0db2f	0.0058855037
235	0x3dec0ff5	0.11526481
236	0x3e4c3922	0.1994367
237	0xbe6cebf7	-0.23136888
238	0xbdfebd1f	-0.12438416
239	0xbdcfaa33	-0.10139885
240	0x3e14f752	0.1454747
241	0xbd6b4ed7	-0.057448234
242	0xbca24e4d	-0.019812727
243	0x3d9d21bc	0.0767245
244	0x3dd23223	0.10263469
245	0xbd7fb3d9	-0.062427375
246	0x3e3e8f14	0.18609267
247	0x3e8016eb	0.25017485
248	0xbd902913	-0.07039084
249	0x3e80a1d2	0.2512346
250	0x3e18826d	0.14893503
251	0x3da05e56	0.07830493
252	0x3d26c87d	0.040718544
253	0x3e54c23c	0.2077722
254	0x3e37d435	0.17952044
255	0xbdcf9963	-0.10136678

lstm.weight_hh_l0 f4 [128, 32]
0	0x3cefc4e8	0.029268697
1	0x3e0f1d88	0.13976109
2	0x3cf610cc	0.030037306
3	0x3c14fde8	0.009093739
4	0xbe304532	-0.17213896
5	0xbe44ced8	-0.1921953
6	0x3e5f5710	0.21810555
7	0xbcd3fa8b	-0.025876304
8	0xbe5315d2	-0.20613793
9	0x3da4ea54	0.08052507
10	0x3dbef5fd	0.09324262
11	0x3e152d7b	0.1456813
12	0x3a9fade3	0.001218256
13	0xbe4493dc	-0.19197029
14	0x3d65831a	0.05603323
15	0x3d92f32e	0.07175289
16	0xbe725594	-0.23665458
17	0x3e2387bd	0.15969749
18	0xbd44c20f	-0.04803663
19	0x3dabde25	0.0839198
20	0xbe16efd4	-0.14739925
21	0xbe7fba62	-0.24973443
22	0xbdc6572a	-0.09684594
23	0x3e599e06	0.21251687
24	0x3d795fc2	0.060882337
25	0x3e10a48e	0.14125273
26	0x3e03beb3	0.12865715
27	0x3dd6315a	0.10458632
28	0xbd8fbca4	-0.07018402
29	0xbe2861fa	-0.16443625
30	0x3da6ec77	0.08150571
31	0xbd6ebdfb	-0.05828665
32	0xbda19768	-0.078902066
33	0x3e30d2a2	0.1726785
34	0xbdc840c3	-0.09777977
35	0x3d91e35d	0.07123444
36	0x3db9f21d	0.090793826
37	0xbd76dfca	-0.060272016
38	0xbd0449a1	-0.03229678
39	0xbe839cc8	-0.25705552
40	0xbd7c4a60	-0.061594367
41	0xbe600b04	-0.21879202
42	0x3dc52803	0.09626772
43	0x3df9cb88	0.12197024
44	0xbda7d9b3	-0.0819582
45	0xbe6024d5	-0.2188905
46	0x3e2c8e6a	0.16851202
47	0xbd119662	-0.035543807
48	0xbd724d2f	-0.05915564
49	0x3e67e00a	0.22644058
50	0xbd85e090	-0.065369725
51	0xbe2d3fa3	-0.16918807
52	0xbd01a335	-0.031649787
53	0xbd7889ca	-0.06067828
54	0xbe3b06ed	-0.1826436
55	0x3bff36de	0.007788523
56	0xbe0f4042	-0.13989356
57	0x3db3e2e7	0.087835126
58	0xbd78f96b	-0.06078474
59	0xbe2813dd	-0.16413827
60	0x3db5f93e	0.0888543
61	0xbe081c5a	-0.13292065
62	0x3d9e6ac3	0.07735207
63	0xbd73f84c	-0.059562966
64	0xbdacf9e0	-0.084460974
65	0x3e0cea01	0.1376114
66	0xbd9aee98	-0.075650394
67	0xbdaf396e	-0.08555876
68	0xbd01b296	-0.031664453
69	0xbe5d48eb	-0.21609847
70	0x3e451397	0.19245754
71	0xbe635535	-0.22200473
72	0xbe121554	-0.14265949
73	0xbe4673f1	-0.19380166
74	0x3e17e7be	0.14834496
75	0x3db67277	0.08908551
76	0xbd782499	-0.060581777
77	0xbe6e586e	-0.23275921
78	0x3e5140c7	0.20434867
79	0x3d5c1f60	0.05374086
80	0xbe1a4920	-0.15066957
81	0x3dc079a2	0.093981996
82	0x3db76f76	0.08956806
83	0xbd4ccfa0	-0.050002694
84	0x3d6610ac	0.056168243
85	0x3d05cce8	0.032666117
86	0x3d6bc3af	0.057559665
87	0x3dc449f5	0.09584419
88	0xbe3148ae	-0.17312881
89	0x3d3e3d0e	0.046444945
90	0x3e7310e4	0.23736912
91	0xba33eaea	-0.0006863313
92	0xbe3bbca3	-0.18333678
93	0xbe6efb34	-0.23338014
94	0x3e59ae05	0.2125779
95	0x3e7fb39e	0.24970862
96	0x3cfb077b	0.030643215
97	0x3d847c82	0.064690605
98	0x3e56160d	0.20906849
99	0x3d5fb5f3	0.05461688
100	0x3d63f1b4	0.055650428
101	0x3da0dfc4	0.0785518
102	0xbd37b43d	-0.044849623
103	0x3d9ba043	0.07598927
104	0x3d327e63	0.043577563
105	0xbd1bc5eb	-0.038030546
106	0x3e36e72e	0.17861626
107	0x3dd9b985	0.10631088
108	0xbc761757	-0.015020213
109	0xbb1c7a59	-0.0023876636
110	0x3dd5e212	0.1044351
111	0x3e85425f	0.260272
112	0xbe36c11f	-0.17847107
113	0x3e21cdb4	0.15801126
114	0xbd20354e	-0.039113335
115	0xbe78a048	-0.24279892
116	0x3d8547c1	0.065078266
117	0x3d90db95	0.07073132
118	0x3da1f55c	0.07908127
119	0x3dc3d903	0.09562876
120	0xbdee0e3a	-0.11623807
121	0x3dd2b4ac	0.10288367
122	0xbd44cbf7	-0.04804608
123	0x3cb64e61	0.02225417
124	0xbe4ba5f0	-0.19887519
125	0xbdd950ec	-0.10611138
126	0x3ca364db	0.019945553
127	0xbdacec94	-0.08443561
128	0x3d156de9	0.03648177
129	0x3e0ab76d	0.13546534
130	0x3df34f4d	0.1188036
131	0xbd84441b	-0.064583026
132	0x3d992dd7	0.074794464
133	0x3c7a2014	0.015266437
134	0x3db86062	0.090027586
135	0x3d19d2cd	0.03755455
136	0x3dbdbacb	0.092641436
137	0xbda3acfa	-0.07991977
138	0x3e795045	0.24347027
139	0xbcf5c52e	-0.03000125
140	0xbdce07d5	-0.100600876
141	0x3d064493	0.03278024
142	0xbd57a33b	-0.052645903
143	0xbc006169	-0.007835724
144	0x3dcf9e50	0.101376176
145	0xbca7221f	-0.020402012
146	0x3e098867	0.1343094
147	0x3d4f4a0a	0.05060772
148	0xbd9c1aa0	-0.07622266
149	0xbe360ccd	-0.1777832
150	0xbe5119fe	-0.20420071
151	0x3ded30e2	0.11581589
152	0x3d872339	0.06598515
153	0x3e3d3685	0.18477829
154	0xbd29e3d3	-0.041477036
155	0xbe674899	-0.22586288
156	0xbe2c0b13	-0.168011
157	0xbe230067	-0.15918122
158	0x3dfe1c1f	0.124077074
159	0xbc1b17e4	-0.009466145
160	0x3b861c57	0.004092734
161	0xbd7906ce	-0.060797505
162	0x3e612944	0.21988398
163	0xbe5dd8ce	-0.21664736
164	0xbdbeaf4c	-0.09310779
165	0x3b12a8e2	0.0022378494
166	0x3e429480	0.19001961
167	0xbe7c2015	-0.24621613
168	0xbe68bd61	-0.22728492
169	0x3d878c57	0.066185646
170	0x3d7da271	0.061922494
171	0x3e10ab14	0.14127761
172	0x3e365bb5	0.17808421
173	0x3d81279f	0.06306385
174	0xbdb0a430	-0.08625066
175	0x3cb3839d	0.021913344
176	0xbe535451	-0.20637633
177	0xbd24c582	-0.04022742
178	0x3e39b3e6	0.18135032
179	0x3d230123	0.039796006
180	0x3d296223	0.041353356
181	0xbe0ec048	-0.13940537
182	0xbe241009	-0.16021742
183	0x3c6710b5	0.014103104
184	0xbc131e78	-0.008979432
185	0x3e192567	0.14955674
186	0x3ddd8662	0.10816647
187	0x3c794659	0.015214526
188	0x3c578edd	0.01315662
189	0xbc57daf9	-0.013174766
190	0x3d93c857	0.07215946
191	0x3de93b91	0.113883145
192	0xbe0b7326	-0.13618144
193	0x3de6fd1d	0.11278746
194	0xbdc354c2	-0.09537651
195	0xbe0132a1	-0.1261697
196	0xbe05defc	-0.13073343
197	0xbe258fce	-0.16168138
198	0x3c49f08e	0.012325419
199	0x3e0d0b4f	0.13773845
200	0x3d5cd2dc	0.05391203
201	0xbc96e870	-0.018421382
202	0xbc326071	-0.010887251
203	0xbd727605	-0.059194583
204	0xbc663866	-0.014051532
205	0xbde1c114	-0.11023155
206	0x3d17494f	0.036935147
207	0xbdce7f45	-0.100828685
208	0x3d8faff2	0.07015981
209	0x3d42b422	0.04753507
210	0xbc0078ad	-0.007841271
211	0xbd3aece2	-0.045636065
212	0xbdf4a112	-0.11944784
213	0xbe32c819	-0.17459144
214	0xbd6b6904	-0.057473198
215	0xbe2fe1e7	-0.17176019
216	0xbde4a949	-0.11165101
217	0x3e000e4f	0.12505458
218	0xbd963517	-0.07334345
219	0x3dff775e	0.12473939
220	0x3e11db38	0.14243782
221	0x3a916e12	0.0011095426
222	0xbda92923	-0.08259799
223	0xbd86ed52	-0.06588234
224	0xbdf4db28	-0.11955863
225	0x3d77dce8	0.060513407
226	0xbd8491d6	-0.064731285
227	0xbe065a57	-0.131204
228	0xbd34ad54	-0.04411061
229	0xbe8015d3	-0.2501665
230	0xbd93999d	-0.07207034
231	0xbbc90478	-0.006134566
232	0xbe058f71	-0.13043
233	0xbe3b144f	-0.18269466
234	0x3dbec4d2	0.09314884
235	0x3e3bb2e0	0.18329954
236	0x3e1d1cd5	0.1534303
237	0xbdef80a2	-0.11694457
238	0x3d440c3f	0.04786324
239	0x3e32e967	0.17471848
240	0x3d9f29ec	0.07771668
241	0x3a600ad5	0.0008546536
242	0x3e1d88f2	0.15384272
243	0xbdf38e2b	-0.11892351
244	0x3dd71d44	0.10503629
245	0x3ba1daa8	0.004939396
246	0xbe6be80d	-0.23037739
247	0x3c1383fd	0.009003636
248	0xbc6ac0f8	-0.014328234
249	0xbd70a44f	-0.058750447
250	0xbdb7f156	-0.08981578
251	0xbd74a6c7	-0.059729364
252	0xbe4fec6d	-0.20305033
253	0xbdaa427d	-0.08313463
254	0xbd33e48a	-0.043919124
255	0xbdb2b8d5	-0.0872666

lstm.bias_ih_l0 f4 [128]
0	0x3e314496	0.1731132
1	0x3b8e1c9f	0.004336908
2	0x3e4daf95	0.2008651
3	0xbd1e8bb9	-0.03870747
4	0x3e2a14be	0.16609475
5	0x3e3a3bfa	0.18186942
6	0xbc519aab	-0.012793223
7	0x3e865abf	0.2624111
8	0x3e450805	0.1924134
9	0x3d1e035d	0.038577426
10	0x3d10625a	0.035250045
11	0x3defab24	0.11702564
12	0xbdee9138	-0.11648792
13	0x3d3d5413	0.046222758
14	0xbdbbfe64	-0.091793805
15	0x3e231d9d	0.15929265
16	0x3dc1f9c0	0.09471464
17	0xbe20f510	-0.15718484
18	0x3d4cbe51	0.049986187
19	0x3e206e97	0.15667187
20	0xbe209090	-0.15680146
21	0x3e1773e7	0.14790307
22	0x3ca0faba	0.019650806
23	0x3de27c4c	0.11058864
24	0x3da88ceb	0.08230003
25	0xbd5ac268	-0.053408056
26	0x3dc03f36	0.093870565
27	0xbddf568f	-0.109051816
28	0x3d2f4584	0.042790905
29	0x3de190f9	0.110139795
30	0x3d7f2763	0.06229342
31	0x3d357bd4	0.044307545
32	0x3e725832	0.23666456
33	0x3e68151d	0.22664304
34	0xba0ab073	-0.0005290575
35	0x3de4fd4c	0.11181125
36	0x3e24e0e2	0.16101411
37	0x3daa2a92	0.08308901
38	0x3d1efbe9	0.03881446
39	0x3d2060dc	0.039154872
40	0x3e0804b2	0.13283041
41	0xbd725604	-0.059164062
42	0x3d2081a8	0.03918615
43	0x3cf8450f	0.030306367
44	0x3ad8ed4e	0.0016550214
45	0x3e0a4beb	0.13505523
46	0xbdab358c	-0.08359823
47	0xbc7aa203	-0.015297416
48	0x3da14a56	0.078755066
49	0x3d68c06d	0.056824137
50	0xbd9747ba	-0.07386728
51	0x3dcaedc3	0.09908631
52	0xbe1dd975	-0.15414985
53	0xbd99f628	-0.07517654
54	0x3e9b6b1a	0.3035515
55	0xbc4734b3	-0.012158561
56	0x3d23edfa	0.040021874
57	0x3e797aad	0.24363203
58	0x3bad2784	0.0052842516
59	0xbde44ebb	-0.11147829
60	0xbd098588	-0.03357461
61	0xbb416bbc	-0.0029513678
62	0x3e00b222	0.12567952
63	0x3e21cda3	0.158011
64	0xbc496d37	-0.012294105
65	0x3d42765e	0.047476165
66	0x3e1e81e5	0.15479238
67	0xbe08c435	-0.13356097
68	0x3d384014	0.044982985
69	0xbe4c0942	-0.19925407
70	0x3da2ddaa	0.07952435
71	0xbe635ea7	-0.22204076
72	0xbe1bb475	-0.15205558
73	0xbdd2ba3c	-0.10289428
74	0x3dd7ed6b	0.10543331
75	0x3e3f4ec7	0.18682395
76	0xbe53e699	-0.20693435
77	0x3c717850	0.014738157
78	0x3d02f393	0.03197057
79	0x3decd4cd	0.11564026
80	0xbe46ceb7	-0.19414793
81	0xbe3c4bb8	-0.1838826
82	0x3d6a0902	0.057137497
83	0x3badd7da	0.0053052725
84	0xbe7568da	-0.23965779
85	0xbe34e07a	-0.17663756
86	0xbe69a404	-0.22816473
87	0x3d54e765	0.051978488
88	0xbe566f82	-0.20940974
89	0xbc9f1d59	-0.019423174
90	0x3c3733ed	0.011181814
91	0xbd94d03f	-0.07266282
92	0xbe3a8ed9	-0.18218555
93	0xbe1b7945	-0.1518298
94	0x3c95549d	0.018228823
95	0x3de2ae94	0.110684544
96	0x3db49160	0.088167906
97	0x3e615352	0.2200444
98	0x3dff26dc	0.12458584
99	0x3e4af2ab	0.19819133
100	0x3e4c1c05	0.19932564
101	0x3dc1f520	0.09470582
102	0x3e39b8f5	0.18136962
103	0xbc9e0aef	-0.019292323
104	0x3d4ffe75	0.05077978
105	0x3d94fd5d	0.07274888
106	0x3e08bc4e	0.13353083
107	0x3d8ed68d	0.06974516
108	0x3d1061b4	0.035249427
109	0xbd718f94	-0.058974817
110	0x3e69be03	0.2282639
111	0x3e1eb50f	0.15498756
112	0x3d994e28	0.0748561
113	0x3dfec413	0.12439742
114	0x3d34e2c0	0.04416156
115	0xbd8b29a4	-0.06795052
116	0xbe328889	-0.17434897
117	0x3e792b06	0.24332818
118	0x3d15789a	0.036491968
119	0x3e1ae2fb	0.15125649
120	0x3d6c1b40	0.057643175
121	0x3e52ac3d	0.20573516
122	0x3cf15300	0.029458523
123	0x3e00f0df	0.12591885
124	0x3e912cdd	0.2835454
125	0x3def7ffc	0.11694333
126	0xbc87765d	-0.016535932
127	0x3e0dc2d2	0.1384385

lstm.bias_hh_l0 f4 [128]
0	0xbbc21188	-0.0059225
1	0xbd3a9bd9	-0.045558784
2	0x3d89711e	0.067110285
3	0x3d770ba3	0.060313832
4	0x3df7fae4	0.121084005
5	0x3d474ed0	0.048659146
6	0x3d49f551	0.049306218
7	0x3d7c7fc5	0.061645288
8	0xbdb9e978	-0.09077734
9	0x3d2d3e8c	0.042295977
10	0x3df82682	0.1211672
11	0x3e776f44	0.24163538
12	0xbe31dedd	-0.17370172
13	0xbbadb9c3	-0.0053016855
14	0xbd198c1e	-0.03748714
15	0x3d55f4c5	0.052235384
16	0xbc06eda4	-0.008235369
17	0x3e0f9e7b	0.14025299
18	0xbd22b5a5	-0.03972401
19	0xbce0dac3	-0.027448064
20	0xbd813c67	-0.06310349
21	0x3df2783c	0.11839339
22	0x3e9dfc64	0.3085662
23	0x3e0e38e5	0.13888891
24	0x3e84983f	0.25897405
25	0x3dfa4248	0.122196734
26	0xbd25e26c	-0.040499136
27	0x3cb43da8	0.022002056
28	0x3dd35967	0.103197865
29	0x3d49ca4d	0.049265195
30	0x3e16b1fb	0.14716332
31	0xbd1e4a7c	-0.038645253
32	0x3e82a853	0.25519046
33	0xbcf335e0	-0.029688776
34	0x3e877b03	0.26461038
35	0x3e5eb585	0.21748932
36	0x3e61922a	0.22028413
37	0x3cbd230b	0.023087999
38	0xbe06a1b8	-0.13147628
39	0x3e6ae2a9	0.22938026
40	0xbd309953	-0.04311497
41	0xbdc85404	-0.0978165
42	0x3d871518	0.0659582
43	0xbcda1bfd	-0.026624674
44	0xbccb4bf6	-0.024816494
45	0x3e5b1369	0.21394123
46	0x3cfc89be	0.0308274
47	0x3d96cf71	0.07363785
48	0xbc91c160	-0.017792404
49	0x3d812277	0.06305402
50	0x3dfeb172	0.12436189
51	0x3e622674	0.22084981
52	0xbe629615	-0.22127564
53	0x3e035167	0.12824021
54	0x3d0bbc42	0.034115084
55	0x3e4c6f6c	0.19964379
56	0x3d9ce0c3	0.076600574
57	0x3e6b12f9	0.22956456
58	0x3d55e628	0.052221447
59	0xbe599497	-0.21248089
60	0x3d547bac	0.051875755
61	0x3e82a789	0.25518444
62	0x3c00ceb9	0.0078617865
63	0x3dbf0e57	0.09328907
64	0xbe06ee33	-0.13176803
65	0x3cc2aa0a	0.023762722
66	0x3e3935b4	0.18086892
67	0xbd80abd1	-0.062827714
68	0xbe57b39d	-0.21064611
69	0x3db6eef4	0.089322954
70	0xbe10938b	-0.14118783
71	0xbdeb261d	-0.11481879
72	0x3dc30439	0.0952229
73	0x3d1d0729	0.038336907
74	0x3e13301a	0.14373818
75	0x3e74b007	0.23895274
76	0xbdb3b6af	-0.087750785
77	0xbda7d4d0	-0.08194888
78	0x3d266bfb	0.040630322
79	0x3e158ae7	0.14603768
80	0xbdc64cb4	-0.09682599
81	0x3de057b4	0.10954228
82	0x3dae265c	0.0850341
83	0xbe541253	-0.20710115
84	0x3d9b9255	0.0759627
85	0xbca0a520	-0.019609988
86	0xbd24cba8	-0.040233284
87	0x3dae7254	0.085179
88	0x3d250c23	0.040294778
89	0xbd50d1a5	-0.050981183
90	0x3d51e506	0.051243804
91	0xbdf38e63	-0.118923925
92	0xbdd4dd66	-0.10393791
93	0xbe807c5d	-0.25094882
94	0x3e5fbe9c	0.21850055
95	0xbe3658aa	-0.1780726
96	0x3db0133c	0.08597419
97	0xbce47d32	-0.027891729
98	0x3e31dc03	0.17369084
99	0x3dfe0206	0.1240273
100	0x3e17bf96	0.14819178
101	0x3e5cee31	0.21575238
102	0x3e240a26	0.16019496
103	0x3e7e6934	0.2484482
104	0x3d01aba4	0.03165783
105	0xbd1ea39b	-0.038730245
106	0x3e882311	0.26589254
107	0x3e5c4fd4	0.21514827
108	0xbd30104a	-0.042984284
109	0x3c449b3b	0.0119999
110	0xbd8ded81	-0.06930066
111	0x3e5a8935	0.21341403
112	0x3e0746bf	0.13210581
113	0x3dff0423	0.12451961
114	0x3df075f4	0.11741248
115	0x3e765034	0.24054033
116	0xbcf4d738	-0.02988778
117	0x3de01fb2	0.109435454
118	0x3e2e536f	0.17024015
119	0x3e740ab3	0.23832206
120	0x3e5ece5b	0.21758406
121	0x3e80bb11	0.2514272
122	0x3e06c7d3	0.13162164
123	0x3d846757	0.06465023
124	0x3e2637f8	0.16232288
125	0x3e6c05a1	0.23049022
126	0x3e4024f8	0.18764102
127	0x3dbab74e	0.09116994

dense1.weight f4 [32, 32]
0	0xbd911d01	-0.0708561
1	0x3db3a099	0.08770866
2	0x3cf01626	0.029307436
3	0xbe2f7918	-0.17136037
4	0xbdd1de1e	-0.102474436
5	0x3d19e493	0.0375715
6	0x3e7ed8f4	0.24887449
7	0x3c3cc90a	0.011522541
8	0xbc851379	-0.016244637
9	0xbe3fb95f	-0.18723057
10	0x3dff93fa	0.12479396
11	0x3e8f55af	0.2799506
12	0x3c2e3fb4	0.010635305
13	0xbe714819	-0.2356266
14	0xbcd2f5cd	-0.025751973
15	0x3e8a1f18	0.26976848
16	0xbdbffee9	-0.09374792
17	0xbd5b1648	-0.053488046
18	0x3e13e219	0.14441718
19	0xbd2c952f	-0.04213446
20	0xbd9a754c	-0.07541904
21	0xbbd77ca2	-0.0065761367
22	0xbe8009a8	-0.25007367
23	0x3e0d120c	0.13776416
24	0xbe1c4832	-0.15261915
25	0x3db3856e	0.08765684
26	0x3dea70e8	0.114473164
27	0x3d7c3882	0.061577328
28	0xbe2149fc	-0.15750879
29	0xbe8d8282	-0.27638632
30	0xbbceb2b8	-0.006307926
31	0x3d717a7b	0.058954697
32	0x3e6c045c	0.23048538
33	0xbd28fa23	-0.041254174
34	0xbe33ad9d	-0.17546697
35	0x3d970129	0.07373268
36	0x3e218dd3	0.15776758
37	0x3d5f5f58	0.054534286
38	0xbd900721	-0.0703261
39	0xbd28fc3f	-0.041256186
40	0x3dc802a7	0.09766131
41	0xbdad112c	-0.08450541
42	0xbe098a64	-0.13431698
43	0xbd65db8a	-0.056117572
44	0xbc55ef1d	-0.013057497
45	0xbda226bb	-0.079175435
46	0xbe013cdf	-0.12620877
47	0x3d038a89	0.03211454
48	0x3e8036fc	0.2504195
49	0xbdc1c79d	-0.09461901
50	0xbc4da383	-0.012551191
51	0x3d970f86	0.07376008
52	0xbdbe0dff	-0.09280013
53	0x3db73e94	0.08947483
54	0xbd1113bb	-0.035419207
55	0xbdb4ebf4	-0.08834067
56	0xbd114793	-0.03546865
57	0xbe42b142	-0.19012931
58	0xbdf08f3a	-0.11746068
59	0x3c781f46	0.015144175
60	0xbd878139	-0.06616444
61	0x3c919caf	0.017774908
62	0xbe78585f	-0.24252461
63	0xbe4b7a57	-0.19870888
64	0xbe8a401c	-0.27002037
65	0x3a0d4c4c	0.0005390092
66	0x3d56be25	0.05242743
67	0x3df16ba3	0.11788108
68	0xbdbaf03c	-0.09127852
69	0xbe7e1cfb	-0.24815743
70	0x3e82b7ea	0.2553094
71	0xbe470aa6	-0.19437656
72	0xbe2503db	-0.16114752
73	0xbd00aab5	-0.0314128
74	0x3ccfab62	0.025350276
75	0x3d96bff9	0.07360835
76	0x3c1ee26e	0.00969754
77	0xbdc760e2	-0.09735276
78	0xbd51bd25	-0.051205773
79	0x3dae7618	0.08518618
80	0xbd5a7255	-0.05333169
81	0x3e39159f	0.18074654
82	0x3db62385	0.088934936
83	0x3c807d63	0.015684789
84	0xbd3ca1d4	-0.04605277
85	0x3c289387	0.0102890795
86	0xbe1918fb	-0.14950936
87	0x3e0ea95c	0.13931793
88	0xbdf0cf2e	-0.117582664
89	0xbc50eb41	-0.012751401
90	0x3ea34b9a	0.31893617
91	0x3e2fc73f	0.1716585
92	0x3c39c260	0.0113378465
93	0xbe62b5bf	-0.22139643
94	0x3e7ac266	0.2448822
95	0x3e557587	0.20845614
96	0xbde47b60	-0.111563444
97	0x3daf5e29	0.085628815
98	0x3e776aa0	0.24161768
99	0xbe82db84	-0.25558102
100	0x3d680f72	0.056655355
101	0xbe1892ba	-0.14899722
102	0x3cc7fb7a	0.024411906
103	0xbdc3cb75	-0.09560291
104	0xbd4f30ab	-0.050583523
105	0xbda94e09	-0.08266837
106	0x3e5de8f9	0.21670903
107	0xbd011388	-0.031512767
108	0x3c9be79f	0.019031344
109	0xbde931c7	-0.113864474
110	0xbc9c6d3a	-0.019095052
111	0xbd083207	-0.033250835
112	0xbe295bf6	-0.16538987
113	0x3d157ec5	0.03649785
114	0x3dec342f	0.11533391
115	0xbe370641	-0.1787348
116	0x3da59b3c	0.08086249
117	0xbd17e82a	-0.037086643
118	0xbe545762	-0.20736459
119	0x3de9a33d	0.11408088
120	0xbe8781b7	-0.26466152
121	0x3e3b9903	0.18320088
122	0x3d14c1c5	0.036317606
123	0x3d5a0de0	0.05323589
124	0xbc29e2c4	-0.010369007
125	0xbe27e01a	-0.16394082
126	0x3e0010e9	0.1250645
127	0x3dab8bea	0.08376296
128	0xbe8ba010	-0.27270555
129	0x3bc9bb84	0.006156387
130	0x3cbffed8	0.023436949
131	0x3d4829b9	0.048867915
132	0xbe8213de	-0.25405782
133	0xbd4193c2	-0.047260053
134	0x3d55031f	0.05200493
135	0xbd805519	-0.06266231
136	0x3ca3836f	0.019960133
137	0x3bfd5977	0.0077316123
138	0xbcbd27e4	-0.02309031
139	0x3deaee2b	0.11471208
140	0x3d956b0f	0.072958104
141	0xbdd252fd	-0.10269735
142	0x3e04bdec	0.12963074
143	0x3e995671	0.29948762
144	0xbe8665a9	-0.26249436
145	0x3e20c13d	0.15698715
146	0x3e249dda	0.1607584
147	0x3d24e605	0.040258426
148	0x3bc11f66	0.0058936356
149	0xbe33493f	-0.1750841
150	0xbe1960d8	-0.14978349
151	0x3c010af4	0.007876147
152	0xbdd2fe16	-0.10302369
153	0x3e108bd6	0.14115843
154	0x3e954a70	0.29158354
155	0x3d817d74	0.063227564
156	0xbe7eebc2	-0.24894622
157	0x3d2b25ac	0.041783974
158	0xbd32061c	-0.043462858
159	0x3e10194c	0.1407215
160	0xbce6715b	-0.028130224
161	0x3e523f8c	0.20532054
162	0x3e8b154e	0.27164692
163	0xbe31dad8	-0.17368639
164	0x3bab99db	0.005236847
165	0xbdecf52b	-0.115701996
166	0x3df01ad1	0.11723865
167	0xbe4b3414	-0.19844085
168	0xbe91e476	-0.28494614
169	0xbe3f0829	-0.18655457
170	0x3e08fb31	0.13377072
171	0x3e20b34e	0.156934
172	0x3c5f5f30	0.013633534
173	0xbe0a8f10	-0.13531137
174	0x3dcd2cd2	0.100183144
175	0x3d253f8f	0.040343817
176	0xbe156ff0	-0.14593482
177	0xbcd8c297	-0.026459975
178	0x3e0f7ef7	0.14013277
179	0x3ce2f0df	0.027702747
180	0xbe1ae5c2	-0.15126708
181	0xbceaa731	-0.028644176
182	0xbe5ac344	-0.2136355
183	0x3cb10f16	0.021613639
184	0xbd2474bd	-0.040150393
185	0xbda26cae	-0.07930885
186	0x3e5a82f7	0.21339022
187	0x3d099e23	0.033598077
188	0xbda2d578	-0.07950872
189	0xbe124e08	-0.14287579
190	0x3d60a216	0.054842077
191	0x3c325bd3	0.01088615
192	0x3e7ca043	0.2467051
193	0x35a5036f	1.2294457e-06
194	0x3bb5e42a	0.005550881
195	0xbc8519da	-0.016247679
196	0x3e588685	0.21145065
197	0x3a05b59b	0.00051006087
198	0x3d86434a	0.06555803
199	0x3e7dfda9	0.24803795
200	0xbd5ade2e	-0.053434543
201	0xbd386023	-0.045013558
202	0xbe8979bd	-0.2685069
203	0xbe462ec5	-0.19353779
204	0x390161f7	0.00012338893
205	0xbd5ef12b	-0.054429214
206	0x3db3be5c	0.087765425
207	0xbe653844	-0.22384745
208	0x3d692e89	0.056929145
209	0xbd859c50	-0.06523955
210	0xbe563436	-0.20918354
211	0x3dcdd289	0.10049922
212	0xbdd5f350	-0.10446799
213	0xbd3e1084	-0.04640247
214	0x3ddbb16a	0.107271984
215	0xbdf306a4	-0.11866501
216	0x3e469d25	0.19395883
217	0xbe291d9e	-0.16515204
218	0x3d97107e	0.073761925
219	0x3e578d75	0.21050055
220	0x3d82b491	0.063820966
221	0x3dabad8c	0.08382711
222	0xbd708309	-0.058718715
223	0xbe3fb230	-0.18720317
224	0xbda54391	-0.08069528
225	0x3da4cc22	0.08046748
226	0x3d845d0a	0.06463058
227	0xbe5c0eb5	-0.21489985
228	0x3cd3a242	0.025834206
229	0xbe869e1a	-0.26292497
230	0x3de09000	0.10964966
231	0xbd114545	-0.03546645
232	0xbe6d46f5	-0.23171599
233	0xbdb4e6e2	-0.088331
234	0x3e8f5830	0.2799697
235	0x3e14cffc	0.14532465
236	0x3e549588	0.20760167
237	0xbe6df1c9	-0.23236765
238	0x3e65c6a2	0.22439054
239	0x3dee0db5	0.11623708
240	0xbdaac25c	-0.08337852
241	0x3d177ae7	0.036982443
242	0x3d85df0f	0.06536686
243	0x3c2686f3	0.01016401
244	0x3d8e40c0	0.06945944
245	0xbe7af6fe	-0.24508283
246	0x3ce7a69e	0.028277691
247	0x3ea0bb0d	0.31392708
248	0xbe56c5af	-0.20973848
249	0x3e1e77d3	0.15475397
250	0x3e84b431	0.25918725
251	0xbe2b0e5b	-0.16704695
252	0xbd33ab6c	-0.043864653
253	0x3d5454c9	0.05183867
254	0x3d6e3d71	0.058164064
255	0xbd5b0500	-0.053471565
