ecg/CL_trial_8_best_model.pth (torch, 142416 bytes, 15 tensors)

conv1.weight f4 [64, 1, 50]
0	0x3dfb4991	0.12269891
1	0x3e03b8ad	0.12863417
2	0xbcc97fa6	-0.024597
3	0x3e0cda47	0.13755141
4	0xbcd31c0b	-0.025770208
5	0x3d018799	0.031623457
6	0xbd8b3349	-0.06796891
7	0x3da9dad1	0.08293689
8	0x3dd5a20f	0.10431301
9	0xbe02356a	-0.12715688
10	0x3dcaa65b	0.09895011
11	0x3accb31b	0.0015617342
12	0x3d9ec429	0.07752258
13	0xbc5b8293	-0.013397831
14	0x3d10d419	0.035358522
15	0xbd502a63	-0.050821673
16	0x3da34395	0.079718746
17	0xbbc52065	-0.0060158246
18	0xbdb42a58	-0.08797139
19	0x3c96be18	0.01840119
20	0xbda57a58	-0.08079976
21	0xbcf401d2	-0.029786024
22	0xbd8e0052	-0.06933655
23	0x3da698dc	0.08134624
24	0xbe0188f4	-0.126499
25	0xbda5fe6f	-0.0810517
26	0xbd6f9799	-0.058494184
27	0xbde27691	-0.11057771
28	0xbc973566	-0.01845808
29	0xbe2f75ab	-0.1713473
30	0x3dcbe9ac	0.09956679
31	0xbe18ee90	-0.14934754
32	0x3da1a90f	0.078935735
33	0xbbc5789b	-0.00602634
34	0xbd985911	-0.07438863
35	0x3d77c14e	0.060487084
36	0xbb944862	-0.0045252303
37	0x3dae82f7	0.08521073
38	0x3a8fe22c	0.0010977439
39	0xbd762bd1	-0.06010038
40	0x3cc0be6a	0.023528297
41	0xbd58e849	-0.0529559
42	0x3d196527	0.037449982
43	0x3d847334	0.06467286
44	0x3d738067	0.059448626
45	0xbd9b9337	-0.075964384
46	0x3d9470ab	0.07248052
47	0x3aebc528	0.0017987834
48	0x3d4a5bb7	0.049403872
49	0xbdd857b2	-0.105636016
50	0xbe32d034	-0.17462236
51	0xbdb6209d	-0.08892939
52	0xbe10dab8	-0.14145935
53	0x3dae3da5	0.085078515
54	0x3c3c6372	0.011498319
55	0x3cfaa102	0.030594353
56	0x3c7eea7f	0.015558838
57	0xbcf6298f	-0.030049114
58	0x3db21275	0.08694927
59	0xbdfd40f7	-0.12365907
60	0xbc62e57f	-0.013848661
61	0xbdf00912	-0.1172048
62	0x3cea0069	0.028564649
63	0xbd2a4b5d	-0.04157578
64	0x3d5c5cf3	0.05379958
65	0xbc6bcf65	-0.014392708
66	0x3e0aea14	0.13565856
67	0xbd896790	-0.06709206
68	0xbd88025e	-0.066410765
69	0xbd867642	-0.06565525
70	0x3e15b465	0.14619596
71	0x3d996069	0.07489092
72	0x3e29772d	0.16549368
73	0xbdca32bf	-0.0987296
74	0xbe00f343	-0.12592797
75	0xbdbcd2a9	-0.09219868
76	0xbd903cd8	-0.07042855
77	0x3db2cd68	0.087305844
78	0x3d9b005e	0.075684294
79	0x3e188bfc	0.1489715
80	0xbd1b7fbb	-0.03796361
81	0xbd749b56	-0.059718452
82	0x3def67ee	0.11689745
83	0xbc71c8b5	-0.014757325
84	0x3e09d04b	0.13458364
85	0x3c8864ae	0.01664957
86	0x3df6e7ad	0.120559074
87	0xbdac926b	-0.084263645
88	0xbd4b1614	-0.049581602
89	0x3d8cca4c	0.068745226
90	0x3d63d089	0.055618796
91	0xbc8c8e0e	-0.01715758
92	0x3dcbd702	0.09953119
93	0x3de12b8c	0.10994634
94	0xbdb88ceb	-0.09011253
95	0xbd701dfd	-0.05862235
96	0x3e19e50c	0.1502878
97	0xbcfc54bb	-0.030802121
98	0xbd1d0fee	-0.03834527
99	0xbe0181f9	-0.12647237
100	0xbe0199b6	-0.12656292
101	0xbbac85bd	-0.0052649663
102	0xbd1b2b9d	-0.03788339
103	0xbdf3b8a8	-0.11900455
104	0xbc2ce33a	-0.010552222
105	0xbde35e5d	-0.11101983
106	0xbe08edcb	-0.13371961
107	0xbdbb2de6	-0.09139614
108	0xbe0dbbea	-0.13841215
109	0xbdd54be2	-0.10414864
110	0x3e02f90f	0.12790321
111	0x3c527a57	0.012846551
112	0x3ceaacce	0.028646853
113	0xbe177167	-0.14789353
114	0xbe01c2ce	-0.12671968
115	0xbda0cb7f	-0.07851314
116	0x3bd8e80d	0.0066194595
117	0xbe0cba4d	-0.13742943
118	0xbdbcda2d	-0.09221301
119	0xbdec428f	-0.115361325
120	0xbcec3b40	-0.028836846
121	0xbda734ac	-0.08164343
122	0xbd227c52	-0.039669342
123	0xbe005d7b	-0.1253566
124	0xbe018ee8	-0.1265217
125	0xbde715f8	-0.11283487
126	0xbda1a001	-0.078918464
127	0xbe1008d3	-0.14065866
128	0x3de03c7f	0.10949039
129	0xbd196da2	-0.03745807
130	0x3de4563f	0.11149263
131	0x3d125d9a	0.035733797
132	0xbe03a6c5	-0.12856586
133	0x3db6fd84	0.08935073
134	0xbd8729d4	-0.06599775
135	0xbdab6ec8	-0.08370739
136	0xbe1692f5	-0.14704497
137	0xbe2e93f1	-0.17048623
138	0x3c32364b	0.010877202
139	0xbd710538	-0.058842868
140	0x3ce64f20	0.028113902
141	0xbe101cf5	-0.14073546
142	0x3da4e392	0.08051218
143	0xbe04aadb	-0.12955801
144	0xbd4d2e22	-0.050092824
145	0x3aa6fc5b	0.0012740003
146	0x3d1bfda6	0.038083695
147	0x3d99b249	0.07504708
148	0x3dbc5add	0.09197018
149	0xbe14fe14	-0.14550048
150	0x3c0c13e4	0.008549664
151	0xbdb0ed74	-0.086390406
152	0xbd24914a	-0.04017762
153	0xbe027fd5	-0.12744077
154	0x3de94a65	0.11391143
155	0xbdf88c48	-0.121361315
156	0x3d6f8df8	0.058485
157	0x3d1db157	0.038499203
158	0x3cde39ba	0.027127136
159	0xbdc44aa0	-0.09584546
160	0x3dec1a4b	0.115284525
161	0x3c8cd817	0.017192883
162	0xb85b8d4f	-5.2345273e-05
163	0xbe16cd64	-0.14726788
164	0x3d1a2391	0.037631575
165	0xbd10854e	-0.03528338
166	0xbd42e0c0	-0.04757762
167	0x3e302337	0.17200933
168	0x3d6c340c	0.057666823
169	0xbd95abe4	-0.07308176
170	0xbd8da990	-0.06917107
171	0xbb70905e	-0.0036707143
172	0x3d9770d5	0.07394568
173	0xbd52790b	-0.051384967
174	0xbdfac489	-0.12244517
175	0xbdcae9db	-0.09907886
176	0xbe23e0db	-0.16003744
177	0x3c9cd5ec	0.019144975
178	0x3db01a77	0.08598798
179	0xbe29d7a7	-0.16586171
180	0x3cc3f7c8	0.023921862
181	0x3da49783	0.08036711
182	0x3cf9ab75	0.030477265
183	0xbd4d36b9	-0.050101016
184	0x3d81fbfd	0.06346891
185	0x3d4287f3	0.047492933
186	0x3d00d412	0.031452246
187	0xbd2a5d0b	-0.04159264
188	0xbd52d26a	-0.051470198
189	0x3b984b4f	0.0046476494
190	0xbd136cd3	-0.035992455
191	0xbd70215d	-0.058625568
192	0x3d8773da	0.06613894
193	0x3dd11ba5	0.10210351
194	0xbcfbe776	-0.030750018
195	0xbd5f6bff	-0.054546352
196	0xbcadaca8	-0.021200493
197	0xbccd506d	-0.025062764
198	0x3cbf3c34	0.023344137
199	0x3cc713d7	0.024301453
200	0xbe30e8cb	-0.17276303
201	0xbdc3693d	-0.09541557
202	0x3d9e4c48	0.07729393
203	0x3c84370d	0.016139532
204	0xbd39a8cb	-0.04532699
205	0xbdfbb883	-0.12291052
206	0xbdf9e6c8	-0.12202221
207	0xbe25a670	-0.16176772
208	0xbda4e437	-0.08051341
209	0x3c5825fa	0.013192648
210	0x3d668294	0.056276873
211	0x3d02b912	0.031914778
212	0xbe248ca6	-0.16069278
213	0xbdf8df92	-0.12152018
214	0xbd6bb9d3	-0.057550263
215	0x3dd102b2	0.10205592
216	0xbc57b73a	-0.013166243
217	0xbd8a55d5	-0.067546524
218	0x3ce7d1c7	0.028298272
219	0xbdafbdd6	-0.0858113
220	0xbdfe1b6b	-0.12407573
221	0x3d8eed53	0.0697886
222	0xbdcaa193	-0.09894099
223	0xbd807cd7	-0.06273811
224	0xbe327fdd	-0.17431588
225	0x3d7ade00	0.061246872
226	0x3dbafdb8	0.09130424
227	0x3d14bada	0.036311008
228	0xbde87abe	-0.11351536
229	0xbe1df1ea	-0.15424314
230	0xbdff73b9	-0.12473244
231	0x3dbb4378	0.09143728
232	0x3d3c1645	0.045919675
233	0x3dc921b8	0.098208845
234	0x3d694522	0.056950696
235	0x3b4afbb0	0.0030972771
236	0xbcf87d05	-0.030333051
237	0xbe0dad60	-0.13835669
238	0xbe1c5f12	-0.15270641
239	0xbe24c07e	-0.16089055
240	0x3ce9b60f	0.028529195
241	0xbdcfe771	-0.10151566
242	0xbd773cdf	-0.060360786
243	0xbde3275c	-0.110914916
244	0xbd5e3d70	-0.05425781
245	0xbe01592c	-0.12631673
246	0xbdf2125c	-0.11819908
247	0x3cb623d4	0.022233881
248	0xbd8168d4	-0.063188225
249	0x3d8b3c51	0.06798614
250	0xbd19cca8	-0.03754869
251	0xbdc7cde8	-0.097560704
252	0xbc8c0a21	-0.017094674
253	0xbd65cf09	-0.056105647
254	0xbcf8be0c	-0.030364059
255	0xbdfe8d5c	-0.12429306

conv1.bias f4 [64]
0	0xbd901558	-0.07035321
1	0x3dc1a953	0.09456124
2	0x3e086867	0.13321076
3	0x3e317ebe	0.17333505
4	0xbdb22e7e	-0.08700274
5	0x3e213e77	0.15746485
6	0x3e0bccc4	0.1365233
7	0x3e370ae9	0.17875256
8	0x3e090017	0.1337894
9	0xbc690f2f	-0.014224811
10	0x3e12f2c1	0.14350416
11	0x3e45d41b	0.19319193
12	0xbce58ae4	-0.02802033
13	0x3d0134d4	0.03154452
14	0x3e0521e4	0.1300121
15	0x3e0e3833	0.13888626
16	0x3df63d52	0.12023415
17	0x3e1f48a6	0.15555057
18	0xbc949b55	-0.018140474
19	0x3a1622af	0.0005727214
20	0xbcd6f306	-0.02623893
21	0x3dcb91fd	0.099399544
22	0x3d4904b9	0.04907677
23	0xbdade598	-0.08491057
24	0xbd0eea64	-0.0348915
25	0xbe02723b	-0.12738888
26	0xbe1a6ced	-0.15080614
27	0x3e4a0504	0.19728476
28	0xbcf16f73	-0.029472088
29	0x3de8c933	0.11366501
30	0xbc96c8ca	-0.01840629
31	0x3c10bf52	0.008834677
32	0x3d0bfa27	0.03417411
33	0x3e190fc6	0.14947423
34	0x3c98b2c1	0.018639924
35	0x3e39848d	0.1811697
36	0x3df596d6	0.1199166
37	0x3dfae32e	0.12250362
38	0xbd8b5563	-0.068033956
39	0xbd638b86	-0.05555298
40	0xbd78de8a	-0.060759105
41	0x3cca9480	0.024729013
42	0x3c0d39d4	0.008619744
43	0x3d373929	0.044732247
44	0x3e3e1cd9	0.18565692
45	0x3e09d95a	0.1346182
46	0xbd2a8b06	-0.04163649
47	0xbd96ac9f	-0.073571436
48	0x3e302858	0.1720289
49	0x3d921b61	0.07134128
50	0x3dda95de	0.10673116
51	0xbd10ac99	-0.035320852
52	0x3a3b936a	0.00071554503
53	0x3d9aa5a0	0.07551122
54	0xbdc4a28e	-0.09601317
55	0x3dec8e7f	0.115506165
56	0x3e0d4f52	0.1379979
57	0xbc9c0c37	-0.019048793
58	0xbd2cf4a9	-0.042225514
59	0x3ce6b69a	0.028163243
60	0x3d9f9e93	0.077939175
61	0x3b4480de	0.0029984037
62	0x3e489f50	0.19592023
63	0xbddc1877	-0.10746854

conv2.weight f4 [32, 64, 10]
0	0x3dbd84b6	0.09253828
1	0x3da7a346	0.08185439
2	0x3debc907	0.11512952
3	0x3de6a984	0.11262801
4	0x3db79266	0.0896347
5	0x3e111bd0	0.14170766
6	0x3d59309d	0.053024877
7	0x3df57669	0.119854756
8	0x3da82c1d	0.08211539
9	0x3dd1de16	0.10247438
10	0x3da63da7	0.08117228
11	0x3db64726	0.08900289
12	0x3daff279	0.0859117
13	0x3e0c35de	0.13692424
14	0x3dcefa5a	0.101063445
15	0x3e0ddc3d	0.13853545
16	0x3dc7589b	0.09733697
17	0x3ddf4fb7	0.10903876
18	0x3dfc1c01	0.12310029
19	0x3e182411	0.14857508
20	0x3ddea0c4	0.10870507
21	0x3e1155bb	0.1419286
22	0x3e04b5e4	0.12960011
23	0x3e1358b1	0.14389302
24	0x3e14556a	0.14485708
25	0x3e0caa8d	0.13736935
26	0x3ddc70d7	0.1076371
27	0x3ddac9d1	0.10683025
28	0x3e08f6d5	0.13375409
29	0x3e0e10c7	0.13873588
30	0x3de479ae	0.11156021
31	0x3e07ea8b	0.13273065
32	0x3db70579	0.08936591
33	0x3e09bcca	0.13450924
34	0x3de5aa9b	0.11214181
35	0x3db43d75	0.088007845
36	0x3dc2fa41	0.095203884
37	0x3db0ea0e	0.086383924
38	0x3dfafe1a	0.12255497
39	0x3dbb09c8	0.09132725
40	0x3dd54455	0.10413424
41	0x3de6894c	0.11256656
42	0x3dbbeba2	0.09175803
43	0x3dea3248	0.11435372
44	0x3de17d61	0.11010242
45	0x3e051115	0.12994798
46	0x3e1420e7	0.14465676
47	0x3db95fc2	0.090514675
48	0x3e0855c6	0.1331397
49	0x3de1a888	0.11018473
50	0x3dbf5b8b	0.09343632
51	0x3dd06df0	0.10177219
52	0x3e02e3d9	0.1278223
53	0x3e026cc3	0.12736802
54	0x3dede76c	0.11616406
55	0x3dc60c44	0.09670308
56	0x3e0d3e85	0.1379338
57	0x3df93eb8	0.12170166
58	0x3da38ff0	0.07986438
59	0x3de43083	0.111420654
60	0x3ddd6c8c	0.10811719
61	0x3dc9aa01	0.09846879
62	0x3dc0f914	0.09422508
63	0x3daea981	0.08528424
64	0x3e1f022c	0.15528172
65	0x3da3a479	0.07990355
66	0x3e1c7758	0.15279901
67	0x3dafcc76	0.0858392
68	0x3dd27502	0.10276224
69	0x3dcee6e3	0.10102632
70	0x3dc517fe	0.09623717
71	0x3e099936	0.13437352
72	0x3e1086ea	0.14113966
73	0x3dc18c71	0.09450615
74	0x3dc3e69c	0.095654696
75	0x3e0e3880	0.1388874
76	0x3ddf0c6e	0.10891043
77	0x3e0011ef	0.12506841
78	0x3e0ac9c8	0.13553536
79	0x3dcb0059	0.09912176
80	0x3dbf272d	0.09333644
81	0x3e08384d	0.13302727
82	0x3dd32350	0.1030947
83	0x3dbee650	0.093212724
84	0x3dcbe899	0.09956474
85	0x3dcfdad7	0.10149162
86	0x3e23a572	0.15981081
87	0x3e009884	0.1255818
88	0x3e0ca905	0.13736351
89	0x3e013aa7	0.1262003
90	0x3d999bda	0.075004295
91	0x3e0471b6	0.12934002
92	0x3dc58204	0.09643939
93	0x3dc05fe2	0.09393288
94	0x3e0be926	0.13663158
95	0x3db1f07f	0.08688449
96	0x3deb1639	0.11478848
97	0x3d8de336	0.06928103
98	0x3dff6c62	0.12471844
99	0x3deb4b5a	0.114889815
100	0x3dafbe10	0.085811734
101	0x3e106b88	0.1410352
102	0x3dfbeeba	0.12301393
103	0x3dcd8faf	0.10037171
104	0x3e1b4560	0.15163183
105	0x3e0d4b85	0.1379834
106	0x3e0a49db	0.13504736
107	0x3ddaa51e	0.10676025
108	0x3dcadbc6	0.099052
109	0x3dcc9a40	0.09990358
110	0x3e0a307b	0.13495056
111	0x3e079e46	0.1324397
112	0x3dc04dc0	0.0938983
113	0x3e1cd408	0.15315259
114	0x3e10548a	0.14094749
115	0x3dd1fd40	0.10253382
116	0x3e064b45	0.1311465
117	0x3dc95856	0.09831302
118	0x3e04bbf3	0.12962322
119	0x3e18cf9f	0.14922951
120	0x3da9843c	0.08277175
121	0x3dd05b46	0.10173659
122	0x3defb178	0.11703771
123	0x3e00c719	0.1257595
124	0x3daf99f3	0.08574285
125	0x3db7b727	0.089704804
126	0x3ddd680f	0.10810863
127	0x3dee20b4	0.116273314
128	0x3e05259d	0.1300263
129	0x3dea8398	0.11450881
130	0x3deab595	0.11460415
131	0x3de577aa	0.11204465
132	0x3de68455	0.11255709
133	0x3dca7dea	0.098872975
134	0x3df4dec1	0.119565494
135	0x3e06245f	0.13099812
136	0x3db2be64	0.087277204
137	0x3dad9228	0.08475143
138	0x3df1fe8f	0.11816131
139	0x3d981d2c	0.07427439
140	0x3e10a1d1	0.14124228
141	0x3e0977de	0.13424632
142	0x3dfcda05	0.123462714
143	0x3dd33725	0.10313252
144	0x3df9fd7f	0.12206554
145	0x3db4392f	0.087999694
146	0x3da937f6	0.08262627
147	0x3e20dc1e	0.15708968
148	0x3db064e1	0.08612991
149	0x3dafd287	0.08585077
150	0x3dd1c1c3	0.10242035
151	0x3dfe5317	0.12418192
152	0x3e062e0c	0.13103503
153	0x3dc7c954	0.09755197
154	0x3def3af0	0.11681163
155	0x3de2a9a9	0.11067516
156	0x3e1bc809	0.15213026
157	0x3e1e9865	0.15487821
158	0x3e090ed9	0.1338457
159	0x3df517d3	0.11967435
160	0x3e19f911	0.15036418
161	0x3db0190a	0.08598526
162	0x3e0d8b12	0.13822582
163	0x3dc07541	0.093973644
164	0x3e1c46e9	0.15261425
165	0x3da5e8d5	0.0810105
166	0x3e079443	0.13240151
167	0x3db610a3	0.08889892
168	0x3e0fb924	0.1403547
169	0x3dfc0ea0	0.12307477
170	0x3e121791	0.14266802
171	0x3da1aa51	0.078938134
172	0x3e071a4e	0.13193628
173	0x3da95a73	0.08269205
174	0x3dabd2ca	0.08389814
175	0x3df86c55	0.12130038
176	0x3dca4182	0.09875776
177	0x3da14041	0.078735836
178	0x3d9a1cb5	0.07525007
179	0x3dd099a5	0.10185555
180	0x3e00f744	0.12594324
181	0x3e1db81e	0.15402266
182	0x3e16bfba	0.14721575
183	0x3de956ee	0.11393534
184	0x3dbe219a	0.09283753
185	0x3d9d1368	0.07669717
186	0x3e15d921	0.1463361
187	0x3db5d155	0.088778175
188	0x3dddbf22	0.10827471
189	0x3dad6efa	0.08468433
190	0x3daecaf0	0.08534801
191	0x3def3ac9	0.11681134
192	0x3dd513a1	0.104041345
193	0x3dec87f4	0.115493685
194	0x3de7788e	0.11302291
195	0x3de43aa4	0.11143997
196	0x3dcd4bee	0.10024248
197	0x3dd867de	0.10566686
198	0x3e0124f5	0.12611754
199	0x3e056a81	0.1302891
200	0x3e1c62a8	0.1527201
201	0x3db3ae7f	0.08773517
202	0x3db1fdc3	0.08690979
203	0x3de35d37	0.11101764
204	0x3dd16288	0.102238715
205	0x3e138f9c	0.14410251
206	0x3e24325c	0.16034836
207	0x3df6eead	0.120572425
208	0x3dafbd71	0.08581055
209	0x3de9cbd4	0.1141583
210	0x3e0f0c44	0.13969523
211	0x3e02b95b	0.1276602
212	0x3dabf7a0	0.0839684
213	0x3de53ab0	0.111928344
214	0x3d97527f	0.07388782
215	0x3dca7596	0.09885709
216	0x3e0bf613	0.13668089
217	0x3dbfe004	0.093688995
218	0x3e085d96	0.1331695
219	0x3da3f251	0.080052026
220	0x3e1d5883	0.15365796
221	0x3e06556a	0.1311852
222	0x3e0e75cf	0.13912128
223	0x3dfe25f1	0.124095805
224	0x3de5ad1f	0.11214661
225	0x3dbb984c	0.09159908
226	0x3db97d4a	0.090571
227	0x3db50c8d	0.088402845
228	0x3e143e51	0.14476897
229	0x3db79f9e	0.089659914
230	0x3df4d31c	0.119543284
231	0x3daa5e9c	0.083188266
232	0x3e018f09	0.1265222
233	0x3dc86ff3	0.097869776
234	0x3da15fed	0.078796245
235	0x3de5a092	0.11212267
236	0x3d8eb77e	0.06968592
237	0x3de044ea	0.10950644
238	0x3da4812b	0.08032449
239	0x3e0d9e08	0.13829815
240	0x3db4c263	0.08826139
241	0x3e072091	0.13196017
242	0x3e0d72ba	0.13813296
243	0x3dc3cd78	0.095606744
244	0x3e1745c0	0.14772701
245	0x3e1eda86	0.15513048
246	0x3dcb3003	0.09921267
247	0x3dfb32dc	0.1226556
248	0x3e09e401	0.13465883
249	0x3e1b6550	0.15175366
250	0x3e036f01	0.12835313
251	0x3d813aae	0.063100204
252	0x3d83ef3b	0.06442114
253	0x3d240b6b	0.04004995
254	0x3d9cf56b	0.07663997
255	0x3d8de9b2	0.069293395

conv2.bias f4 [32]
0	0x3e156508	0.14589322
1	0x3d9c128f	0.07620727
2	0x3e14e7b6	0.14541516
3	0x3d9a167e	0.07523821
4	0x3d20f439	0.03929541
5	0xbd209af8	-0.03921029
6	0xbcff7cc5	-0.031187424
7	0x3d06201d	0.03274547
8	0xbd451e78	-0.04812476
9	0x3db66606	0.08906178
10	0xbd9eafb7	-0.07748359
11	0xbd84279d	-0.06452868
12	0x3d60eab1	0.05491132
13	0xbcf86320	-0.030320704
14	0xbda049e3	-0.07826593
15	0x3dd47001	0.103729255
16	0x3d9b5ccd	0.0758606
17	0x3d028c63	0.031872164
18	0x3d5106b6	0.05103179
19	0x3da92ec7	0.08260875
20	0x3dd7185b	0.10502692
21	0xbd339be7	-0.043849852
22	0xbdbd1dc5	-0.09234194
23	0xbd7bd219	-0.06147966
24	0xbcc74c4a	-0.02432837
25	0xbd5f5f16	-0.05453404
26	0xbd785d9f	-0.06063616
27	0x3d3fb494	0.046803072
28	0x3d5e745b	0.054310184
29	0x3c879214	0.016549148
30	0x3da5dbee	0.08098589
31	0xbdac88ae	-0.08424507

conv3.weight f4 [16, 32, 5]
0	0x3d9c21e3	0.07623651
1	0x3e25dde9	0.16197933
2	0x3e13a3a3	0.14417891
3	0x3db7d45e	0.08976053
4	0x3df7fedb	0.12109157
5	0x3dd99e7b	0.10625931
6	0x3d34db85	0.044154663
7	0x3deb6e06	0.11495595
8	0x3dfb584c	0.12272701
9	0x3da2b502	0.07944681
10	0x3e08df34	0.13366395
11	0x3df2cc18	0.11855334
12	0x3d4544e5	0.048161406
13	0x3de15c4a	0.11003931
14	0x3dfd5956	0.12370555
15	0x3e17a7cd	0.14810105
16	0x3cfde1fd	0.030991549
17	0x3c5c5485	0.013447885
18	0x3d5de711	0.05417544
19	0x3dbec1dc	0.093143195
20	0x3ca1b57b	0.019739857
21	0x3d8487f3	0.06471243
22	0x3ce2d314	0.02768854
23	0x3ce05a67	0.027386857
24	0x3de2b150	0.11068976
25	0x3dc1c76e	0.09461866
26	0x3d8889d5	0.066669144
27	0x3de30a11	0.110859044
28	0x3d17d4d6	0.03706821
29	0x3d87a906	0.066240355
30	0x3dea1934	0.11430588
31	0x3df8ca4c	0.1214796
32	0x3da105fd	0.0786247
33	0xbc3ce4af	-0.011529132
34	0x3d99c9dd	0.075092055
35	0x3e100bda	0.14067021
36	0x3de5be13	0.112178944
37	0x3be5ffd2	0.0070190215
38	0x3d71c333	0.059024047
39	0x3d2ebc31	0.042659942
40	0xbc79d716	-0.015249034
41	0xbc2182f4	-0.009857882
42	0x3ddb4422	0.10706355
43	0x3bae3a82	0.0053170333
44	0x3c0825f5	0.008309831
45	0x3d5811ee	0.052751474
46	0x3db0a9fe	0.086261734
47	0x3e150d42	0.14555839
48	0x3c87cf50	0.016578346
49	0x3d6b16ad	0.057394672
50	0x3d2fa730	0.04288405
51	0x3d9eafee	0.077484
52	0x3c410ec7	0.011783308
53	0x3d0b4186	0.033998035
54	0x3c5110c2	0.012760343
55	0x3d1bc8e5	0.038033385
56	0x3dc5c002	0.09655763
57	0x3cb313a3	0.02185995
58	0x3d389d49	0.045071874
59	0x3b7bdbc3	0.0038430549
60	0x3de18066	0.11010818
61	0x3d131c9d	0.03591596
62	0x3dd8ea10	0.10591519
63	0x3be31a34	0.006930614
64	0x3decf42b	0.11570009
65	0x3c81232a	0.015763838
66	0xbd862782	-0.06550504
67	0xbc635e1d	-0.013877419
68	0xbd45c992	-0.048287936
69	0xbd09df85	-0.03366043
70	0xbc8fa4bb	-0.017534604
71	0x3bb31659	0.0054653105
72	0x3dc19267	0.09451752
73	0x3dc01639	0.09379239
74	0x3dfc4bca	0.12319143
75	0x3d624c10	0.05524832
76	0x3c8d61d8	0.01725857
77	0x3e0e35dd	0.13887735
78	0x3d85767f	0.06516742
79	0x3d5dce0d	0.054151583
80	0x3d4e6c1e	0.050396077
81	0x3e212aba	0.15738955
82	0x3ca08279	0.019593464
83	0x3dd3d8c8	0.10344082
84	0x3dd2cabb	0.10292574
85	0x3ccd9680	0.025096178
86	0x3dcead18	0.10091609
87	0x3dd03a76	0.101674005
88	0x3ddf7798	0.109114826
89	0x3d9e301d	0.07724021
90	0x3ddcd127	0.1078208
91	0x3de0d608	0.10978323
92	0x3d7e73a8	0.062122017
93	0x3cb93ea6	0.02261288
94	0x3db5b7d7	0.08872955
95	0x3dbd0e34	0.09231225
96	0x3e061a31	0.13095929
97	0x3dd020a6	0.10162477
98	0x3db1804e	0.0866705
99	0x3d646e24	0.0557691
100	0x3e1acbe2	0.15116838
101	0x3e1d61f9	0.15369405
102	0x3e270658	0.16311014
103	0x3da869b4	0.08223286
104	0x3d3c24ca	0.045933522
105	0xbc0356c0	-0.008016288
106	0xbcb2b388	-0.021814123
107	0xbbeec3a6	-0.0072865067
108	0x3cfb80d2	0.030701075
109	0x3df0ced0	0.11758196
110	0xbc8b3a67	-0.016995622
111	0x3d0491c1	0.032365564
112	0x3db379e9	0.08763487
113	0x3dbe8269	0.093022175
114	0x3d734922	0.059395917
115	0x3d1c1940	0.038110018
116	0x3d744bfa	0.05964277
117	0x3bd0dc4d	0.006373918
118	0x3dc24d5b	0.09487411
119	0x3dd12a5e	0.10213159
120	0x3d68bc72	0.05682034
121	0x3dcb8cc1	0.09938956
122	0x3db00061	0.08593822
123	0xbd0e0056	-0.03466829
124	0x3ba78712	0.005112537
125	0xbc814bb6	-0.015783172
126	0x3d9963a8	0.07489711
127	0xbc95b19b	-0.018273165
128	0x3d917f45	0.07104353
129	0xbcaf979e	-0.021434601
130	0x3dc53f99	0.09631271
131	0x3af13bf8	0.0018404713
132	0xbc7924ca	-0.015206525
133	0x3cc4f0f2	0.024040673
134	0x3da8288b	0.08210858
135	0x3d63e1ee	0.055635385
136	0x3deaecc3	0.1147094
137	0x3daa0622	0.08301951
138	0x3d38b680	0.04509592
139	0x3dade9c1	0.08491851
140	0x3e0e09f0	0.13870978
141	0x3d26d29c	0.040728197
142	0x3e2105ee	0.15724918
143	0x3ddf44f4	0.10901824
144	0x3e04da20	0.12973833
145	0x3d942522	0.07233645
146	0x3e143f53	0.14477281
147	0x3cc6402f	0.024200527
148	0x3d5cfadc	0.053950176
149	0x3e0d314f	0.13788341
150	0x3d28004e	0.041015916
151	0x3e1b72ec	0.15180558
152	0x3d6fb206	0.058519386
153	0x3c29fa68	0.010374643
154	0x3e21eb58	0.15812433
155	0x3df63690	0.12022126
156	0x3db4c5fe	0.088268265
157	0xbc43f80b	-0.0119609935
158	0x3d949d5c	0.072565764
159	0x3d170843	0.036873113
160	0x3c4d05de	0.012513606
161	0xbd395ef6	-0.045256577
162	0xbd903f46	-0.070433185
163	0xbe1317d0	-0.14364552
164	0xbdbf3a0a	-0.09337242
165	0xbc1810b8	-0.00928133
166	0xbe07729e	-0.13227317
167	0xbd7cf5cb	-0.061757844
168	0xbe0721d2	-0.13196495
169	0xbd9e5fc1	-0.07733107
170	0xbdc33a16	-0.095325634
171	0xbdb57e37	-0.08861964
172	0xbda2f3e0	-0.07956672
173	0xbdcd66ab	-0.10029348
174	0xbddd371b	-0.10801526
175	0xbd0665e4	-0.032812014
176	0xbd755067	-0.05989113
177	0xbddff0ef	-0.10934626
178	0xbd020a64	-0.03174819
179	0x3b948346	0.0045322506
180	0xbcb42490	-0.02199009
181	0xbcfa6216	-0.03056435
182	0xbda50cd2	-0.08059086
183	0xbc0ffe35	-0.008788635
184	0xbdc8c7d7	-0.098037414
185	0xbc892caa	-0.01674493
186	0x3c874575	0.016512612
187	0xbd8524f4	-0.06501189
188	0xbdc96898	-0.09834403
189	0xbd031fae	-0.032012634
190	0xbd88a981	-0.06672955
191	0xbc2b13c0	-0.0104417205
192	0xbdb92b6f	-0.090414874
193	0xba5578f9	-0.00081433315
194	0xb8c5dde0	-9.4350195e-05
195	0xbcae9857	-0.021312876
196	0xbd4bd7af	-0.04976624
197	0xbdb7812d	-0.08960185
198	0xbba8b952	-0.005149045
199	0xbd98ddd7	-0.074641876
200	0xbdaa1722	-0.083051935
201	0x3bb7bde3	0.005607353
202	0xbd99ea0e	-0.075153455
203	0xbca22c39	-0.019796478
204	0xbcb6cbd8	-0.022313997
205	0xbddfa06c	-0.1091927
206	0xbcdaa93f	-0.026692031
207	0xbdae9b80	-0.08525753
208	0xbd19505a	-0.037430145
209	0xbe05bf74	-0.13061315
210	0xbce8fd53	-0.028441107
211	0x3c0d4205	0.008621697
212	0xbdbb73b7	-0.0915293
213	0x3c98635e	0.01860207
214	0xbdd6d473	-0.1048974
215	0xbcfed57a	-0.031107653
216	0xbcf94d8c	-0.030432485
217	0xbd61ca86	-0.055124782
218	0xbce43f59	-0.027862238
219	0xbd0a7ad7	-0.033808555
220	0xbde94a6a	-0.113911465
221	0xbe12f1a3	-0.1434999
222	0xbe0aa756	-0.13540396
223	0xbda38590	-0.079844594
224	0xbd9fc23d	-0.0780072
225	0xbd9c8e69	-0.0764435
226	0xbd8f6cf9	-0.07003207
227	0xbe0b0625	-0.13576563
228	0xbe114620	-0.14186907
229	0xbdc7db0c	-0.09758577
230	0xbddf1c99	-0.108941264
231	0xbc4b3539	-0.012402826
232	0xbd9f3f16	-0.077757046
233	0xbdb918e8	-0.090379536
234	0xbd31d727	-0.043418076
235	0xbd69db32	-0.057093807
236	0xbd058053	-0.032593083
237	0xbd92dfc9	-0.0717159
238	0xbd42572e	-0.047446422
239	0xbd69ccb0	-0.05707997
240	0xbb33b3e1	-0.0027420449
241	0xbd42ff98	-0.047607034
242	0xbd2ce49c	-0.042210206
243	0xbd8a3f08	-0.067503035
244	0xbd11f51a	-0.035634138
245	0xbd73f177	-0.05955645
246	0xbdc0692a	-0.093950585
247	0xbdcf96af	-0.101361625
248	0xbc13c7e7	-0.009019828
249	0xbd4b4ca7	-0.04963365
250	0x3bed4ddf	0.007241949
251	0xbcca1548	-0.02466835
252	0xbb36525e	-0.002782009
253	0xbda49cab	-0.080376945
254	0xbcb1b860	-0.021694362
255	0xbd69e4e1	-0.05710304

conv3.bias f4 [16]
0	0x3e1e66cb	0.154689
1	0xbd5931c9	-0.053025994
2	0x3d7ed4a6	0.062214516
3	0xbbe8f657	-0.007109444
4	0x3d1f68ca	0.038918294
5	0xbe022712	-0.12710217
6	0xbd9c83dc	-0.07642338
7	0x3d1e9dca	0.038724698
8	0xbd57d2d2	-0.05269129
9	0xbbbffbb3	-0.0058588623
10	0x3d868734	0.06568757
11	0xbdaf7f75	-0.085692324
12	0x3d6bccf4	0.057568505
13	0x3c564fbe	0.013080535
14	0x3c88b251	0.01668659
15	0xbdd41a34	-0.1035656

lstm.weight_ih_l0 f4 [128, 16]
0	0x3e7085b7	0.23488508
1	0x3d6d2d25	0.05790438
2	0x3d0324b4	0.032017425
3	0x3df85f25	0.121275224
4	0xbd1feae3	-0.039042365
5	0xbdde9bc9	-0.108695574
6	0x3da080d8	0.07837075
7	0x3e58b01e	0.21160933
8	0x3e0355b0	0.12825656
9	0x3e30a189	0.17249121
10	0x3e42734e	0.18989298
11	0x3dc50480	0.09619999
12	0x3e024afd	0.12723918
13	0xbe2454c6	-0.16047964
14	0x3db7ac96	0.08968465
15	0x3e38287b	0.17984192
16	0xbd6642d4	-0.056216076
17	0xbe47cf61	-0.19512703
18	0x3d4bef2c	0.04978864
19	0xbe2cfec6	-0.16894063
20	0x3cffb041	0.031211974
21	0x3dd036ce	0.10166703
22	0x3cfaa798	0.030597493
23	0x3e81b13d	0.25330535
24	0xbc7c6faa	-0.015407482
25	0xbd80906e	-0.06277548
26	0x3dad380c	0.08457956
27	0xbddcf225	-0.10788373
28	0x3d880555	0.06641642
29	0xbe0e19de	-0.13877055
30	0xbe3b80b6	-0.18310818
31	0xbd1fa0ad	-0.03897159
32	0x3dfe35bd	0.124125935
33	0x3de995f2	0.11405553
34	0x3e008e78	0.12554348
35	0xbc232e38	-0.00995975
36	0xbdca9b99	-0.09892959
37	0x3e0d5eb2	0.13805655
38	0x3df8e63b	0.12153288
39	0xbd72923f	-0.059221502
40	0x3e2b7f3d	0.16747756
41	0x3d038f1f	0.032118913
42	0xbd28dd2a	-0.041226543
43	0xbd590712	-0.05298526
44	0x3d3ea54b	0.046544354
45	0xbdab764a	-0.08372171
46	0x3db36953	0.087603234
47	0xbd35f302	-0.044421203
48	0xbbf28e35	-0.0074022063
49	0x3dfb7f5d	0.12280152
50	0x3cf06846	0.029346596
51	0xbd7b1cff	-0.06130695
52	0xbc6090e6	-0.0137064215
53	0xbd997933	-0.0749382
54	0xbd0647c7	-0.032783296
55	0xbc2d12db	-0.0105635775
56	0xbdedbac8	-0.11607891
57	0xbd336866	-0.043800734
58	0x3e040f95	0.12896569
59	0x3e055f42	0.13024619
60	0x3e4337f5	0.19064315
61	0xbe1081b6	-0.14111981
62	0xbe405c1f	-0.18785141
63	0xbd8ea5c3	-0.0696521
64	0x3e86ef5a	0.26354486
65	0x3d2a8cda	0.041638233
66	0x3e708710	0.23489022
67	0x3da6bea6	0.08141832
68	0x3e45f788	0.19332707
69	0xbd8977b4	-0.06712285
70	0x3dc1713a	0.094454244
71	0xbd2346a8	-0.039862305
72	0x3ce63ddb	0.028105667
73	0x3d88358a	0.06650837
74	0xbd1dffd3	-0.03857405
75	0xbe2d1073	-0.16900806
76	0xbc0fe133	-0.008781719
77	0xbd30799e	-0.043084733
78	0xbd9d6626	-0.07685499
79	0x3dcebd2e	0.10094677
80	0xbcb9d825	-0.022686074
81	0x3e7501f1	0.23926522
82	0xbc2599d9	-0.010107481
83	0x3e278891	0.1636069
84	0x3e6d41d4	0.23169643
85	0x3e5b4671	0.2141359
86	0x3b99db07	0.0046952995
87	0xbca85c41	-0.020551803
88	0xbd9a49bc	-0.07533595
89	0xbd41200c	-0.047149703
90	0x3ce3aee3	0.027793353
91	0x3b759af4	0.0037476392
92	0x3e0759c6	0.1321784
93	0x3e55a5f2	0.20864084
94	0x3df6d035	0.12051431
95	0x3d4a37b6	0.049369536
96	0xbb8e5278	-0.004343327
97	0xbe06086d	-0.13089152
98	0x3e54a59b	0.20766298
99	0xbe554887	-0.20828448
100	0x3d0f34a6	0.03496232
101	0xbe66e36f	-0.22547697
102	0xbbe5abaa	-0.0070089893
103	0xbd994911	-0.074846394
104	0xbe2fe2fc	-0.17176431
105	0xbc308877	-0.010774723
106	0xbd1a4cfb	-0.03767107
107	0xbc7edcdb	-0.015555586
108	0x3e5ada51	0.21372344
109	0xbdaec3e8	-0.0853346
110	0x3c0866fe	0.0083253365
111	0xbdf44bc0	-0.11928511
112	0x3e4e6f41	0.20159627
113	0x3e76bd24	0.24095589
114	0x3cf51c77	0.0299208
115	0xbda82964	-0.0821102
116	0x3e691a5e	0.22763965
117	0x3e36810d	0.17822666
118	0x3e29ca64	0.16581112
119	0x3de12a2c	0.10994372
120	0x3d5e5635	0.054281432
121	0x3df37e08	0.11889273
122	0x3df6ecf4	0.12056914
123	0xbb7ed26e	-0.003888275
124	0x3e088796	0.13332972
125	0x3e595e6d	0.21227427
126	0x39c7cd64	0.00038109266
127	0xbdb0ebda	-0.08638735
128	0xbc8481ad	-0.016175115
129	0x3d9644d3	0.07337346
130	0x3e2e3d8d	0.17015667
131	0x3d987d0b	0.07445725
132	0x3e80f697	0.25188133
133	0x3ddb19c9	0.106982775
134	0x3e34084b	0.17581289
135	0xbd610ed9	-0.0549458
136	0x3dd5150a	0.104044035
137	0x3e3a4286	0.18189439
138	0x3e166ba8	0.14689505
139	0x3df7616b	0.12079128
140	0xbd51a779	-0.051185105
141	0x3e608d21	0.21928836
142	0x3d2e5c42	0.042568453
143	0xbdf8fe07	-0.12157827
144	0x3e031169	0.1279961
145	0x3d4fabd1	0.050700966
146	0x3e371f45	0.17883022
147	0x3dd8f1d2	0.105929986
148	0x3dd030e6	0.10165577
149	0x3d3c1570	0.045918882
150	0x3e67bd03	0.22630696
151	0x3e14ce27	0.14531766
152	0x3d8aed35	0.06783525
153	0xbdc7cd7b	-0.09755989
154	0xbd8acefc	-0.067777604
155	0x3b7bc44b	0.003841656
156	0xbd7c7d76	-0.061643086
157	0xbd5ba963	-0.053628337
158	0xbe6308b1	-0.22171284
159	0xbe659d5d	-0.2242331
160	0xbc5d84ef	-0.013520463
161	0xbdc6b8fb	-0.09703251
162	0x3e34c3c3	0.17652802
163	0x3dcbc75b	0.099501334
164	0x3cbb2456	0.022844475
165	0x3e5e5a05	0.21714027
166	0x3e2da5e4	0.16957814
167	0x3e376883	0.17910962
168	0xbdec9d54	-0.115534455
169	0xbd90050f	-0.07032215
170	0x3c07105b	0.008243646
171	0x3e2f491e	0.17117736
172	0xbdaf5e1f	-0.08562874
173	0xbd87bfa4	-0.066283494
174	0x3d82a49b	0.06379052
175	0x3df125b3	0.11774769
176	0x3e4d6353	0.2005742
177	0x3dc84a13	0.097797535
178	0x3d8efe9d	0.069821574
179	0xbc452e6f	-0.012034996
180	0x3dc1f161	0.094698675
181	0x3e2aa807	0.1666566
182	0xbd4f79ad	-0.05065315
183	0xbd80b749	-0.06284959
184	0xbc92a5bd	-0.017901296
185	0x3d9e975a	0.07743712
186	0x3e3bc680	0.1833744
187	0x3dfc0613	0.12305846
188	0x3e8b99bc	0.27265728
189	0xbc0065bd	-0.007836756
190	0x3deac619	0.114635654
191	0xbd866beb	-0.065635525
192	0xbe08ff77	-0.13378702
193	0xbdfe831d	-0.124273516
194	0x3d7b74b8	0.06139061
195	0xbd8ae85e	-0.06782602
196	0xbe0c1942	-0.1368151
197	0x3a37d1bb	0.0007012148
198	0xbe168df2	-0.14702585
199	0xbd272e7e	-0.040815823
200	0xbe0bdd42	-0.13658622
201	0x3e33ae75	0.17547019
202	0x3deaea88	0.114705145
203	0x3e0715ee	0.1319196
204	0x3deb7154	0.11496225
205	0x3e1d549b	0.15364306
206	0x3dcb2cbd	0.099206425
207	0x3dd92bb3	0.10604038
208	0x3dc0945b	0.094032966
209	0xbde03bf3	-0.109489344
210	0x3dc523bf	0.09625959
211	0xbe3f0db0	-0.18657565
212	0xbdc438f9	-0.09581179
213	0xbd50a7ee	-0.0509414
214	0xbca5e845	-0.020252356
215	0x3b70eb8c	0.003676149
216	0x3da2b20d	0.07944117
217	0xbd8786ad	-0.06617484
218	0x3e772e78	0.2413882
219	0xbe195df7	-0.14977251
220	0xbda1ade7	-0.07894497
221	0x3b33c3ef	0.0027430018
222	0xbd1204ad	-0.03564899
223	0xbc244534	-0.010026265
224	0x3de485ff	0.1115837
225	0xbdc860c6	-0.09784083
226	0xbdc11018	-0.09426898
227	0x3d6ff2f2	0.0585813
228	0x38f1d72e	0.00011531856
229	0x3db2233b	0.08698126
230	0xbd0dc4fb	-0.034611683
231	0x3e5b4b39	0.21415414
232	0x3d25b7d1	0.040458504
233	0xbdad1954	-0.084520966
234	0x3be59f56	0.0070075197
235	0x3de9b008	0.114105284
236	0x3e4cb2ba	0.19990054
237	0xbe6e1c57	-0.23252998
238	0xbe008ed3	-0.12554483
239	0xbdd1fbbe	-0.10253094
240	0x3e155176	0.14581856
241	0xbd6c5921	-0.057702187
242	0xbc9b51f4	-0.018959977
243	0x3d9f82a7	0.07788592
244	0x3dd4833c	0.103765935
245	0xbd7af928	-0.06127277
246	0x3e3ee67c	0.1864261
247	0x3e80a9aa	0.25129443
248	0xbd902940	-0.07039118
249	0x3e80a0b7	0.25122616
250	0x3e199a7d	0.15000339
251	0x3da2bded	0.07946382
252	0x3d2a8b6e	0.041636877
253	0x3e55f29a	0.20893326
254	0x3e39047d	0.18068118
255	0xbdcd4c80	-0.10024357

lstm.weight_hh_l0 f4 [128, 32]
0	0x3ce3f98c	0.027828954
1	0x3e109c39	0.14122094
2	0x3d04f462	0.032459624
3	0x3c08e644	0.008355681
4	0xbe31455f	-0.17311619
5	0xbe461405	-0.19343574
6	0x3e603a92	0.21897343
7	0xbcdb8b7c	-0.02679991
8	0xbe54643c	-0.20741361
9	0x3da26000	0.07928467
10	0x3dc0c01a	0.094116405
11	0x3e166246	0.14685926
12	0x3b21be63	0.002468013
13	0xbe45c7f6	-0.1931456
14	0x3d683e33	0.056699943
15	0x3d94ce7b	0.072659455
16	0xbe734ad5	-0.23759015
17	0x3e24edd8	0.16106355
18	0xbd3fc6aa	-0.04682032
19	0x3daaee19	0.08346195
20	0xbe16de34	-0.14733201
21	0xbe805b23	-0.25069532
22	0xbdc809c1	-0.097674854
23	0x3e5a9e51	0.21349455
24	0x3d73869e	0.059454553
25	0x3e123783	0.14278989
26	0x3e052d7b	0.1300563
27	0x3dd5f10d	0.104463674
28	0xbd921858	-0.071335495
29	0xbe296ca2	-0.16545346
30	0x3da98164	0.082766324
31	0xbd6a2a76	-0.0571694
32	0xbda4ae11	-0.08041013
33	0x3e3239b1	0.1740482
34	0xbdcb1629	-0.09916336
35	0x3d933dab	0.071894966
36	0x3db95ca4	0.09050873
37	0xbd7ae69c	-0.061255082
38	0xbcfbf21d	-0.030755097
39	0xbe842b07	-0.25814077
40	0xbd8091fb	-0.062778436
41	0xbe608ede	-0.219295
42	0x3dc62a2e	0.09676014
43	0x3dfab6d0	0.122419
44	0xbda6a363	-0.08136632
45	0xbe6097e3	-0.2193294
46	0x3e2d9da5	0.16954668
47	0xbd0e385d	-0.03472172
48	0xbd75e8bf	-0.060036417
49	0x3e696bcd	0.22795029
50	0xbd8998fb	-0.06718632
51	0xbe2e5fa4	-0.17028672
52	0xbcf6e387	-0.03013779
53	0xbd7ce1fa	-0.061738946
54	0xbe3b1e49	-0.18273272
55	0x3c1d2a6a	0.009592632
56	0xbe104f06	-0.14092645
57	0x3db695af	0.08915269
58	0xbd762b5d	-0.06009995
59	0xbe23bcee	-0.1599004
60	0x3db77df8	0.089595735
61	0xbe08f7c0	-0.13375759
62	0x3d9fd05d	0.07803414
63	0xbd72ee2b	-0.059309166
64	0xbdb69444	-0.08914998
65	0x3e11eae2	0.14249757
66	0xbd9d4d41	-0.07680751
67	0xbdb798e9	-0.08964712
68	0xbd131a38	-0.035913676
69	0xbe6a1c6c	-0.22862405
70	0x3e4a0ad5	0.19730695
71	0xbe681672	-0.22664812
72	0xbe16a2a4	-0.1471048
73	0xbe4a7555	-0.19771321
74	0x3e1a46a7	0.15066014
75	0x3dbbfdb0	0.091792464
76	0xbd6553e5	-0.05598821
77	0xbe730fd4	-0.23736507
78	0x3e546681	0.20742227
79	0x3d652777	0.05594584
80	0xbe1e99ae	-0.15488312
81	0x3dd93e21	0.10607553
82	0x3dbbaf28	0.09164268
83	0xbd61c73c	-0.055121645
84	0x3d43142b	0.047626656
85	0x3cbc7066	0.023002815
86	0x3d5bdaed	0.05367558
87	0x3dcec8c3	0.10096886
88	0xbe32f95b	-0.17477934
89	0x3d4b47db	0.049629074
90	0x3e76f46f	0.24116682
91	0xbb73900c	-0.0037164716
92	0xbe3df128	-0.18549025
93	0xbe729ffa	-0.23693839
94	0x3e5cc549	0.21559633
95	0x3e81717a	0.25281888
96	0x3cefcad3	0.029271519
97	0x3d872065	0.06597976
98	0x3e544854	0.20730716
99	0x3d5f53a6	0.054523133
100	0x3d62e857	0.055397358
101	0x3d9e9e8d	0.07745085
102	0xbd330d0f	-0.043713626
103	0x3d9996d8	0.07499474
104	0x3d2e9035	0.042617995
105	0xbd1f1a33	-0.038843345
106	0x3e37f87e	0.17965886
107	0x3ddb49b4	0.10707417
108	0xbc544a1b	-0.012957121
109	0xbb225689	-0.0024770817
110	0x3dd91917	0.10600489
111	0x3e85ca23	0.2613078
112	0xbe37c57c	-0.17946428
113	0x3e22cd43	0.15898614
114	0xbd1cc2ae	-0.0382716
115	0xbe793554	-0.2433675
116	0x3d856c73	0.06514826
117	0x3d8ebd5f	0.069697134
118	0x3da03a62	0.07823636
119	0x3dc6326a	0.096775845
120	0xbdf08d4d	-0.11745701
121	0x3dd65be2	0.10466744
122	0xbd3f9c83	-0.04678012
123	0x3cc00d33	0.023443794
124	0xbe4caac3	-0.19987015
125	0xbddb4288	-0.10706049
126	0x3caab1ed	0.020836795
127	0xbdaa9124	-0.083284646
128	0x3d12428f	0.035708006
129	0x3e0b7a17	0.13620792
130	0x3e02f996	0.12790522
131	0xbd86eabf	-0.06587743
132	0x3d98022e	0.07422291
133	0x3c6cdfd5	0.014457663
134	0x3dba4a9a	0.0909626
135	0x3d16d1bc	0.036821112
136	0x3dbc5e0a	0.09197624
137	0xbda5f5c7	-0.08103519
138	0x3e7a794c	0.24460334
139	0xbcedc789	-0.02902581
140	0xbdcc6578	-0.09980291
141	0x3d03c983	0.0321746
142	0xbd536849	-0.051613126
143	0xbbdf151e	-0.0068079373
144	0x3dce0e6d	0.10061345
145	0xbca08c42	-0.01959813
146	0x3e0a5d53	0.13512163
147	0x3d4b3356	0.049609505
148	0xbd9cf03f	-0.07663011
149	0xbe36d2ce	-0.17853853
150	0xbe5235c2	-0.2052832
151	0x3def8a39	0.11696286
152	0x3d8594f1	0.06522549
153	0x3e3e2e31	0.18572308
154	0xbd2656f9	-0.040610287
155	0xbe68fa26	-0.22751674
156	0xbe2d2e4d	-0.16912194
157	0xbe242ae8	-0.16031992
158	0x3dffdd17	0.124933414
159	0xbc0b7487	-0.008511669
160	0x3b899e5f	0.0041997875
161	0xbd7a5262	-0.061113723
162	0x3e62f71f	0.22164582
163	0xbe5e9f91	-0.21740557
164	0xbdc11c22	-0.09429194
165	0x3af6be45	0.0018825015
166	0x3e42b7e8	0.19015467
167	0xbe7c7ebd	-0.24657722
168	0xbe68f4e6	-0.22749671
169	0x3d866d2a	0.0656379
170	0x3d7e8d5b	0.062146526
171	0x3e113cd5	0.14183362
172	0x3e36097d	0.17777057
173	0x3d7b7ea2	0.061400063
174	0xbdb11fb5	-0.08648626
175	0x3cb69903	0.022289759
176	0xbe53a7d3	-0.20669489
177	0xbd23d691	-0.03999955
178	0x3e3ab787	0.18234073
179	0x3d181f73	0.037139367
180	0x3d3586ac	0.044317886
181	0xbe0f2e90	-0.13982606
182	0xbe24c68e	-0.16091368
183	0x3c627d35	0.013823797
184	0xbc12b3aa	-0.008953968
185	0x3e18e53c	0.14931196
186	0x3ddcba9a	0.10777779
187	0x3c6870ea	0.014187077
188	0x3c52256b	0.012826304
189	0xbc5edc62	-0.013602348
190	0x3d94ab15	0.07259194
191	0x3dea5336	0.114416525
192	0xbe0b727c	-0.13617891
193	0x3de7d4e7	0.11319905
194	0xbdc6b674	-0.09702769
195	0xbdffb45c	-0.12485573
196	0xbe0807b5	-0.1328419
197	0xbe24b944	-0.16086298
198	0x3c250569	0.010072091
199	0x3e0e0e87	0.13872729
200	0x3d5e6789	0.054297958
201	0xbc918d58	-0.017767593
202	0xbc39bb57	-0.011336169
203	0xbd70f3a9	-0.058826122
204	0xbc76993e	-0.015051184
205	0xbde492b0	-0.11160791
206	0x3d16b340	0.03679204
207	0xbdd00c20	-0.10158563
208	0x3d916cca	0.07100828
209	0x3d3eb64b	0.046560567
210	0xbbed9ca9	-0.0072513414
211	0xbd401cb2	-0.046902366
212	0xbdf94b82	-0.12172605
213	0xbe31e5d7	-0.17372833
214	0xbd6c48d0	-0.057686627
215	0xbe30ea3c	-0.17276853
216	0xbde4ad92	-0.111659184
217	0x3e0032a3	0.12519316
218	0xbd92c49e	-0.07166408
219	0x3e00f2de	0.12592646
220	0x3e11e8d8	0.14248979
221	0x3adb3bae	0.001672616
222	0xbda96097	-0.08270376
223	0xbd88d99f	-0.06682133
224	0xbdf5bb93	-0.119986676
225	0x3d7928e9	0.06083003
226	0xbd8068db	-0.062699996
227	0xbe070107	-0.13183986
228	0xbd3affe4	-0.045654193
229	0xbe805ded	-0.2507166
230	0xbd942881	-0.07234288
231	0xbbdf3214	-0.0068113897
232	0xbe0685bb	-0.13136952
233	0xbe3ba38b	-0.18324105
234	0x3dc058de	0.0939195
235	0x3e3c6bc0	0.18400478
236	0x3e1e20d8	0.15442216
237	0xbdf1f529	-0.11814339
238	0x3d3f3f12	0.046691008
239	0x3e338051	0.17529418
240	0x3d9d977d	0.0769491
241	0x3af0f7ce	0.0018384398
242	0x3e1f5a24	0.1556173
243	0xbdf67d1f	-0.12035584
244	0x3ddb2f90	0.10702431
245	0x3b8cbbe9	0.0042948616
246	0xbe6c0488	-0.23048604
247	0x3c106564	0.008813236
248	0xbc6991ec	-0.014255982
249	0xbd729fdc	-0.059234485
250	0xbdb7ed3f	-0.08980798
251	0xbd773e6c	-0.060362265
252	0xbe509065	-0.20367582
253	0xbdab5a66	-0.083668515
254	0xbd30f270	-0.043199956
255	0xbdb1da3b	-0.08684202

lstm.bias_ih_l0 f4 [128]
0	0x3e323bbe	0.17405602
1	0x3ba4f26b	0.0050337813
2	0x3e51bb6c	0.20481652
3	0xbd1b7396	-0.03795203
4	0x3e2b49c3	0.16727357
5	0x3e3af7bf	0.1825857
6	0xbc64d003	-0.0139656095
7	0x3e86b84b	0.2631248
8	0x3e457975	0.19284613
9	0x3d21e3f7	0.039524045
10	0x3d13be35	0.036070067
11	0x3df2c009	0.11853034
12	0xbdebe99d	-0.115191676
13	0x3d3895d8	0.045064777
14	0xbdb9d604	-0.09074023
15	0x3e248922	0.16067937
16	0x3dc3f5fd	0.09568403
17	0xbe2116d4	-0.15731364
18	0x3d533e37	0.051573005
19	0x3e21f86f	0.15817426
20	0xbe23d4a9	-0.15999092
21	0x3e18b65e	0.14913318
22	0x3caaffee	0.02087399
23	0x3de340b9	0.11096329
24	0x3daba70e	0.083814725
25	0xbd555492	-0.052082606
26	0x3dc32a1b	0.09529515
27	0xbde41aac	-0.111379
28	0x3d3452df	0.044024345
29	0x3de2f6da	0.110822394
30	0x3d74e1c3	0.059785616
31	0x3d37ffbd	0.044921625
32	0x3e737d38	0.23778236
33	0x3e66bbf5	0.22532637
34	0x3b181792	0.0023207408
35	0x3de5d1e7	0.11221676
36	0x3e2662b9	0.16248597
37	0x3dab6b33	0.08370056
38	0x3d19ae4b	0.037519734
39	0x3d206951	0.039162938
40	0x3e09734f	0.13422893
41	0xbd701a03	-0.058618557
42	0x3d23565e	0.039877288
43	0x3d0332eb	0.03203098
44	0x3ab5f36e	0.0013881752
45	0x3e08d5fc	0.13362879
46	0xbdad3463	-0.084572576
47	0xbc63c450	-0.013901785
48	0x3da2c69f	0.0794804
49	0x3d620520	0.05518067
50	0xbd9432e8	-0.07236272
51	0x3dcd9194	0.100375324
52	0xbe1fcecd	-0.15606232
53	0xbd967a4b	-0.07347544
54	0x3e9c351c	0.3050927
55	0xbc43d7bd	-0.0119532915
56	0x3d28f8a8	0.041252762
57	0x3e7a90e1	0.2446933
58	0x3bc34b71	0.005959921
59	0xbde9768c	-0.11399564
60	0xbd055773	-0.0325541
61	0xbb1bdfb8	-0.002378447
62	0x3df7379d	0.12071154
63	0x3e22767c	0.1586551
64	0xbc57c626	-0.013169801
65	0x3d400e57	0.046888676
66	0x3e1fa51f	0.15590332
67	0xbe07ec61	-0.13273765
68	0x3d334a9c	0.043772325
69	0xbe4d06bf	-0.20022105
70	0x3da28c45	0.079369105
71	0xbe64b0e7	-0.22333108
72	0xbe1cd7f9	-0.15316762
73	0xbdd1bed6	-0.10241477
74	0x3ddafa2d	0.106922485
75	0x3e40d5e2	0.1883159
76	0xbe5528cb	-0.20816343
77	0x3c728d33	0.014804172
78	0x3d0548f4	0.032540277
79	0x3deea386	0.11652283
80	0xbe47c8a4	-0.19510132
81	0xbe3e3cb6	-0.18577847
82	0x3d6caec7	0.05778387
83	0x3b8ddb06	0.004329088
84	0xbe773496	-0.24141154
85	0xbe35a690	-0.1773932
86	0xbe6b2aaa	-0.22965494
87	0x3d56fe00	0.052488327
88	0xbe56eaf4	-0.20988065
89	0xbc9a7cf7	-0.018858416
90	0x3c4874e3	0.012234899
91	0xbd90b780	-0.0706625
92	0xbe3c0b9c	-0.18363804
93	0xbe1c78ed	-0.15280505
94	0x3ca13f60	0.01968354
95	0x3ddff209	0.109348364
96	0x3db61b18	0.088918865
97	0x3e605d2f	0.21910547
98	0x3e029e71	0.12755753
99	0x3e4bad92	0.1989043
100	0x3e4d27e6	0.20034751
101	0x3dc524e2	0.096261755
102	0x3e38878d	0.18020459
103	0xbc9b81e1	-0.01898283
104	0x3d542072	0.051788755
105	0x3d95cfbd	0.073150136
106	0x3e0a3e29	0.13500275
107	0x3d91b7be	0.07115124
108	0x3d0b71eb	0.034044188
109	0xbd6f1ee0	-0.058379054
110	0x3e6a064c	0.22853965
111	0x3e1fff63	0.15624766
112	0x3d9bd830	0.07609594
113	0x3dfb77f6	0.1227874
114	0x3d39026c	0.045168325
115	0xbd8861c8	-0.06659275
116	0xbe35af66	-0.1774269
117	0x3e7a4ffa	0.24444571
118	0x3d19cd75	0.037549455
119	0x3e19afa6	0.15008411
120	0x3d723125	0.0591289
121	0x3e541840	0.20712376
122	0x3cfc6f2e	0.030814733
123	0x3dfc93ef	0.123329036
124	0x3e91b1c3	0.28455934
125	0x3df24b68	0.11830789
126	0xbc80e752	-0.015735302
127	0x3e0fbe79	0.14037503

lstm.bias_hh_l0 f4 [128]
0	0xbba32c66	-0.004979658
1	0xbd37c116	-0.044861875
2	0x3d9188d0	0.07106173
3	0x3d7a23c4	0.061069265
4	0x3dfa64ed	0.12226281
5	0x3d4a3dea	0.049375452
6	0x3d452806	0.048133872
7	0x3d7f6bf9	0.06235883
8	0xbdb9069a	-0.09034462
9	0x3d311f25	0.043242592
10	0x3df9d46f	0.121987216
11	0x3e78f9bd	0.24314018
12	0xbe308b0b	-0.1724054
13	0xbbd3ab8e	-0.00645966
14	0xbd153b59	-0.03643355
15	0x3d5ba2eb	0.053622168
16	0xbbee17a4	-0.007266002
17	0x3e0f7cb7	0.14012419
18	0xbd1c35c5	-0.038137216
19	0xbcd48bf5	-0.025945643
20	0xbd87c48f	-0.066292875
21	0x3df4fd2d	0.11962352
22	0x3e9e9cb4	0.3097893
23	0x3e0e9b0e	0.13926336
24	0x3e855ec8	0.26048875
25	0x3dfcf936	0.12352221
26	0xbd200cab	-0.03907458
27	0x3ca12d1a	0.019674826
28	0x3dd5e00c	0.10443124
29	0x3d4c9605	0.049947757
30	0x3e142099	0.1446556
31	0xbd1bc68e	-0.038031153
32	0x3e833ad0	0.25630808
33	0xbcfdff00	-0.031005383
34	0x3e88f084	0.26746
35	0x3e5f1fce	0.21789476
36	0x3e631400	0.22175598
37	0x3cc22581	0.023699524
38	0xbe07f521	-0.13277103
39	0x3e6ae4c4	0.2293883
40	0xbd2aded6	-0.04171642
41	0xbdc735fd	-0.09727094
42	0x3d887f6f	0.06664931
43	0xbccbfb3d	-0.024900073
44	0xbccd7b97	-0.025083346
45	0x3e599d7d	0.21251483
46	0x3cf48e63	0.029853052
47	0x3d99ab31	0.07503355
48	0xbc8bd027	-0.017067028
49	0x3d7b89b5	0.061410625
50	0x3e00e321	0.12586643
51	0x3e637862	0.22213891
52	0xbe648b6e	-0.22318813
53	0x3e050f51	0.12994124
54	0x3d120c57	0.0356563
55	0x3e4ca538	0.19984901
56	0x3d9f6615	0.077831425
57	0x3e6c292d	0.23062582
58	0x3d58aaa3	0.052897107
59	0xbe5c287b	-0.21499817
60	0x3d58a9c4	0.052896276
61	0x3e82f29f	0.2557573
62	0x3b3da477	0.002893714
63	0x3dc0600e	0.09393321
64	0xbe07d3c4	-0.13264376
65	0x3cbdda08	0.023175254
66	0x3e3a58ed	0.18197985
67	0xbd7df859	-0.06200442
68	0xbe58f101	-0.21185686
69	0x3db4f3f4	0.08835593
70	0xbe10bc3e	-0.14134309
71	0xbdedcaa8	-0.11610919
72	0x3dc0bd32	0.09411086
73	0x3d1efdef	0.03881639
74	0x3e14b67c	0.14522737
75	0x3e763722	0.24044469
76	0xbdb63b1c	-0.08897993
77	0xbda7b23a	-0.08188291
78	0x3d28c15d	0.04120003
79	0x3e167245	0.14692028
80	0xbdc8408c	-0.09777936
81	0x3ddc75ab	0.10764631
82	0x3daf7946	0.08568053
83	0xbe55123d	-0.20807739
84	0x3d97fae0	0.074208975
85	0xbca6d5b8	-0.02036558
86	0xbd2ae650	-0.04172355
87	0x3daf7dac	0.08568892
88	0x3d231e64	0.039823905
89	0xbd4e8172	-0.050416417
90	0x3d563540	0.052296877
91	0xbdef75a5	-0.11692361
92	0xbdd7d6f0	-0.10539043
93	0xbe80fc39	-0.2519243
94	0x3e613bf8	0.21995533
95	0xbe37b6ee	-0.17940876
96	0x3db19cf3	0.08672514
97	0xbcec2e45	-0.028830657
98	0x3e34e700	0.17666245
99	0x3dff77c8	0.12474018
100	0x3e18cb77	0.14921366
101	0x3e5e8611	0.2173083
102	0x3e22d8c0	0.15902996
103	0x3e7eba5d	0.2487578
104	0x3d05cd9c	0.032666788
105	0xbd1cfecb	-0.038328927
106	0x3e88e3fd	0.2673644
107	0x3e5dc06b	0.21655433
108	0xbd35001a	-0.04418955
109	0x3c4e5dd6	0.012595614
110	0xbd8d5cf4	-0.06902495
111	0x3e5bd389	0.21467413
112	0x3e088bc5	0.13334568
113	0x3dfbb807	0.1229096
114	0x3df285c6	0.118419215
115	0x3e77b423	0.2418981
116	0xbd070710	-0.03296572
117	0x3de26990	0.11055291
118	0x3e2f68af	0.17129777
119	0x3e72d75b	0.23714964
120	0x3e6053d3	0.21906976
121	0x3e81710e	0.25281566
122	0x3e082b55	0.1329778
123	0x3d7e3315	0.062060434
124	0x3e2741bf	0.16333674
125	0x3e6d6b58	0.2318548
126	0x3e40f6d4	0.18844157
127	0x3dbeae9b	0.09310647

dense1.weight f4 [32, 32]
0	0xbd93c928	-0.07216102
1	0x3db60ba5	0.0888894
2	0x3cfc5ec1	0.030806901
3	0xbe2f98b6	-0.17148098
4	0xbdd35582	-0.10319044
5	0x3d152549	0.03641251
6	0x3e80279c	0.2503022
7	0x3c25f044	0.010128085
8	0xbc908d52	-0.017645512
9	0xbe415634	-0.1888054
10	0x3e013147	0.12616454
11	0x3e8f186f	0.2794833
12	0x3c4ccd22	0.012500079
13	0xbe726157	-0.23669945
14	0xbcccb1f1	-0.024987193
15	0x3e8adcde	0.27121633
16	0xbdc2f5fe	-0.095195755
17	0xbd5658bd	-0.05233072
18	0x3e15360d	0.145714
19	0xbd2f9826	-0.04286971
20	0xbda75432	-0.08170356
21	0xbc05eca9	-0.0081741
22	0xbe80c327	-0.2514889
23	0x3e0db3ff	0.13838194
24	0xbe1d868b	-0.15383355
25	0x3db550ea	0.08853324
26	0x3dea0cb2	0.11428203
27	0x3d8b3971	0.067980655
28	0xbe22e254	-0.1590665
29	0xbe8e4ff6	-0.2779538
30	0xbb9a8963	-0.004716085
31	0x3d6eafd3	0.058273148
32	0x3e6d9f8d	0.23205395
33	0xbd2ede2d	-0.042692352
34	0xbe358d53	-0.17729692
35	0x3d97676b	0.07392772
36	0x3e231956	0.15927634
37	0x3d649e19	0.055814836
38	0xbd919f61	-0.07110477
39	0xbd239a2b	-0.039941948
40	0x3dca91c7	0.09891086
41	0xbdaa1f47	-0.08306747
42	0xbe0ae38d	-0.13563366
43	0xbd6d61ae	-0.057954483
44	0xbc67e7ee	-0.014154417
45	0xbda14bd5	-0.07875792
46	0xbe039a37	-0.12851797
47	0x3cfbd800	0.030742645
48	0x3e810497	0.25198814
49	0xbdc4998e	-0.09599601
50	0xbc67e593	-0.014153856
51	0x3d99326a	0.07480319
52	0xbdbc164c	-0.0918394
53	0x3db9fa28	0.09080917
54	0xbd0b9baa	-0.034084
55	0xbdb7129a	-0.08939095
56	0xbd0918db	-0.03347097
57	0xbe4463e4	-0.1917873
58	0xbdf22c6d	-0.1182488
59	0x3c63b870	0.013898954
60	0xbd84b2af	-0.06479394
61	0x3c9b8170	0.018982619
62	0xbe79ccba	-0.24394503
63	0xbe4c42b7	-0.19947325
64	0xbe8af820	-0.2714243
65	0x3b03a234	0.0020085694
66	0x3d5b2cb0	0.053509414
67	0x3df5c3cb	0.12000235
68	0xbdbd0aed	-0.092305996
69	0xbe7edab5	-0.24888118
70	0x3e835439	0.25650194
71	0xbe47aa94	-0.19498664
72	0xbe25d202	-0.16193393
73	0xbd036202	-0.03207589
74	0x3cd69169	0.026192384
75	0x3d9a0569	0.07520563
76	0x3c34b6c1	0.0110299
77	0xbdc97350	-0.09836447
78	0xbd4b3dfa	-0.049619652
79	0x3dafbcf1	0.085809596
80	0xbd5d0625	-0.053960938
81	0x3e397ac2	0.18113235
82	0x3db84b0f	0.08998691
83	0x3c74b341	0.014935316
84	0xbd3cfc8f	-0.046139296
85	0x3c1f9c00	0.009741783
86	0xbe1a0fce	-0.15045092
87	0x3e0efb32	0.13963011
88	0xbdf38df6	-0.11892311
89	0xbc30b97f	-0.010786413
90	0x3ea462ff	0.32106778
91	0x3e314698	0.17312086
92	0x3c30a0e9	0.0107805515
93	0xbe636d6d	-0.22209711
94	0x3e7b8584	0.24562651
95	0x3e56ecc6	0.2098876
96	0xbde7faed	-0.11327157
97	0x3db2f051	0.08737243
98	0x3e790084	0.24316603
99	0xbe836f9f	-0.25671098
100	0x3d6288a3	0.05530609
101	0xbe1a599b	-0.15073244
102	0x3cd11be8	0.025526002
103	0xbdc760bd	-0.09735248
104	0xbd56b26a	-0.052416243
105	0xbdade550	-0.084910035
106	0x3e5f46f7	0.21804415
107	0xbcf3ce0e	-0.02976134
108	0x3cc155d1	0.02360049
109	0xbdebcb07	-0.11513334
110	0xbc94a857	-0.018146677
111	0xbd00f153	-0.031480145
112	0xbe2b142e	-0.16706917
113	0x3d1cf3f6	0.038318597
114	0x3def9277	0.11697858
115	0xbe392395	-0.1807998
116	0x3da43ec2	0.080197826
117	0xbd21c81a	-0.039497472
118	0xbe556ae3	-0.20841555
119	0x3dec2618	0.11530703
120	0xbe881783	-0.26580438
121	0x3e3cf9a6	0.18454608
122	0x3d196e37	0.037458625
123	0x3d58e797	0.052955236
124	0xbc3067fc	-0.010766979
125	0xbe29b251	-0.16571929
126	0x3e010d32	0.1260269
127	0x3db12d2f	0.08651196
128	0xbe8cacba	-0.2747553
129	0x3c00dee9	0.007865646
130	0x3cd394c2	0.02582777
131	0x3d2f1773	0.042746972
132	0xbe82e040	-0.25561714
133	0xbd488a22	-0.04895986
134	0x3d5d4dbd	0.054029215
135	0xbd84c8bd	-0.064836
136	0x3c92b2df	0.017907558
137	0x3bd8c633	0.006615424
138	0xbcaebac4	-0.021329291
139	0x3def12bb	0.116734944
140	0x3da0a31c	0.07843611
141	0xbdd5b7da	-0.104354575
142	0x3e05a0a5	0.13049562
143	0x3e9a5088	0.30139565
144	0xbe87434a	-0.26418525
145	0x3e2204ad	0.15822096
146	0x3e26acf2	0.16276911
147	0x3d1def63	0.038558375
148	0x3be3223c	0.0069315713
149	0xbe351653	-0.17684297
150	0xbe1a2fc1	-0.15057279
151	0x3c02a828	0.007974662
152	0xbdd53d6c	-0.10412106
153	0x3e11dbc4	0.1424399
154	0x3e96c331	0.29445794
155	0x3d8053bf	0.06265973
156	0xbe80683f	-0.25079533
157	0x3d23fb88	0.0400348
158	0xbd2a8435	-0.04162999
159	0x3e136dd7	0.1439737
160	0xbcedb213	-0.029015576
161	0x3e53347c	0.2062549
162	0x3e8ca3f7	0.27468845
163	0xbe32afb6	-0.17449841
164	0x3b7c4bbf	0.0038497297
165	0xbdefc95b	-0.117083274
166	0x3df24f3a	0.118315175
167	0xbe4c6aba	-0.19962588
168	0xbe92b25f	-0.2865171
169	0xbe408124	-0.18799263
170	0x3e0add54	0.13560992
171	0x3e21c5ba	0.15798083
172	0x3c6cf2e8	0.01446221
173	0xbe0b3a2d	-0.13596411
174	0x3dcf25e1	0.10114647
175	0x3d297542	0.04137159
176	0xbe16aaf4	-0.14713651
177	0xbcd17368	-0.025567725
178	0x3e10d5cd	0.14144059
179	0x3cd808e1	0.026371421
180	0xbe1b0bcd	-0.1514122
181	0xbcf55861	-0.029949369
182	0xbe5c1e99	-0.21496047
183	0x3ca6f269	0.020379262
184	0xbd286e07	-0.041120555
185	0xbda12126	-0.07867651
186	0x3e5bbbe6	0.21458396
187	0x3d06932e	0.032855205
188	0xbda3a5f4	-0.079906374
189	0xbe13a0cb	-0.14416806
190	0x3d62e753	0.05539639
191	0x3c4f383d	0.012647686
192	0x3e7d8e9f	0.24761437
193	0xba4f55a3	-0.0007909184
194	0x3b87bec1	0.0041426127
195	0xbc822d28	-0.015890673
196	0x3e5aabd3	0.21354608
197	0x3af894d9	0.0018965258
198	0x3d88b745	0.06675581
199	0x3e7f7809	0.24948134
200	0xbd55a6ad	-0.052160908
201	0xbd31eaff	-0.043437
202	0xbe8a349d	-0.26993266
203	0xbe4816f5	-0.19540007
204	0x38cee766	9.865947e-05
205	0xbd5b8269	-0.053591166
206	0x3db84093	0.089966916
207	0xbe66db2f	-0.2254455
208	0x3d6fc92a	0.058541454
209	0xbd88a558	-0.06672162
210	0xbe577a35	-0.21042712
211	0x3dd047e9	0.10169966
212	0xbdd6714a	-0.10470827
213	0xbd37b0f3	-0.044846486
214	0x3ddd0d02	0.10793497
215	0xbdefc177	-0.11706822
216	0x3e463e67	0.19359742
217	0xbe27f40f	-0.16401695
218	0x3d9a15fa	0.07523723
219	0x3e57f5b6	0.21089825
220	0x3d86d8ca	0.06584318
221	0x3daeb48b	0.085305296
222	0xbd7771bf	-0.06041121
223	0xbe3fefbc	-0.18743795
224	0xbda87b65	-0.08226661
225	0x3da80098	0.08203238
226	0x3d8aa1d1	0.06769145
227	0xbe5b2567	-0.21400987
228	0x3cc9eec1	0.02464998
229	0xbe873d0a	-0.26413757
230	0x3de4bb23	0.11168506
231	0xbd1671f3	-0.036729764
232	0xbe6e70c6	-0.23285207
233	0xbdb7697d	-0.08955667
234	0x3e9008dd	0.28131762
235	0x3e16736a	0.14692464
236	0x3e56ab94	0.2096389
237	0xbe6eb01a	-0.23309365
238	0x3e67d288	0.22638905
239	0x3df05fdb	0.11737033
240	0xbdad4fdc	-0.084624976
241	0x3d1af216	0.037828527
242	0x3d88e0ec	0.066835254
243	0x3c160636	0.009156754
244	0x3d8ec66b	0.06971439
245	0xbe7c1991	-0.24619128
246	0x3cdd8d44	0.0270449
247	0x3ea12f0c	0.31481206
248	0xbe584d19	-0.2112316
249	0x3e208346	0.15675077
250	0x3e8610e7	0.2618477
251	0xbe28cf62	-0.1648536
252	0xbd3690c8	-0.044571668
253	0x3d4eb791	0.05046803
254	0x3d71ca0d	0.05903058
255	0xbd532137	-0.051545348
