ecg/CL_trial_4_best_model.pth (torch, 142416 bytes, 15 tensors)

conv1.weight f4 [64, 1, 50]
0	0x3dfe4377	0.12415212
1	0x3e0681aa	0.131354
2	0xbcac779a	-0.021053124
3	0x3e0f77e6	0.14010581
4	0xbcbcc8ae	-0.02304491
5	0x3d0d07d2	0.034431286
6	0xbd844ab3	-0.0645956
7	0x3db030e8	0.08603078
8	0x3dfa51f1	0.1222266
9	0xbddafb93	-0.10692515
10	0x3df5c27e	0.11999987
11	0x3cc3d569	0.023905473
12	0x3dd2ec88	0.10299021
13	0x3c9bb64c	0.019007824
14	0x3d8e7338	0.0695557
15	0xbc83f9a1	-0.016110243
16	0x3dec47b5	0.115371145
17	0x3cf218d8	0.029552862
18	0xbd639a6e	-0.055567198
19	0x3d43f0bd	0.047837008
20	0xbd556aec	-0.05210392
21	0xbb7166ff	-0.0036835072
22	0xbd353910	-0.044243872
23	0x3ddbdb51	0.10735191
24	0xbdcbd25a	-0.09952231
25	0xbd5e88fd	-0.05432986
26	0xbcf365ed	-0.029711688
27	0xbd99eacf	-0.07515489
28	0x3cbd1d5f	0.023085294
29	0xbe05620a	-0.1302568
30	0x3e0d3134	0.13788301
31	0xbde05fba	-0.109557584
32	0x3df6e4c9	0.12055356
33	0x3d0d48d9	0.0344933
34	0xbd114a13	-0.035471033
35	0x3dc93cd0	0.09826052
36	0x3d0734b7	0.033009257
37	0x3dff4342	0.12464
38	0x3cc9a062	0.02461261
39	0xbd14eadb	-0.036356788
40	0x3d3d8624	0.046270505
41	0xbcf27581	-0.029597046
42	0x3d90f699	0.07078285
43	0x3e13fc70	0.14451766
44	0x3dcda743	0.10041668
45	0xbd2eb4ca	-0.042652883
46	0x3dd08c61	0.10183025
47	0x3d3bedab	0.045880955
48	0x3db45b68	0.08806497
49	0xbd9054bc	-0.07047412
50	0xbe1d5ad4	-0.1536668
51	0xbd8cfac6	-0.06883769
52	0xbdf9f8c1	-0.12205649
53	0x3dd52b75	0.104086794
54	0x3cebc044	0.028778203
55	0x3d3dcaec	0.0463361
56	0x3d043baf	0.03228348
57	0xbc7ba74f	-0.015359714
58	0x3dc7afe5	0.09750346
59	0xbde921e2	-0.11383416
60	0xbb83ae44	-0.004018577
61	0xbdde43de	-0.108527884
62	0x3d058dc1	0.03260589
63	0xbd5ed91d	-0.054406274
64	0x3d1dfc02	0.03857041
65	0xbd0b9033	-0.034073066
66	0x3de78aa2	0.11305739
67	0xbdb3df21	-0.08782793
68	0xbdb5e12f	-0.08880841
69	0xbdb59c4a	-0.088677004
70	0x3dfdf65a	0.124005035
71	0x3d3750ca	0.04475478
72	0x3e084c3a	0.13310328
73	0xbdf8da28	-0.12150985
74	0xbe1541dc	-0.14575905
75	0xbded7598	-0.11594695
76	0xbdcb902f	-0.0993961
77	0x3d6182e0	0.055056453
78	0x3d4ac70d	0.049506236
79	0x3dede577	0.116160326
80	0xbd99b38a	-0.075049475
81	0xbdc8e1a1	-0.0980866
82	0x3d98375c	0.07432434
83	0xbd6c4a17	-0.057687845
84	0x3daf1b28	0.085501015
85	0xbd093db8	-0.033506125
86	0x3da52745	0.08064131
87	0xbde3e983	-0.11128523
88	0xbd9542c7	-0.072881274
89	0x3d2dcd18	0.04243192
90	0x3cede0d9	0.02903788
91	0xbd2bb2ba	-0.041918494
92	0x3da10f80	0.078642845
93	0x3db97e94	0.09057346
94	0xbddff9ba	-0.109363034
95	0xbda8034b	-0.08203753
96	0x3dfe0c6e	0.124047145
97	0xbd4bb2d0	-0.049731076
98	0xbd59c600	-0.053167343
99	0xbe0f827c	-0.1401462
100	0xbdca2b43	-0.09871533
101	0x3c96f656	0.018428009
102	0xbd0fba87	-0.035089996
103	0xbdf34742	-0.11878826
104	0xbc49cced	-0.0123169245
105	0xbde5694a	-0.11201723
106	0xbe060c1f	-0.13090561
107	0xbdb432b6	-0.08798735
108	0xbe08c81d	-0.13357587
109	0xbdcc42ce	-0.099736795
110	0x3e033048	0.12811387
111	0x3c8d3b21	0.017240109
112	0x3d0e84c3	0.03479458
113	0xbe1034e4	-0.14082676
114	0xbdd0cabf	-0.10194921
115	0xbd64a0f2	-0.055817552
116	0x3c527e80	0.012847543
117	0xbe0d544b	-0.13801686
118	0xbd8fdbfe	-0.07024382
119	0xbdc8f60e	-0.09812556
120	0xbc5460a1	-0.012962491
121	0xbd86b6ed	-0.06577859
122	0xbcbd49da	-0.023106504
123	0xbddf9f65	-0.10919074
124	0xbde1cc81	-0.11025334
125	0xbdc3fa60	-0.095692396
126	0xbd7b2e5f	-0.06132352
127	0xbdfcaa95	-0.123372234
128	0x3ddde66c	0.10834965
129	0xbd1ae932	-0.03782005
130	0x3de609b0	0.112323165
131	0x3d0d641c	0.0345193
132	0xbe04a010	-0.12951684
133	0x3db5295e	0.08845781
134	0xbd46a755	-0.048499424
135	0xbd83c4b3	-0.06434002
136	0xbe02cb70	-0.12772918
137	0xbe1a31d4	-0.1505807
138	0x3d004693	0.031317305
139	0xbd21d246	-0.039507173
140	0x3d3de480	0.046360493
141	0xbdffd4ab	-0.12491735
142	0x3dc5928d	0.09647093
143	0xbde669d1	-0.11250652
144	0xbd0538ef	-0.032525
145	0x3cbf05ed	0.023318255
146	0x3d8b1c66	0.06792526
147	0x3de215a6	0.11039285
148	0x3dff8b73	0.1247777
149	0xbdf0844d	-0.11743984
150	0x3cf1852e	0.02948245
151	0xbd8dde7b	-0.069272004
152	0xbcd04dad	-0.025427664
153	0xbdecfd1c	-0.11571714
154	0x3df71f7e	0.120665535
155	0xbde57b29	-0.112051316
156	0x3d91c21a	0.071171
157	0x3d4dd20b	0.05024914
158	0x3d3b405a	0.045715667
159	0xbda19be3	-0.07891061
160	0x3e030cfc	0.12797922
161	0x3cefd2e1	0.02927536
162	0x3c015b71	0.0078953365
163	0xbe0c34f2	-0.13692072
164	0x3d465a11	0.048425738
165	0xbd03856a	-0.032109655
166	0xbd983c15	-0.07433335
167	0x3ded8489	0.11597545
168	0x3cd3f7f9	0.025875079
169	0xbda73e2a	-0.08166154
170	0xbd9ac87d	-0.07557771
171	0xbc1f5058	-0.009723745
172	0x3d9d261e	0.07673286
173	0xbd28de53	-0.04122765
174	0xbdb50bfd	-0.08840177
175	0xbd6e30c5	-0.05815198
176	0xbdebfb58	-0.115225494
177	0x3d4753d9	0.048663948
178	0x3df0b58f	0.117533796
179	0xbe051e0c	-0.12999743
180	0x3d30ac2f	0.043132957
181	0x3db6361e	0.08897041
182	0x3d2339b9	0.03984997
183	0xbd18329e	-0.037157647
184	0x3db62406	0.0889359
185	0x3db81d1e	0.08989929
186	0x3d87039a	0.06592484
187	0xbc74e877	-0.014948002
188	0xbcde684c	-0.027149342
189	0x3ce1e0be	0.027572986
190	0xbc34f6e4	-0.011045191
191	0xbcd64e48	-0.026160374
192	0x3de04b8b	0.10951909
193	0x3e10e2c6	0.14149007
194	0x3bc80793	0.0061044185
195	0xbc416028	-0.011802711
196	0x3c92fcbc	0.017942779
197	0x3c19b5e9	0.00938175
198	0x3d5c399e	0.053765886
199	0x3d67f6fc	0.056632027
200	0xbe14e3cd	-0.14540024
201	0xbd8b4d24	-0.06801823
202	0x3dd63fb6	0.10461371
203	0x3d281d37	0.041043486
204	0xbcb079c5	-0.02154244
205	0xbdcc65b2	-0.09980334
206	0xbdcf1c77	-0.10112851
207	0xbe10943a	-0.14119044
208	0xbd75e2fd	-0.060030926
209	0x3d0c4f61	0.03425539
210	0x3d9d5bfd	0.07683561
211	0x3d55e737	0.052222457
212	0xbe0d990c	-0.13827914
213	0xbdc997a0	-0.09843373
214	0xbd11bbf4	-0.035579637
215	0x3dfd3a93	0.12364688
216	0x3bf1e736	0.007382299
217	0xbd4b55a4	-0.04964222
218	0x3d3b68e9	0.045754347
219	0xbd86be00	-0.065792084
220	0xbdd341d0	-0.10315287
221	0x3dbc2e2b	0.09188493
222	0xbd9ac1d3	-0.075565
223	0xbd23c4d0	-0.039982617
224	0xbe1c046f	-0.15236066
225	0x3dabb13a	0.08383413
226	0x3dc62fc4	0.09677079
227	0x3d278009	0.04089359
228	0xbde0798b	-0.109606825
229	0xbe1a6a21	-0.15079547
230	0xbe006e41	-0.12542059
231	0x3dcf1b2d	0.10112605
232	0x3d8317a1	0.06400991
233	0x3ded15e0	0.11576438
234	0x3d8f6467	0.07001572
235	0x3cfe94b4	0.031076767
236	0xbc343186	-0.010998135
237	0xbdf1f96c	-0.118151516
238	0xbe06f547	-0.13179503
239	0xbe12420b	-0.14283006
240	0x3d41f3c0	0.0473516
241	0xbda3fe88	-0.08007532
242	0xbd20b34b	-0.039233487
243	0xbdbc5ec8	-0.091977656
244	0xbd145aeb	-0.03621952
245	0xbde19810	-0.11015332
246	0xbdd1b0bb	-0.10238787
247	0x3d299705	0.04140379
248	0xbd41d94b	-0.047326367
249	0x3da0cb24	0.07851246
250	0xbd20a8da	-0.03922353
251	0xbdc8c12c	-0.098024696
252	0xbc9ee36e	-0.019395556
253	0xbd827bf1	-0.06371296
254	0xbd206eda	-0.039168216
255	0xbe05cd01	-0.13066484

conv1.bias f4 [64]
0	0xbda0553c	-0.07828757
1	0x3db6ea1b	0.08931371
2	0x3df26a84	0.118367225
3	0x3e267265	0.16254576
4	0xbdd2b2bd	-0.10287998
5	0x3e201fbc	0.15637106
6	0x3e0f195b	0.13974516
7	0x3e37c8c4	0.1794768
8	0x3dec06f3	0.11524763
9	0xbcfd2dff	-0.030905722
10	0x3e0faa54	0.14029819
11	0x3e2d03c3	0.16895966
12	0xbd23c5d7	-0.039983597
13	0x3c99e89f	0.01878768
14	0x3e0aba1c	0.13547558
15	0x3e1437a7	0.14474355
16	0x3e0016d1	0.12508704
17	0x3e1ae765	0.15127333
18	0xbd1a14d3	-0.037617516
19	0x3be60e1f	0.0070207263
20	0xbcecb8b5	-0.028896669
21	0x3de38979	0.11110205
22	0x3d69f898	0.057121843
23	0xbd9a0e4e	-0.0752226
24	0x3b6782cc	0.0035325764
25	0xbdbd2b32	-0.092367545
26	0xbdfd3dc3	-0.12365296
27	0x3e2bcc93	0.16777258
28	0xbd21f52d	-0.03954046
29	0x3dc44354	0.09583154
30	0xbb49bf8b	-0.0030784335
31	0x3b334d39	0.002735926
32	0x3ce2145f	0.027597604
33	0x3e146428	0.14491332
34	0x3cb1ad4f	0.021689085
35	0x3e1fcf63	0.15606456
36	0x3df36ee1	0.11886383
37	0x3e083f4b	0.13305394
38	0xbdc74f31	-0.097319014
39	0xbd32bd6b	-0.043637674
40	0xbda9db9a	-0.08293839
41	0x3bd16713	0.006390461
42	0x3c35ce3d	0.011096534
43	0x3d5f3c6a	0.054500975
44	0x3e2a48c7	0.16629325
45	0x3dd25a34	0.10271111
46	0xbd900954	-0.07033029
47	0xbd834ed2	-0.06411518
48	0x3e1797fb	0.1480407
49	0x3d663101	0.056199078
50	0x3da93f36	0.0826401
51	0xbd19d705	-0.037558574
52	0x3c756ef0	0.014980063
53	0x3d905a03	0.070484184
54	0xbd83150c	-0.06400499
55	0x3dfcd2b3	0.12344875
56	0x3de4b852	0.11167969
57	0xbd4c9614	-0.049947813
58	0xbcd6ba34	-0.026211835
59	0x3b81f5ee	0.0039660847
60	0x3d73166e	0.059347562
61	0xbc5ccdde	-0.013476817
62	0x3e336e83	0.17522626
63	0xbdd8d84b	-0.105881296

conv2.weight f4 [32, 64, 10]
0	0x3b2fe729	0.0026840663
1	0xb942d6f2	-0.00018581355
2	0x3d0facee	0.035077028
3	0x3cec66bf	0.028857587
4	0x3c58c114	0.013229627
5	0x3d69b7dc	0.057060108
6	0xbc296551	-0.010339097
7	0x3d1b8a26	0.037973545
8	0x3b234671	0.0024913813
9	0x3c7d2176	0.015449872
10	0xbbaae04c	-0.0052147266
11	0x3b7db250	0.003871102
12	0xba210559	-0.00061424595
13	0x3d4eede6	0.050519846
14	0x3c92f10b	0.017937204
15	0x3d5d8b43	0.05408789
16	0x3c398260	0.011322588
17	0x3cb8d42b	0.022562107
18	0x3d16890d	0.036751796
19	0x3d8671af	0.06564652
20	0x3cb9f8b2	0.022701595
21	0x3d6679d0	0.056268513
22	0x3d355182	0.044267185
23	0x3d6ba545	0.05753066
24	0x3d6be3f6	0.057590447
25	0x3d47b41e	0.048755758
26	0x3ca7912c	0.020454966
27	0x3cab9bfb	0.0209484
28	0x3d4299ca	0.047509946
29	0x3d5a52cb	0.053301614
30	0x3d0d6fb9	0.034530375
31	0x3d680f5b	0.05665527
32	0x3c5e1ad0	0.013556197
33	0x3d74b439	0.059742186
34	0x3d061dfa	0.03274343
35	0x3c214130	0.009842202
36	0x3c9f44b2	0.019441936
37	0x3c041a1e	0.008062867
38	0x3d3cd68d	0.04610305
39	0x3c75cc6b	0.01500235
40	0x3c87c01d	0.016571099
41	0x3cc86fef	0.024467437
42	0x3b40507d	0.002934485
43	0x3ce64b6c	0.028112136
44	0x3cad0a39	0.021123039
45	0x3d2481c3	0.040162813
46	0x3d5f0eb6	0.05445739
47	0x3ac4b855	0.0015008549
48	0x3d4269df	0.047464248
49	0x3cc6c370	0.024263114
50	0x3c372e4d	0.011180473
51	0x3c83f5c2	0.016108397
52	0x3d355e8c	0.04427962
53	0x3d2c56a6	0.042074822
54	0x3d03cbc0	0.032176733
55	0x3c6da14d	0.014503789
56	0x3d5adb1f	0.053431626
57	0x3d20fec1	0.039305452
58	0xbb9a1b39	-0.004702952
59	0x3cdc3875	0.02688239
60	0x3cae0390	0.021241933
61	0x3c755e82	0.014976146
62	0x3c212d20	0.009837419
63	0xb99bacce	-0.00029692653
64	0x3d9190e7	0.07107716
65	0xbb8a138b	-0.0042137555
66	0x3d8d8787	0.069106154
67	0x3adb336e	0.0016723701
68	0x3cbc588e	0.022991445
69	0x3c83b95e	0.0160796
70	0x3c722832	0.014780091
71	0x3d4ded05	0.050274868
72	0x3d723a3a	0.05913756
73	0x3c2fc7c2	0.010728778
74	0x3c8bd541	0.01706946
75	0x3d680316	0.056643568
76	0x3cfe8b46	0.03107227
77	0x3d396a2c	0.04526727
78	0x3d682c05	0.056682605
79	0x3cb01729	0.021495419
80	0x3c495e2b	0.012290518
81	0x3d496c68	0.04917565
82	0x3ca8d4d0	0.02060929
83	0x3c0880a5	0.0083314525
84	0x3c6e4648	0.014543124
85	0x3c805bb9	0.015668737
86	0x3d964382	0.07337095
87	0x3d28910e	0.04115396
88	0x3d4ed467	0.05049553
89	0x3d2040ac	0.039124176
90	0xbb9fa456	-0.0048718853
91	0x3d545c2d	0.05184572
92	0x3c948c8a	0.01813342
93	0x3c65fc0f	0.014037146
94	0x3d6344c3	0.0554855
95	0x3b696b71	0.0035617019
96	0x3d021423	0.031757485
97	0xbc1e1911	-0.009649531
98	0x3d3944c1	0.045231584
99	0x3d2a44c9	0.041569505
100	0x3aa555de	0.0012614091
101	0x3d67edb2	0.05662317
102	0x3d20d1c4	0.039262548
103	0x3c6758b1	0.014120267
104	0x3d8dc472	0.069222346
105	0x3d53fb00	0.051753044
106	0x3d480bc3	0.04883934
107	0x3cae96da	0.021312166
108	0x3c7ef38a	0.015560994
109	0x3c7d316e	0.0154536795
110	0x3d48072e	0.048834972
111	0x3d367f45	0.044554967
112	0x3c2a7794	0.010404486
113	0x3d8e6b1a	0.06954022
114	0x3d67016f	0.05639785
115	0x3c93ac93	0.018026626
116	0x3d5d9b01	0.0541029
117	0x3c874ec8	0.016517058
118	0x3d3dc149	0.04632691
119	0x3d8778e7	0.06614857
120	0xbbdd9aa6	-0.0067628203
121	0x3bfbf3f7	0.007688995
122	0x3cd37eeb	0.025817355
123	0x3d0b89de	0.034067027
124	0xbb99d1d5	-0.0046942034
125	0x3ae4043a	0.0017396279
126	0x3cc5c7d8	0.024143144
127	0x3caf6349	0.021409648
128	0x3d111192	0.035417147
129	0x3d038d84	0.03211738
130	0x3d16553b	0.036702376
131	0x3d02c3f1	0.031925146
132	0x3d082b7f	0.033244606
133	0x3cd632c3	0.026147252
134	0x3d2cb153	0.042161297
135	0x3d632c29	0.055462036
136	0x3c25d8ef	0.010122522
137	0x3c1f1c3c	0.009711321
138	0x3d3b3306	0.045702957
139	0x39ccdce8	0.000390745
140	0x3d80dd21	0.06292177
141	0x3d626c9c	0.05527936
142	0x3d2df3e5	0.042468924
143	0x3ca2d8f3	0.01987884
144	0x3d1f008f	0.038818892
145	0x3be0fb15	0.006865869
146	0x3b13e96f	0.0022569557
147	0x3d9a9325	0.07547597
148	0x3b31f74b	0.0027155455
149	0x3bc54b56	0.0060209436
150	0x3ca48c5e	0.020086464
151	0x3d170d19	0.036877725
152	0x3d35ce7b	0.04438637
153	0x3c796b21	0.015223295
154	0x3d000d81	0.03126288
155	0x3cd2fcd6	0.025755327
156	0x3d8a26bf	0.067456715
157	0x3d8dd011	0.06924451
158	0x3d4e62de	0.050387256
159	0x3d0da7a2	0.034583695
160	0x3d7d7ab6	0.061884604
161	0x38027b16	3.1109048e-05
162	0x3d4ae66d	0.049536157
163	0x3c237387	0.009976274
164	0x3d815a8e	0.063161
165	0xba7d0ca5	-0.0009653068
166	0x3d4615ec	0.04836075
167	0x3a81ad86	0.0009893633
168	0x3d6a2242	0.057161577
169	0x3d2bfd16	0.04198941
170	0x3d8803d0	0.06641352
171	0x3aac86f6	0.001316278
172	0x3d68a1c6	0.056794904
173	0x3b93d45e	0.0045114
174	0x3c25082c	0.010072749
175	0x3d3fd308	0.046832114
176	0x3cc88b5e	0.024480518
177	0x3a8d0eeb	0.0010761892
178	0xbac595a7	-0.0015074507
179	0x3cb480ee	0.022034135
180	0x3d208be4	0.03919591
181	0x3d7dc6a2	0.06195701
182	0x3d66c762	0.05634249
183	0x3ce3daa6	0.02781422
184	0x3b0d9dad	0.0021608875
185	0xbc2029cb	-0.009775589
186	0x3d7e0be7	0.06202307
187	0x3b993be8	0.004676331
188	0x3c98bc17	0.018644376
189	0xbbb5f74d	-0.005553162
190	0xbb62b8e3	-0.0034595064
191	0x3d04bb3e	0.03240513
192	0x3c4f9716	0.012670299
193	0x3ce84f89	0.028358238
194	0x3cb74102	0.022369865
195	0x3cdb525f	0.026772676
196	0x3c885c61	0.016645612
197	0x3cba8398	0.022767827
198	0x3d2b1905	0.041771907
199	0x3d63be7b	0.05560158
200	0x3d8222e7	0.06354313
201	0xbb6df922	-0.0036311825
202	0xbb861f9b	-0.004093123
203	0x3cb99600	0.022654533
204	0x3cd2eac8	0.025746718
205	0x3d4eddf6	0.050504647
206	0x3d867f44	0.06567243
207	0x3d1df8e9	0.038567457
208	0x3839cbb0	4.4297136e-05
209	0x3cb9212c	0.022598825
210	0x3d6a7b8c	0.05724673
211	0x3d3cd426	0.046100758
212	0x3b2abc9b	0.002605236
213	0x3d08707a	0.03331039
214	0xbbf04109	-0.0073319715
215	0x3c78f781	0.015195728
216	0x3d6fdbe1	0.058559302
217	0x3c684c8c	0.014178406
218	0x3d633d1b	0.055478197
219	0xba1d2a62	-0.000599539
220	0x3d8ca61c	0.0686762
221	0x3d575a28	0.052576214
222	0x3d707259	0.0587028
223	0x3d36b998	0.04461059
224	0x3d1535f5	0.03642841
225	0x3c71fbcf	0.0147695085
226	0x3c5ff0c4	0.013668243
227	0x3bf9dc66	0.0076251505
228	0x3d8ae3fa	0.06781764
229	0x3cb16174	0.021652915
230	0x3ccfdc12	0.025373492
231	0xbc651c71	-0.013983832
232	0x3d0ac9fa	0.033884026
233	0x3c042b37	0.008066944
234	0xbc147a48	-0.009062357
235	0x3ce515ed	0.027964557
236	0xbc6c4a6e	-0.014422042
237	0x3ca0a8c3	0.019611722
238	0xbc05cb4b	-0.008166145
239	0x3d3db935	0.046319205
240	0xbbc4035a	-0.005981845
241	0x3cf9b1db	0.030480316
242	0x3d382276	0.04495474
243	0xbbd0d201	-0.0063726907
244	0x3d5a8fa8	0.053359658
245	0x3d69ca4c	0.05707769
246	0xb8ea8c16	-0.000111840825
247	0x3ce21bc3	0.027601128
248	0x3d18f4fa	0.037343003
249	0x3d6d4593	0.05792768
250	0x3d4c5214	0.049882963
251	0xbc651bc9	-0.013983675
252	0xbc5299c3	-0.012854042
253	0xbc81d7dc	-0.01585
254	0x3aef2b67	0.0018247188
255	0x3c292f81	0.010326267

conv2.bias f4 [32]
0	0x3d9e3de4	0.077266484
1	0x3d7e5bfe	0.06209945
2	0x3d8f28da	0.06990214
3	0x3d127794	0.03575857
4	0x3cae99d2	0.021313582
5	0x3964f0c6	0.0002183347
6	0x3c3ebcec	0.011641722
7	0xba900209	-0.0010986935
8	0xbbd4dffd	-0.006496428
9	0x3d87079e	0.0659325
10	0xbd0cd738	-0.034384936
11	0xbcafb34e	-0.021447804
12	0x3d05776b	0.03258459
13	0xbb0df078	-0.0021658223
14	0xbd119566	-0.035542868
15	0x3d7297ca	0.05922679
16	0x3d39fba6	0.045406006
17	0xbd2cff9d	-0.04223596
18	0x3cf17067	0.029472543
19	0x3d32fc19	0.04369745
20	0x3cf00dd7	0.029303474
21	0xba1b8112	-0.0005932014
22	0xbd4bb0af	-0.049729045
23	0xbc969082	-0.018379454
24	0x3c8dd545	0.017313609
25	0xbc41541f	-0.011799841
26	0xbb6b7a71	-0.0035931135
27	0x3d01e14d	0.031709004
28	0x3c8eb9bf	0.017422555
29	0x3d136ab9	0.03599045
30	0x3cb21019	0.021736192
31	0xbd289375	-0.04115625

conv3.weight f4 [16, 32, 5]
0	0x3d0e92bf	0.034807917
1	0x3df94d43	0.1217294
2	0x3dcb92d7	0.09940117
3	0x3d19492d	0.0374233
4	0x3d932870	0.07185447
5	0x3d74d5ee	0.05977433
6	0x3a86b428	0.001027708
7	0x3d93e3d6	0.07221191
8	0x3d9c742b	0.07639345
9	0x3d080b17	0.0332137
10	0x3dc111ca	0.09427221
11	0x3d962e31	0.07333029
12	0x3a176972	0.00057759054
13	0x3d767e57	0.06017908
14	0x3d972c32	0.073814765
15	0x3dd87be7	0.105705075
16	0xbc2adcea	-0.010428647
17	0xbcda701b	-0.026664784
18	0x3c0e3733	0.008680153
19	0x3d35b488	0.04436162
20	0xbc5fa0cd	-0.013649178
21	0x3cf9ba10	0.03048423
22	0xbc12bbae	-0.008955879
23	0xbc32596d	-0.010885579
24	0x3d960655	0.073254265
25	0x3d5d8e2e	0.05409067
26	0x3cd7b105	0.026329527
27	0x3d90bb8d	0.070670225
28	0xbb3e6c63	-0.0029056303
29	0x3cd2e5b0	0.02574429
30	0x3d9311af	0.07181107
31	0x3da2a30f	0.07941257
32	0x3d138b75	0.03602167
33	0xbd62c2e1	-0.055361632
34	0x3cf8e86b	0.030384263
35	0x3d7e1de1	0.062040213
36	0x3d2c123d	0.04200958
37	0xbd8a17f2	-0.067428485
38	0xbb9d7846	-0.0048055975
39	0xbcc95dc5	-0.024580846
40	0xbd727062	-0.059189208
41	0xbd5d4dfc	-0.05402945
42	0x3d823cdf	0.063592665
43	0xbd183676	-0.037161313
44	0xbd0eb40f	-0.034839686
45	0x3c4caf79	0.012493008
46	0x3d1e6316	0.038668714
47	0x3dbb3548	0.09141022
48	0xbd083ace	-0.033259206
49	0x3bd67777	0.006545003
50	0xb7c525a1	-2.3501752e-05
51	0x3d0e9a30	0.034815013
52	0xbcfe0fe4	-0.031013437
53	0xbc0d20e0	-0.008613795
54	0xbcf2ac90	-0.0296233
55	0xbba34eb7	-0.004983749
56	0x3d5bee15	0.05369385
57	0xbca92166	-0.020645808
58	0x3b0e0053	0.0021667674
59	0xbd1fc5c3	-0.03900696
60	0x3d7a2d5f	0.061078425
61	0xbc6e4571	-0.014542923
62	0x3d5614e5	0.05226602
63	0xbd35a883	-0.04435016
64	0x3d812969	0.063067265
65	0x3d9d04ef	0.07666957
66	0xbc69844f	-0.014252736
67	0x3d06fa05	0.03295328
68	0xbb9d8d55	-0.004808108
69	0x3be65270	0.0070288703
70	0x3d42eb22	0.04758752
71	0xbd060b22	-0.03272546
72	0x3d5d5f96	0.054046236
73	0x3d547fac	0.05187957
74	0x3daa94df	0.08329176
75	0x3c5a6204	0.013329033
76	0xbcd61753	-0.026134169
77	0x3dbf22b6	0.093327925
78	0x3cbd11fb	0.023079863
79	0x3c412b9f	0.011790185
80	0x3bf8027e	0.0075686565
81	0x3deb1e59	0.11480398
82	0xbc90aac8	-0.01765956
83	0x3d56739d	0.05235635
84	0x3d4afe97	0.049559202
85	0xbcc01fe0	-0.0234527
86	0x3d62ac98	0.05534038
87	0x3d619899	0.05507717
88	0x3d800902	0.06251718
89	0x3cf7a258	0.030228779
90	0x3d84b1e6	0.06479244
91	0x3d86bc5b	0.06578895
92	0x3c62892d	0.013826651
93	0xbcab9100	-0.020943165
94	0x3d3c8af5	0.046030957
95	0x3d4bdcaa	0.04977099
96	0x3dbac3d4	0.091193825
97	0x3d61c366	0.055117987
98	0x3d2ff477	0.04295775
99	0x3bde89e7	0.0067913416
100	0x3de3449a	0.11097069
101	0x3de1da2b	0.1102794
102	0x3df88ae3	0.121358655
103	0x3d082a58	0.033243507
104	0x3b132209	0.0022450706
105	0xbd52543d	-0.051349867
106	0xbd83e49c	-0.06440088
107	0xbd4d7ca6	-0.050167702
108	0xbc4d5d6a	-0.012534479
109	0x3d997de0	0.07494712
110	0xbd71cc88	-0.059032947
111	0xbc213eae	-0.009841604
112	0x3d35c3d0	0.044376194
113	0x3d4a9c3b	0.0494654
114	0x3c40ac98	0.0117599
115	0xbb9f4e99	-0.0048616645
116	0x3c887ebe	0.016661998
117	0xbd160fff	-0.03663635
118	0x3d545d9d	0.05184709
119	0x3d7214c0	0.05910182
120	0x3c91f586	0.01781727
121	0x3d737d99	0.05944595
122	0x3d513af7	0.051081624
123	0xbd8e679f	-0.06953358
124	0xbcd98d1e	-0.026556548
125	0xbd65b83d	-0.056083906
126	0x3d28d571	0.04121918
127	0xbd6fa12a	-0.058503307
128	0x3bf234d3	0.007391551
129	0xbd658a2b	-0.05603997
130	0x3d683b1f	0.056697007
131	0xbd1cedbd	-0.038312662
132	0xbd61f89a	-0.055168726
133	0xbc847f8f	-0.016174106
134	0x3d2bdaf3	0.041956853
135	0x3c630758	0.013856731
136	0x3d938a85	0.07204155
137	0x3d3c7a07	0.04601481
138	0xbbbe8f2b	-0.005815407
139	0x3d0f185d	0.034935344
140	0x3dacf570	0.08445251
141	0xbcba38f9	-0.022732245
142	0x3dc2b2ce	0.095067605
143	0x3d3792dd	0.044817794
144	0x3d848fe5	0.06472758
145	0x3cd702df	0.026246486
146	0x3dcb7987	0.09935289
147	0xbc9c3644	-0.019068845
148	0x3b9fbb3a	0.004874614
149	0x3db1bdc3	0.08678772
150	0xbaeecf2a	-0.0018219699
151	0x3ddaad23	0.106775545
152	0x3c095bc1	0.008383692
153	0xbd203904	-0.039116874
154	0x3ddfedf5	0.109340586
155	0x3d9e4f44	0.077299625
156	0x3d39fcd6	0.04540714
157	0xbd60d3f1	-0.054889623
158	0x3cf52fdc	0.029930048
159	0xbbc3c692	-0.005974599
160	0x3d5c03f1	0.053714696
161	0xbb82bd85	-0.0039898776
162	0xbcea5f2c	-0.028609835
163	0xbdd1be36	-0.10241358
164	0xbd528861	-0.051399592
165	0x3d125ea9	0.035734806
166	0xbdaaaeb1	-0.08334101
167	0xbc7a0327	-0.015259541
168	0xbdad4c0a	-0.08461769
169	0xbcf9c766	-0.030490588
170	0xbd2cf31a	-0.042224027
171	0xbd0be3cb	-0.034152787
172	0xbcd98e5c	-0.02655714
173	0xbd3d439c	-0.046207055
174	0xbd581947	-0.05275848
175	0x3c72dd14	0.014823217
176	0xbc43bd0e	-0.01194693
177	0xbd80d0f5	-0.062898554
178	0x3c8e9024	0.017402716
179	0x3d5efe11	0.054441515
180	0x3cb06b98	0.02153568
181	0x3c5217f4	0.012823094
182	0xbd11df48	-0.03561333
183	0x3d189d42	0.037259348
184	0xbd54aff3	-0.05192561
185	0x3cc93219	0.024560021
186	0x3d6b64f4	0.057469323
187	0xbcc6cdf7	-0.024268134
188	0xbd6d6399	-0.05795631
189	0x3c0aab9b	0.0084637655
190	0xbcc3487d	-0.023838276
191	0x3d04e8e1	0.032448653
192	0xbd46059a	-0.048345186
193	0x3d2674af	0.040638622
194	0x3d2c13b2	0.04201097
195	0x3c9d2bfb	0.01918601
196	0xbc11e8eb	-0.00890563
197	0xbd49ee18	-0.04929933
198	0x3d11b918	0.03557691
199	0xbd0b1c3a	-0.033962466
200	0xbd2dc413	-0.04242332
201	0x3d3e43eb	0.04645149
202	0xbd0c42cb	-0.034243386
203	0x3cb6f2f2	0.022332642
204	0x3ca31472	0.01990721
205	0xbd5efbb9	-0.05443928
206	0x3ce3bbe4	0.027799554
207	0xbcfcf325	-0.03087766
208	0x3c8b2e9b	0.016989997
209	0xbd9c8b1a	-0.07643719
210	0x3c6c0cae	0.01440732
211	0x3d52e298	0.051485628
212	0xbd475165	-0.04866161
213	0x3d7bfde1	0.061521415
214	0xbd7e4ad2	-0.062083073
215	0x3c3e3cdd	0.011611191
216	0x3c49a7ca	0.01230807
217	0xbc4daa82	-0.012552859
218	0x3c736057	0.014854512
219	0x3c111172	0.008854257
220	0xbd6b47ef	-0.057441648
221	0xbdb1931f	-0.08670639
222	0xbda42c30	-0.080162406
223	0xbcc306ea	-0.023807008
224	0xbcb518f3	-0.022106623
225	0xbd0a21f8	-0.0337238
226	0xbcd34780	-0.02579093
227	0xbdb99fda	-0.090636924
228	0xbdc67966	-0.09691124
229	0xbd5663c5	-0.05234124
230	0xbda8031f	-0.0820372
231	0x3cde026d	0.027100766
232	0xbd19d4d4	-0.037556484
233	0xbd4b616f	-0.049653467
234	0xbb594b8b	-0.00331566
235	0xbbf523a5	-0.007481056
236	0x3c908a46	0.017644059
237	0xbca8af1a	-0.020591307
238	0x3b73106b	0.0037088643
239	0xbba98268	-0.0051730163
240	0x3d3ab35b	0.045581203
241	0x384aae27	4.8322745e-05
242	0x3be8f90e	0.0071097678
243	0xbca65fed	-0.020309413
244	0x3c3ee81a	0.011652017
245	0xbcaf1906	-0.021374237
246	0xbd66a19d	-0.05630647
247	0xbd7b3b16	-0.061335646
248	0x3cf09d94	0.029372014
249	0xbc3bb123	-0.011455807
250	0x3d5aa66d	0.053381372
251	0x3cb0a16c	0.021561347
252	0x3d383cf2	0.044979997
253	0xbd05d16e	-0.03267043
254	0x3cdc1f12	0.026870284
255	0xbc497941	-0.012296976

conv3.bias f4 [16]
0	0x3dba05f1	0.090831645
1	0xbc007b99	-0.007841968
2	0x3cbe4205	0.02322484
3	0x3cf53d55	0.029936472
4	0xbbb7b0dc	-0.0056058
5	0xbdad017c	-0.08447549
6	0xbd95a9d1	-0.073077805
7	0x3bcdef6a	0.006284644
8	0xbd8ab3d0	-0.06772578
9	0x3cf8c8c1	0.030369164
10	0x3d0df4bf	0.034657236
11	0xbd300168	-0.04297009
12	0xbcb42182	-0.021988634
13	0x3dc43abe	0.09581517
14	0x3d6ec3c6	0.058292173
15	0xbd772653	-0.060339283

lstm.weight_ih_l0 f4 [128, 16]
0	0x3e3fd57c	0.18733782
1	0x3adf50dd	0.0017037649
2	0xbcaab586	-0.02083851
3	0x3da6ce40	0.08144808
4	0xbdc66dab	-0.09688886
5	0xbe27f603	-0.1640244
6	0x3cd58bf3	0.02606771
7	0x3e25d19d	0.16193242
8	0x3e0cbd97	0.13744198
9	0x3e2eb186	0.17059907
10	0x3e05f071	0.13080002
11	0x3d7c0dae	0.061536483
12	0x3d83756a	0.06418879
13	0xbd8ad1ca	-0.06778295
14	0x3e08d85c	0.13363785
15	0x3e26fb97	0.16306911
16	0xbdd72660	-0.10505366
17	0xbe328058	-0.17431772
18	0x3b6013a0	0.0034191385
19	0xbdeb222e	-0.11481129
20	0xbc85bd49	-0.01632561
21	0x3e10028f	0.14063476
22	0xbab0a9d8	-0.0013478352
23	0x3e5409d6	0.20706877
24	0xbcbbcb6e	-0.022924151
25	0x3ce5b6a4	0.028041191
26	0x3d196151	0.037446324
27	0xbd8530f7	-0.0650348
28	0x3c8e8a3d	0.017399902
29	0xbd2d6293	-0.042330336
30	0xbe0fe125	-0.1405073
31	0xba9fa036	-0.0012178484
32	0x3d956746	0.072950885
33	0x3d1601d8	0.036622852
34	0x3da1e621	0.07905222
35	0xbd8c8b80	-0.06862545
36	0xbe0971b3	-0.13422279
37	0x3dc78335	0.09741823
38	0x3d7d547b	0.061848145
39	0xbe0cd6be	-0.13753793
40	0x3e31e163	0.17371134
41	0xbd725548	-0.05916336
42	0xbdf0ad7f	-0.11751842
43	0xbdc6fdcf	-0.09716379
44	0xbc4c025a	-0.0124517325
45	0xbdc9cbdc	-0.09853336
46	0x3d387a94	0.045038775
47	0xbda4e38c	-0.080512136
48	0xbd653c81	-0.055965904
49	0x3e38a15c	0.18030304
50	0xbc75e360	-0.015007824
51	0x3cb12b5b	0.021627119
52	0xbd68dc13	-0.056850504
53	0xbbaf73c1	-0.005354375
54	0xbd93063c	-0.071789235
55	0xbd5fcc0e	-0.05463796
56	0xbdf860c3	-0.12127831
57	0xbd3ac760	-0.045600295
58	0x3dac11be	0.084018216
59	0x3d82c4f5	0.06385223
60	0x3e1175f5	0.14205153
61	0xbd43310a	-0.04765419
62	0xbe1241e4	-0.14282948
63	0xbc2f5f3f	-0.010703861
64	0x3e4cdedc	0.20006889
65	0x3ce1ca09	0.027562158
66	0x3e4d1d6f	0.2003076
67	0x3e1afac5	0.15134723
68	0x3e1f8363	0.15577464
69	0xbbdb0195	-0.006683538
70	0x3d793e23	0.060850274
71	0xbd975241	-0.073887356
72	0x3cd00e91	0.02539757
73	0x3dabce56	0.08388965
74	0xbd93a9e1	-0.07210136
75	0xbe0c1973	-0.13681583
76	0xbd53fb75	-0.05175348
77	0x3d36b19a	0.044602968
78	0xbc98f8ce	-0.018673327
79	0x3d84fa4f	0.06493055
80	0xbd609924	-0.054833546
81	0x3e43ac8b	0.19108789
82	0xbd4eabc5	-0.05045678
83	0x3e083389	0.13300909
84	0x3e449254	0.19196445
85	0x3e32ba66	0.17453918
86	0xbd5337a9	-0.051566754
87	0xbd71edc7	-0.059064653
88	0xbd91f25d	-0.07126305
89	0xbdbfb9c9	-0.093616076
90	0xbc40df1e	-0.011771945
91	0xbd205add	-0.039149154
92	0x3dcb7dd4	0.09936109
93	0x3e4183b2	0.18897894
94	0x3da2a976	0.07942478
95	0x3c9a3438	0.018823728
96	0xbd1f2299	-0.038851354
97	0xbd989152	-0.07449593
98	0x3e30914e	0.1724293
99	0xbe31a5c7	-0.17348395
100	0x3a145ddc	0.0005659738
101	0xbe3bac86	-0.18327531
102	0xbd48617c	-0.048921093
103	0xbdddd1ff	-0.10831069
104	0xbe2c48aa	-0.16824594
105	0x3d1837f6	0.037162744
106	0xbd931d51	-0.07183326
107	0x3cc6e823	0.024280613
108	0x3e368f17	0.17828022
109	0xbbc81d23	-0.006106989
110	0x3d536fce	0.051620297
111	0xbda4e04e	-0.08050595
112	0x3e235715	0.15951188
113	0x3e4619f5	0.1934584
114	0xbca101d1	-0.019654186
115	0xbde7478c	-0.11292943
116	0x3e38db93	0.18052511
117	0x3e0cb0bc	0.13739294
118	0x3def60f6	0.11688416
119	0x3d6b55eb	0.057454985
120	0x3d7cd0cd	0.061722565
121	0x3d83e4ca	0.064401224
122	0x3d88a860	0.0667274
123	0xbd3cdfeb	-0.046111982
124	0x3dbc695d	0.09199784
125	0x3e514699	0.20437087
126	0xbd28cdb2	-0.04121179
127	0xbdfed121	-0.12442232
128	0xbd95becb	-0.073117815
129	0x3ca1a4ba	0.019731868
130	0x3deff45c	0.1171653
131	0x3d28090a	0.041024245
132	0x3e5aa128	0.21350539
133	0x3d87f409	0.06638343
134	0x3df52ced	0.119714595
135	0xbdd9e3a1	-0.1063912
136	0x3de1ebfe	0.1103134
137	0x3e106331	0.14100339
138	0x3db121f2	0.08649053
139	0x3da1566d	0.078778125
140	0xbde3f1b0	-0.111300826
141	0x3e5bd2e8	0.21467173
142	0x3ab1453a	0.001352466
143	0xbe230610	-0.15920281
144	0x3da6e0ba	0.08148332
145	0x3da820af	0.08209359
146	0x3e0ae7dc	0.1356501
147	0x3e107997	0.14108883
148	0x3d48705f	0.04893529
149	0x3db50c6b	0.08840259
150	0x3e2cdb11	0.16880442
151	0x3dbd63d7	0.092475586
152	0x3d9b3016	0.07577531
153	0xbd2f4cf1	-0.042797986
154	0xbde9d1b5	-0.114169516
155	0x3d3f1984	0.046655193
156	0xbddd2a9c	-0.10799143
157	0x3cae41ab	0.021271547
158	0xbe37652c	-0.17909688
159	0xbe3a525e	-0.18195483
160	0xbd1dd755	-0.038535435
161	0xbe19b82b	-0.15011661
162	0x3e14e7b0	0.14541507
163	0x3d89e51c	0.06733152
164	0xbbfc0864	-0.00769143
165	0x3e336f3d	0.17522903
166	0x3def5574	0.11686221
167	0x3e1933ce	0.14961168
168	0xbdf067d0	-0.11738551
169	0xbdfe4649	-0.124157496
170	0xbcc26f35	-0.023734668
171	0x3e0406c6	0.12893209
172	0xbde245d0	-0.11048472
173	0xbda32490	-0.07965958
174	0x3cb31a53	0.021863138
175	0x3da81e5e	0.08208917
176	0x3e124914	0.1428569
177	0x3d6b64d9	0.057469223
178	0x3c870b8f	0.016485004
179	0xbd3a688a	-0.045509852
180	0x3d216474	0.03940244
181	0x3dff4381	0.12464047
182	0xbdd0b4e4	-0.10190752
183	0xbdf59bcc	-0.119926065
184	0xbc3d103d	-0.011539516
185	0x3d0db8b9	0.034599993
186	0x3e029da1	0.12755443
187	0x3da430fb	0.08017155
188	0x3e5a3cdf	0.21312283
189	0xbca45315	-0.020059148
190	0x3d9406e1	0.072278745
191	0xbddcf97e	-0.10789774
192	0xbde7d4e5	-0.11319903
193	0xbdeb4a1e	-0.11488746
194	0x3dfd1c9f	0.12358975
195	0xbe09ae60	-0.13445425
196	0xbd7ee5ba	-0.062230803
197	0x3d22b92b	0.03972737
198	0xbe0b6e4f	-0.13616298
199	0x3d39e0b6	0.045380317
200	0xbe111486	-0.14167985
201	0x3e0627f4	0.13101178
202	0x3df91250	0.12161696
203	0x3db6aecc	0.089200586
204	0x3e1065f0	0.14101386
205	0x3ded4f58	0.11587399
206	0x3d6cf956	0.057854973
207	0x3d53c1c2	0.051698454
208	0x3d230f83	0.039809715
209	0xbd56fcbd	-0.052487124
210	0x3d573f77	0.05255076
211	0xbe00230c	-0.1251337
212	0xbe0f7447	-0.140092
213	0xbc27b928	-0.010237016
214	0xbd77f0ba	-0.06053231
215	0xbd31ad7d	-0.043378342
216	0x3da1688b	0.07881268
217	0xbd216892	-0.039406367
218	0x3e48d78e	0.19613478
219	0xbddc7f5a	-0.10766478
220	0xbe039de5	-0.128532
221	0x3dbac7b3	0.09120121
222	0x3c03eb2b	0.008051674
223	0x3ca6e080	0.020370722
224	0x3db6d28c	0.089268774
225	0xbd61168e	-0.05495315
226	0xbe04f52c	-0.1298415
227	0x3dd4cbcb	0.10390433
228	0xbcac9a25	-0.021069596
229	0x3e04fb90	0.12986588
230	0xbd6e97b1	-0.058250133
231	0x3e3989ff	0.18119048
232	0x3d2231be	0.03959822
233	0xbd3083a0	-0.043094277
234	0xbc7e3db7	-0.015517644
235	0x3e20d3ef	0.15705846
236	0x3e3b0e83	0.18267255
237	0xbe0fa288	-0.14026845
238	0xbda9537a	-0.08267875
239	0xbd6d5a5d	-0.057947505
240	0x3db94c5a	0.09047766
241	0xbdd3dc9a	-0.10344811
242	0xbd902572	-0.07038392
243	0x3d39d24c	0.04536657
244	0x3d49d1de	0.04927241
245	0xbdd492cd	-0.103795625
246	0x3e0adc65	0.13560636
247	0x3e4d4ee0	0.2004962
248	0xbd947bef	-0.07250201
249	0x3e4db0d1	0.20086981
250	0x3dbed105	0.09317211
251	0x3d1682ab	0.03674571
252	0xbc7984b2	-0.015229391
253	0x3e4b3cc9	0.19847406
254	0x3e0d93d9	0.1382593
255	0xbe105cab	-0.1409785

lstm.weight_hh_l0 f4 [128, 32]
0	0x3dad05c7	0.084483676
1	0x3da4f6cc	0.08054885
2	0xbd7c0dfc	-0.061536774
3	0x3d2800fb	0.04101656
4	0xbdf2db14	-0.11858192
5	0xbe0901fb	-0.13379662
6	0x3e314a81	0.17313577
7	0x3c7be0e3	0.015373441
8	0xbe1be8ae	-0.15225479
9	0x3e005972	0.1253412
10	0x3d56b5da	0.05241952
11	0x3dd4519e	0.1036713
12	0xbd5387ad	-0.051643062
13	0xbe10789c	-0.14108509
14	0xbbd4978b	-0.006487792
15	0x3cf7a882	0.030231718
16	0xbe48115f	-0.19537877
17	0x3dd4f288	0.10397822
18	0xbdd1ae3e	-0.10238312
19	0x3de85194	0.11343685
20	0xbe03ffb7	-0.12890516
21	0xbe546c42	-0.20744422
22	0xbd7bfe7f	-0.061522003
23	0x3e2b18af	0.16708635
24	0x3dec2540	0.115305424
25	0x3da085b2	0.07838
26	0x3d6d6374	0.057956174
27	0x3e011ca3	0.1260858
28	0xbcd91acb	-0.026502034
29	0xbdf9ec85	-0.12203316
30	0x3d120c4b	0.035656255
31	0xbde6f9b8	-0.11278099
32	0xbcb0d787	-0.021587146
33	0x3df18371	0.117926486
34	0xbe5123c9	-0.20423807
35	0x3ddf73bf	0.10910749
36	0x3df60b2c	0.120138496
37	0xbc830762	-0.015994731
38	0xbdcc4e92	-0.099759236
39	0xbe581a67	-0.21103822
40	0xbc9cb9d0	-0.019131571
41	0xbe3126c6	-0.17299947
42	0x3d55a4fe	0.052159302
43	0x3da0ad2a	0.078455284
44	0xbe256e8c	-0.16155452
45	0xbe3a7868	-0.18209994
46	0x3de17519	0.11008663
47	0xbda4d705	-0.08048824
48	0xbc72f87c	-0.014829751
49	0x3e329415	0.17439301
50	0xbdca31c0	-0.0987277
51	0xbe01209d	-0.12610097
52	0xbc85eef5	-0.016349295
53	0xbc65c052	-0.0140229035
54	0xbe09d88c	-0.13461512
55	0xbd6d849c	-0.057987794
56	0xbd9b94ae	-0.07596718
57	0x3ce43da0	0.027861416
58	0xbdeafe09	-0.114742346
59	0xbe182154	-0.14856464
60	0x3e05bcd9	0.13060321
61	0xbdb611d0	-0.08890116
62	0x3cee4583	0.02908588
63	0xbdcea287	-0.100895934
64	0xbd2e16cf	-0.04250222
65	0x3dabc078	0.0838632
66	0xbe4ade02	-0.19811252
67	0xbc878d65	-0.016546914
68	0x3d2f33f6	0.042774163
69	0xbe260891	-0.16214205
70	0x3e10c2af	0.14136766
71	0xbe18d9bb	-0.14926808
72	0xbd8769b4	-0.06611958
73	0xbe127d10	-0.1430552
74	0x3d95273e	0.072828755
75	0x3c97813b	0.01849424
76	0xbcb881da	-0.022522856
77	0xbe3e7953	-0.18600969
78	0x3e333526	0.17500743
79	0xbcc56e65	-0.024100492
80	0xbd98641e	-0.07440971
81	0x3ceb4a3e	0.028721925
82	0x3c4fe300	0.012688398
83	0xbc1b5a97	-0.0094820475
84	0x3dd67d7a	0.104731515
85	0x3dbd8d45	0.09255461
86	0x3de1c349	0.11023576
87	0x3d4a1c78	0.049343556
88	0xbe01381c	-0.1261906
89	0x3c90de70	0.017684191
90	0x3e4d18fa	0.20029059
91	0x3d898901	0.067155845
92	0xbdd863b3	-0.10565891
93	0xbe215822	-0.15756276
94	0x3e1b492c	0.15164632
95	0x3e318aec	0.1733815
96	0x3dbeb6d4	0.093122154
97	0xb9be69d1	-0.00036318463
98	0x3dbd376c	0.092390865
99	0x3dd69a61	0.10478664
100	0x3dcd7640	0.1003232
101	0x3e00e312	0.1258662
102	0xbdeaa3c7	-0.11457019
103	0x3e02104f	0.12701534
104	0x3db4630d	0.08807955
105	0x3c53dc23	0.012930903
106	0x3e02b8c0	0.12765789
107	0x3d65a893	0.056068968
108	0xbda5b4ef	-0.08091151
109	0x3d223c2c	0.039608166
110	0x3d252e6c	0.040327474
111	0x3e56359e	0.20918891
112	0xbe0255f1	-0.12728097
113	0x3de222d5	0.110418
114	0xbdad8705	-0.084730186
115	0xbe46e2b8	-0.19422424
116	0x3db17e0a	0.08666618
117	0x3dfa5765	0.122237004
118	0x3e09252e	0.13393089
119	0x3cf6e2e8	0.030137494
120	0xbd451390	-0.04811436
121	0x3d16f1af	0.03685158
122	0xbdfb209f	-0.12262081
123	0x3d412fc5	0.047164697
124	0xbe153698	-0.14571607
125	0xbd6b263a	-0.057409503
126	0xbd007519	-0.031361673
127	0xbe054ba3	-0.13017134
128	0x3d86004f	0.065430276
129	0x3dc3ef51	0.0956713
130	0x3c572a83	0.013132694
131	0xbc92fc2c	-0.01794251
132	0x3dd6f3be	0.10495709
133	0x3d49aa12	0.049234457
134	0x3d76d857	0.06026491
135	0x3d8bc1e3	0.0682409
136	0x3e002685	0.12514694
137	0xbd33765f	-0.04381406
138	0x3e490ebf	0.19634531
139	0xbda0be9b	-0.07848855
140	0xbe0999f8	-0.1343764
141	0x3d72afdd	0.059249748
142	0xbdc028f4	-0.09382811
143	0xbd5c2309	-0.05374435
144	0x3e08151a	0.132893
145	0xbd561c69	-0.052273188
146	0x3ddfdd32	0.109308615
147	0x3dbde0bd	0.09271381
148	0xbd74b552	-0.059743233
149	0xbe168c0b	-0.1470186
150	0xbe1a6ed6	-0.15081343
151	0x3d92fb16	0.07176797
152	0x3dc4a542	0.09601833
153	0x3e16e9e1	0.14737655
154	0xbda6540d	-0.081215
155	0xbe3628c2	-0.17788985
156	0xbdf7d460	-0.12101054
157	0xbddfff1d	-0.10937331
158	0x3dc3e16c	0.0956448
159	0xbd2517bd	-0.04030584
160	0x3cb67994	0.02227477
161	0xbdb4a0ae	-0.0881971
162	0x3e18a4df	0.14906643
163	0xbe3879f4	-0.18015271
164	0xbd3b44db	-0.045719963
165	0x3d19396c	0.037408277
166	0x3e2e9f03	0.17052846
167	0xbe56c506	-0.20973596
168	0xbe424d79	-0.18974866
169	0x3dd11328	0.10208732
170	0x3cc97861	0.024593534
171	0x3dd9466d	0.10609136
172	0x3e1ca61e	0.15297744
173	0x3dd3b02f	0.10336339
174	0xbddfe419	-0.10932178
175	0xbc6997a6	-0.014257347
176	0xbe2ce47b	-0.16884033
177	0xbda0342a	-0.078224495
178	0x3e0b2295	0.13587411
179	0x3daa76a9	0.08323414
180	0x3c847ef9	0.016173827
181	0xbdd48d46	-0.10378508
182	0xbe036a08	-0.12833416
183	0xbc047eab	-0.008086841
184	0x3c30b263	0.010784718
185	0x3e01afa6	0.12664661
186	0x3d9ab40e	0.07553874
187	0x3d54e54a	0.05197648
188	0x3d4c5097	0.049881544
189	0x3cb6c6e5	0.022311637
190	0x3d1124ab	0.03543536
191	0x3da14ebd	0.07876346
192	0xbdca6813	-0.09883132
193	0x3d90f76a	0.070784405
194	0xbe2e864b	-0.17043416
195	0xbe1d7c6a	-0.15379491
196	0xbdafb167	-0.08578759
197	0xbe131ee2	-0.1436725
198	0x3bb8407e	0.0056229224
199	0x3e1e6556	0.15468344
200	0x3da2d8e4	0.07951525
201	0x3b787053	0.0037908747
202	0xbd0bf8df	-0.03417289
203	0xbd67bd2a	-0.056576885
204	0x3c740a1e	0.01489499
205	0xbd7d0e7d	-0.061781395
206	0x3b794e1b	0.003804094
207	0xbdfb6375	-0.12274829
208	0x3db5b21d	0.08871863
209	0x3d13752f	0.036000427
210	0xbd359790	-0.044333994
211	0x3a8ae493	0.0010596685
212	0xbdb4a6c0	-0.088208675
213	0xbe2262b3	-0.15857963
214	0xbd4a5284	-0.0493951
215	0xbe17a756	-0.14809927
216	0xbdaa19b8	-0.08305687
217	0x3db4ebd2	0.08834042
218	0xbdd38ed2	-0.10329975
219	0x3d587c34	0.052852824
220	0x3e22462f	0.15847085
221	0x3ccf66cf	0.025317578
222	0xbdd204f8	-0.10254854
223	0xbd37e3cf	-0.04489499
224	0xbdaf82f1	-0.08569897
225	0x3cbd941f	0.023141919
226	0xbe23f3b1	-0.1601093
227	0xbdb3025c	-0.087406844
228	0x3c0b1e2a	0.008491078
229	0xbe518a99	-0.20463027
230	0xbdb97058	-0.09054631
231	0x3d2731b1	0.040818874
232	0xbda8a9a1	-0.08235479
233	0xbe0ac8da	-0.13553181
234	0x3d394d9d	0.045240033
235	0x3e0e7e17	0.13915287
236	0x3debc56e	0.11512266
237	0xbd9c9dd8	-0.07647294
238	0x3ca6cdf3	0.020361876
239	0x3e0275ec	0.12740296
240	0x3e0112c3	0.12604813
241	0xbd482ade	-0.048869006
242	0x3ddfbd9b	0.10924836
243	0xbda51f01	-0.08062554
244	0x3dc21a08	0.09477621
245	0x3d517ebd	0.051146258
246	0xbe4564f7	-0.19276796
247	0xbc862238	-0.016373739
248	0x3c5605d6	0.013062915
249	0xbdbc59bc	-0.09196803
250	0xbe0a1a3d	-0.13486572
251	0xbc967956	-0.018368404
252	0xbe1f0126	-0.15527782
253	0xbd1599c6	-0.036523603
254	0xbdba2f8c	-0.090911
255	0xbe0732be	-0.1320295

lstm.bias_ih_l0 f4 [128]
0	0x3e07f104	0.13275534
1	0xbd1dd442	-0.038532503
2	0x3e0663b1	0.13123967
3	0xbdb92f57	-0.090422325
4	0x3df0f285	0.11765007
5	0x3e145064	0.14483792
6	0xbc815df4	-0.01579187
7	0x3e5c2c88	0.21501362
8	0x3e1ef142	0.1552172
9	0x3c2aca7d	0.0104242535
10	0x3b0b6511	0.0021269957
11	0x3d66d01e	0.05635082
12	0xbdcada02	-0.09904863
13	0x3bd62f59	0.006536406
14	0xbe0368e4	-0.12832981
15	0x3dcc23ae	0.09967743
16	0x3d613579	0.054982636
17	0xbe11f006	-0.14251718
18	0x3bb1db77	0.0054277736
19	0x3dcf7fc0	0.10131788
20	0xbe00c159	-0.12573756
21	0x3dcd2fc7	0.100188784
22	0xbd6ab63f	-0.05730271
23	0x3d760ff4	0.060073808
24	0x3cd84293	0.026398933
25	0xbdcc39d4	-0.09971967
26	0x3cc8057c	0.024416678
27	0xbdc330bf	-0.09530782
28	0x3a020508	0.0004959856
29	0x3d803c43	0.06261494
30	0x3c87a116	0.016556304
31	0x3ad930e9	0.0016570362
32	0x3e3bac03	0.18327336
33	0x3e3f50df	0.18683194
34	0xbd4b2f67	-0.049605753
35	0x3d784b9c	0.06061898
36	0x3de0f908	0.10984999
37	0x3d41ed4c	0.047345445
38	0x3d0195c8	0.031636983
39	0xbc19aba5	-0.009379302
40	0x3dafa261	0.08575893
41	0xbdc1285a	-0.094315246
42	0x3b939fdc	0.0045051407
43	0xbcfbbdbc	-0.03073012
44	0x3d0e3ac3	0.03472401
45	0x3dbfa463	0.09357526
46	0xbde2f824	-0.11082485
47	0xbdaef9f6	-0.0854377
48	0x3d1ef983	0.03881217
49	0x3d90d6f0	0.07072246
50	0xbdf20d4a	-0.11818941
51	0x3d602a34	0.054727748
52	0xbe02e0b4	-0.1278103
53	0xbdfbeaa5	-0.12300614
54	0x3e6df542	0.2323809
55	0xbd78c19f	-0.060731526
56	0xbcd0e373	-0.025499081
57	0x3e4ebdc8	0.20189583
58	0xbd66ac6f	-0.05631679
59	0xbd9516c9	-0.072797365
60	0xbd98150b	-0.07425889
61	0xbd4c590f	-0.04988962
62	0x3d8aa7fb	0.06770321
63	0x3de91d05	0.11382488
64	0x3cd4ab30	0.025960535
65	0xbb3eadaa	-0.002909521
66	0x3d07748f	0.033070143
67	0xbe10fd71	-0.1415918
68	0x3dc0f253	0.0942122
69	0xbe2257ae	-0.1585376
70	0x3ddbce54	0.10732713
71	0xbe2ecbe6	-0.17069969
72	0xbdde1ee6	-0.10845737
73	0xbe0d47b6	-0.13796887
74	0x3d803a64	0.06261137
75	0x3e034ee4	0.12823063
76	0xbe247ad0	-0.16062474
77	0x3d2a1590	0.04152447
78	0x3bdbf3c1	0.0067124073
79	0x3d891535	0.06693498
80	0xbe1a0d2f	-0.15044092
81	0xbe10c3f5	-0.14137252
82	0x3cc8c521	0.02450806
83	0x3d0a4f45	0.033767004
84	0xbe492959	-0.19644679
85	0xbe10f685	-0.1415654
86	0xbe310c79	-0.17289914
87	0x3be6542f	0.0070290784
88	0xbe29a97e	-0.16568562
89	0xbd6e0fc6	-0.05812051
90	0xbd3c13d9	-0.045917366
91	0xbdf2e1b0	-0.11859453
92	0xbe09fafd	-0.1347465
93	0xbddfbe01	-0.10924912
94	0xbc82ea67	-0.015980912
95	0x3e070a07	0.13187419
96	0x3d2a027a	0.041506268
97	0x3e425fbe	0.18981835
98	0x3d8f1940	0.06987238
99	0x3e18905e	0.14898822
100	0x3e0d0322	0.13770726
101	0x3d21650c	0.039403006
102	0x3e4e3085	0.20135696
103	0xbd77bd49	-0.06048325
104	0x3a9d3f1a	0.0011996955
105	0x3d2e77e8	0.04259482
106	0x3d9a01ff	0.07519912
107	0x3b83bec7	0.004020545
108	0x3da692be	0.081334576
109	0xbde595cb	-0.11210211
110	0x3e4f2ba7	0.20231496
111	0x3dca2752	0.09870781
112	0x3cd63f4e	0.026153233
113	0x3e21d9f5	0.158058
114	0xbc0f4dbe	-0.0087465625
115	0xbdec6362	-0.11542393
116	0xbe127252	-0.14301422
117	0x3e3df73a	0.1855134
118	0xbc97a70e	-0.018512275
119	0x3dea4354	0.11438623
120	0x3c08cbee	0.008349402
121	0x3e1e5e20	0.15465593
122	0xbc9b494f	-0.018955855
123	0x3e169730	0.14706111
124	0x3e640813	0.22268705
125	0x3d84837f	0.064703934
126	0xbdadabb6	-0.08480017
127	0x3da5da9e	0.080983385

lstm.bias_hh_l0 f4 [128]
0	0xbd3d9091	-0.046280447
1	0xbdb519d2	-0.088428155
2	0xbb24d614	-0.0025152015
3	0x3c0ce282	0.008598926
4	0x3d94c3eb	0.07263931
5	0x3c3e822d	0.011627716
6	0x3d3dad0d	0.046307612
7	0x3c696f00	0.014247656
8	0xbe030b85	-0.12797363
9	0x3c67b739	0.014142805
10	0x3db4507f	0.08804416
11	0x3e394dbf	0.18096064
12	0xbe20033f	-0.15626238
13	0xbd38455d	-0.044988025
14	0xbd97997d	-0.074023224
15	0xbbf1d2a9	-0.007379849
16	0xbd447973	-0.047967386
17	0x3e1ea385	0.15492065
18	0xbdac9c4f	-0.08428251
19	0xbda99423	-0.08280208
20	0xbd033bf0	-0.032039583
21	0x3d90c038	0.07067913
22	0x3e6d2be8	0.2316128
23	0x3db4fd72	0.08837403
24	0x3e4ff254	0.20307285
25	0x3d9b69a9	0.075885125
26	0xbde12f0d	-0.10995302
27	0x3d126a79	0.03574607
28	0x3d79755b	0.060902935
29	0x3ae41b25	0.0017403109
30	0x3dcfb89a	0.10142632
31	0xbda67e65	-0.081295766
32	0x3e4ea476	0.20179924
33	0xbd8e5603	-0.06949999
34	0x3e5cb4dc	0.21553367
35	0x3e2a49cd	0.16629715
36	0x3e2d2dcd	0.16912003
37	0xbc4f594a	-0.0126555655
38	0xbe0dfb3e	-0.13865373
39	0x3e392fba	0.18084612
40	0xbdb8b3aa	-0.09018643
41	0xbe0828ab	-0.13296764
42	0x3d001c85	0.0312772
43	0xbdb387b6	-0.08766119
44	0x3c07356a	0.008252481
45	0x3e3099b2	0.1724613
46	0x3b6bfb40	0.003600791
47	0x3b653950	0.0034976788
48	0xbd6c7be2	-0.05773533
49	0x3d9d993c	0.07695243
50	0x3da3ebe4	0.08003977
51	0x3e34ba25	0.17649134
52	0xbe479d53	-0.19493608
53	0x3da4ae4d	0.08041058
54	0xbd17c7b6	-0.037055694
55	0x3e1ab252	0.15107086
56	0x3c358740	0.011079609
57	0x3e405614	0.18782836
58	0xbc19acbf	-0.009379565
59	0xbe31f8a2	-0.17380002
60	0x3c375c94	0.011191506
61	0x3e553e7f	0.20824622
62	0xbd4d44f6	-0.050114594
63	0x3d492014	0.049102858
64	0xbdbf83fd	-0.09351347
65	0xbcda1861	-0.026622953
66	0x3d7243c4	0.059146658
67	0xbd911e40	-0.07085848
68	0xbe254a81	-0.16141702
69	0x3e052906	0.1300393
70	0xbde83675	-0.11338512
71	0xbd8200a5	-0.06347779
72	0x3e0e2724	0.13882118
73	0x3b55cbd5	0.0032622714
74	0x3dcead37	0.10091632
75	0x3e38b025	0.18035944
76	0xbd29be23	-0.041441094
77	0xbd61f22f	-0.055162605
78	0x3c7bdb7f	0.015372156
79	0x3dc75635	0.097332396
80	0xbd59933d	-0.053118933
81	0x3e1bb39a	0.15205231
82	0x3d56a659	0.052404735
83	0xbe36ed45	-0.17863949
84	0x3df41158	0.119173706
85	0x3c7d5572	0.015462266
86	0x3c764a40	0.015032351
87	0x3d24c7d8	0.04022965
88	0x3dac1221	0.08401895
89	0xbdb7a95c	-0.089678496
90	0xbbbfde51	-0.0058553596
91	0xbe28cfe8	-0.1648556
92	0xbd676b68	-0.056498915
93	0xbe555e8f	-0.20836852
94	0x3e3cb6c2	0.18429092
95	0xbe20a5eb	-0.15688293
96	0x3d210630	0.03931254
97	0xbd6e0cf3	-0.058117818
98	0x3df3aa60	0.11897731
99	0x3d993d6c	0.074824184
100	0x3db14d56	0.08657329
101	0x3e244ce7	0.16044961
102	0x3e3881b7	0.18018232
103	0x3e543b41	0.20725729
104	0xbc92d1b4	-0.01792226
105	0xbd8d1339	-0.06888432
106	0x3e548acd	0.20756073
107	0x3e19027d	0.14942355
108	0x3b4b3887	0.0031009035
109	0xbd28753e	-0.041127436
110	0xbdc3123e	-0.09524964
111	0x3e20e7d9	0.15713443
112	0x3daacf2e	0.08340298
113	0x3e21f9fd	0.15818019
114	0x3d841adc	0.064504355
115	0x3e45b35c	0.19306701
116	0x3abda539	0.0014468796
117	0x3d537014	0.051620558
118	0x3dec00e1	0.11523605
119	0x3e4e495c	0.20145172
120	0x3e2c5453	0.16829042
121	0x3e4d2806	0.20034799
122	0x3daa6894	0.08320728
123	0x3dafb3f6	0.08579247
124	0x3dcfccaf	0.10146462
125	0x3e368761	0.1782508
126	0x3df47bc7	0.11937671
127	0x3d0a1892	0.03371484
