ecg/model.pth (torch, 315424 bytes, 15 tensors)

conv1.weight f4 [64, 1, 50]
0.08781577 0.09731629 -0.052295893 0.11215225 -0.04839028 0.009127639 -0.08890276 0.06100948
0.100355454 -0.13070212 0.0907301 -0.011122118 0.06469045 -0.020506632 0.026800035 -0.06250376
0.06453609 -0.026485395 -0.11955304 -0.023072027 -0.13136588 -0.0950409 -0.14130357 0.010713853
-0.20184709 -0.16367629 -0.13709472 -0.16802903 -0.04866718 -0.18186125 0.10272059 -0.13092217
0.10714647 0.030990377 -0.029308857 0.107962415 0.04483389 0.13885473 0.042589102 -0.015861932
0.06832084 -0.0081542805 0.08601688 0.15085953 0.109329626 -0.030913977 0.11276309 0.058473036
0.110191725 -0.041283168 -0.07291087 0.003417305 -0.058705762 0.15643293 0.07313115 0.0838899
0.06904663 0.024406599 0.14183915 -0.06050182 0.054288156 -0.04818541 0.11604948 0.0125116585
0.09504145 0.011410088 0.1500741 -0.047720548 -0.04335624 -0.04872221 0.15659961 0.083464205
0.18992749 -0.051055998 -0.0640622 -0.030913105 -0.014654835 0.13327104 0.12278824 0.18615246
0.0009675544 -0.01914507 0.1451009 0.010915212 0.15017651 0.010758879 0.1275803 -0.044217307
-0.02866617 0.048517026 0.03524716 -0.020722277 0.09892774 0.16311365 0.03197827 0.040334158
0.23602347 0.048854973 0.044913445 -0.036537476 -0.0045469445 0.115049735 0.06655939 -0.011484042
0.09678814 -0.002653163 -0.0066902665 0.034101322 -0.014220022 0.013755445 0.23973408 0.12479145
0.14762874 -0.02000592 0.023408586 0.07076056 0.14113936 -0.0028057413 0.06276282 0.040046338
0.12596627 0.07356771 0.11651669 0.03059798 0.028924132 0.04261515 0.075662486 0.011280306
0.23671441 0.08716652 0.23574562 0.15948078 0.0011258674 0.22157834 0.08852038 0.076408096
0.014260828 -0.009035329 0.16911384 0.09552756 0.15503486 -0.027605794 0.18126072 -0.034717552
0.037069477 0.08010447 0.11141625 0.14357834 0.1627469 -0.06524356 0.09752656 0.0003626949
0.04239615 -0.054808605 0.17218287 -0.06457073 0.10798163 0.076910496 0.07390473 -0.048517864
0.15643351 0.06485268 0.059099514 -0.0789733 0.108060114 0.031542446 -0.0064488337 0.18261635
0.1026734 0.0024367033 0.010031643 0.07192613 0.15614639 0.04259563 0.019352859 0.04940825
-0.03314989 0.11336043 0.16592532 -0.07825265 0.07922919 0.10427931 0.05543564 -0.01677494
0.10134158 0.10039353 0.08495496 0.010050038 -0.0036323098 0.046108462 0.0057422174 -0.014374662
0.109415114 0.13965598 0.016200865 0.007690693 0.043803077 0.032261632 0.07452523 0.082125224
-0.084312126 -0.007736481 0.16307342 0.1026552 0.043087084 -0.040921126 -0.04208496 -0.08151756
-0.001883893 0.09142279 0.1325317 0.10311004 -0.091015585 -0.05228599 0.008370509 0.16693048
0.053326875 -0.00030786052 0.094972275 -0.020956492 -0.06024527 0.13593644 -0.027831394 0.009647866
-0.10124137 0.13519531 0.15320748 0.100530915 -0.054167826 -0.0705587 -0.043590233 0.1757937
0.14148353 0.19460565 0.14384659 0.06996038 0.03121016 -0.07255054 -0.08392859 -0.09390781
0.09738436 -0.03214951 0.003458113 -0.054122005 -0.00010089055 -0.07269961 -0.06277939 0.07813748
-0.008758851 0.12560402 0.034900125 -0.02072616 0.058534063 0.03852344 0.06835324 -0.022616487
00000000: c1d8 b33d c34d c73d 3834 56bd 14b0 e53d
00000010: e334 46bd 188c 153c a612 b6bd 14e5 793d
00000020: 2987 cd3d c7d6 05be b4d0 b93d 8b39 36bc
00000030: 6d7c 843d 86fd a7bc bf8b db3c f901 80bd
00000040: 7f2b 843d e6f7 d8bc 39d8 f4bd 8c01 bdbc
00000050: c784 06be cea4 c2bd e2b1 10be 2889 2f3c
00000060: 01b1 4ebe c29a 27be 8f62 0cbe cd0f 2cbe
00000070: 3d57 47bd d639 3abe 2c5f d23d 7610 06be
00000080: 9c6f db3d 88df fd3c 2119 f0bc 661b dd3d
00000090: bea3 373d ef2f 0e3e e971 2e3d e2f0 81bc
000000a0: cceb 8b3d 8899 05bc 9e29 b03d ec7a 1a3e
000000b0: 36e8 df3d 4f3f fdbc 56f0 e63d 6c81 6f3d
000000c0: 33ac e13d 8a18 29bd 4b52 95bd ddf4 5f3b
000000d0: 7475 70bd f42f 203e c9c5 953d 78ce ab3d
000000e0: 5268 8d3d 59f0 c73c 483e 113e c2d0 77bd
000000f0: 425d 5e3d 115e 45bd 5aab ed3d b3fd 4c3c
00000100: 17a5 c23d 61f1 3a3c 06ad 193e 9f76 43bd
00000110: 5096 31bd f190 47bd a65b 203e 48ef aa3d
00000120: 5a7c 423e 1820 51bd 0b33 83bd 7b3d fdbc
00000130: d51a 70bc 3478 083e 6778 fb3d c09e 3e3e
00000140: 7aa3 7d3a 1fd6 9cbc 5595 143e b8d5 323c
00000150: dfc7 193e 0246 303c 69a4 023e 351d 35bd
00000160: 51d5 eabc cab9 463d 535f 103d c4c1 a9bc
00000170: a09a ca3d 4407 273e a5fb 023d 6e35 253d
00000180: 23b0 713e 271c 483d 29f7 373d 52a8 15bd
00000190: 89fe 94bb 329f eb3d 4a50 883d 9027 3cbc
000001a0: dc38 c63d b0e0 2dbb 063a dbbb d4ad 0b3d
000001b0: 18fb 68bc 855e 613c da7c 753e a992 ff3d
000001c0: fd2b 173e 75e3 a3bc 5dc3 bf3c eaea 903d
000001d0: d686 103e 87e0 37bb cb89 803d a107 243d
000001e0: 4dfd 003e abaa 963d 4da0 ee3d 9da8 fa3c
000001f0: 4df2 ec3c 398d 2e3d eff4 9a3d 08d1 383c
00000200: 4365 723e 5c84 b23d 4d67 713e ee4e 233e
00000210: d791 933a 6fe5 623e 2c4a b53d d97b 9c3d
00000220: 3fa6 693c eb08 14bc 2e2c 2d3e f4a3 c33d
00000230: 75c1 1e3e 8c25 e2bc 699c 393e fe33 0ebd
00000240: 2ad6 173d d00d a43d 342e e43d 3306 133e
00000250: 20a7 263e 6a9e 85bd 01bc c73d 1628 be39
00000260: 96a7 2d3d fd7e 60bd b550 303e a93d 84bd
00000270: 7925 dd3d 4083 9d3d 5d5b 973d abba 46bd
00000280: 1b30 203e 7bd1 843d 5512 723d c1bc a1bd
00000290: 9f4e dd3d a732 013d bd50 d3bb c8ff 3a3e
000002a0: 6e46 d23d 19b1 1f3b c35b 243c 024e 933d
000002b0: d7e4 1f3e c178 2e3d e389 9e3c 4e60 4a3d
000002c0: 2ec8 07bd 8329 e83d 54e8 293e ed42 a0bd
000002d0: ea42 a23d 6490 d53d 7b10 633d 996b 89bc
000002e0: 2d8c cf3d 209b cd3d defc ad3d eaa8 243c
000002f0: 0c0c 6ebb 3adc 3c3d 3629 bc3b b483 6bbc
00000300: 0815 e03d fa01 0f3e adb7 843c 3502 fc3b
00000310: db6a 333d c624 043d afa0 983d 4531 a83d
00000320: d6ab acbd 4e82 fdbb b8fc 263e e43c d23d
00000330: 157c 303d e99c 27bd 4761 2cbd aef2 a6bd
00000340: f6ec f6ba df3b bb3d 64b6 073e 5b2b d33d
00000350: 6166 babd d629 56bd 7624 093c d3ef 2a3e
00000360: 486d 5a3d 5768 a1b9 d380 c23d f3ac abbc
00000370: bfc3 76bd ec32 0b3e aafe e3bc 1512 1e3c
00000380: a357 cfbd a470 0a3e 6ce2 1c3e 27e3 cd3d
00000390: 15df 5dbd 1481 90bd ac8b 32bd 4403 343e
000003a0: 0fe1 103e b446 473e 854c 133e 6347 8f3d
000003b0: 73ac ff3c 6195 94bd c1e2 abbd bd52 c0bd
000003c0: 7471 c73d 34af 03bd 82a1 623b 09af 5dbd
000003d0: 3495 d3b8 88e3 94bd 7b92 80bd 8b06 a03d
000003e0: 4981 0fbc 579e 003e 6ff3 0e3d e8c9 a9bc
000003f0: 6ac1 6f3d c1ca 1d3d c9fc 8b3d 3646 b9bc

conv1.bias f4 [64]
-0.16168162 -0.032587077 -0.036602613 0.0109985955 -0.2073523 0.04130144 -0.01578804 0.0778396
0.027818445 -0.20912433 0.056430288 0.059812967 -0.19768898 -0.08512576 0.006800036 -0.0043602665
0.02497343 0.043903265 -0.20218606 -0.16483156 -0.19810207 0.04237932 0.0052651963 -0.23628928
-0.06190112 -0.23807469 -0.20762217 0.11546591 -0.17437187 -0.042592786 -0.11288136 -0.16195667
-0.093086764 0.071229026 -0.14621216 0.032179367 -0.031985056 0.02940465 -0.25827688 -0.2095936
-0.19232942 -0.09706006 -0.053599276 -0.06677051 0.01998858 0.054612655 -0.23580061 -0.17622526
0.026668444 -0.077278115 -0.044943593 -0.18536144 -0.10813203 -0.03246574 -0.19804874 -0.0016596321
-0.019693442 -0.08683757 -0.1839817 -0.13286106 -0.010764822 -0.17148158 0.022192983 -0.21243098
00000000: de8f 25be 077a 05bd 9fec 15bd 7433 343c
00000010: 2954 54be b32b 293d eb55 81bc 5e6a 9f3d
00000020: 82e3 e33c b024 56be 7223 673d 71fe 743d
00000030: fb6e 4abe 6a56 aebd d6d2 de3b 91e0 8ebb
00000040: 1495 cc3c e9d3 333d dd09 4fbe 9bc9 28be
00000050: 45db 4abe f095 2d3d ab87 ac3b d1f5 71be
00000060: 078c 7dbd dac9 73be e89a 54be 6479 ec3d
00000070: 8a8e 32be c675 2ebd 582e e7bd f8d7 25be
00000080: 46a4 bebd 86e0 913d a4b8 15be 83ce 033d
00000090: c302 03bd 05e2 f03c de3c 84be b49f 56be
000000a0: 01f2 44be 6dc7 c6bd ea8a 5bbd fabe 88bd
000000b0: 17bf a33c 85b1 5f3d b775 71be 6574 34be
000000c0: c877 da3c fd43 9ebd c616 38bd 64cf 3dbe
000000d0: 5374 ddbd ccfa 04bd 4acd 4abe 0388 d9ba
000000e0: 2454 a1bc e5d7 b1bd b365 3cbe bb0c 08be
000000f0: f05e 30bc de98 2fbe 0fce b53c 8287 59be

conv2.weight f4 [32, 64, 30]
-0.07294597 -0.07390017 -0.05387858 -0.05681008 -0.066552475 -0.040572412 -0.07975022 -0.052006055
-0.07260682 -0.06524488 -0.08202621 -0.0770861 -0.07941261 -0.050091732 -0.06861945 -0.04811181
-0.07241782 -0.06570366 -0.057287343 -0.040927675 -0.0662008 -0.046818588 -0.05375446 -0.046169486
-0.045633554 -0.050788313 -0.06693246 -0.06645577 -0.05116568 -0.04761157 -0.061251525 -0.04859235
-0.07376159 -0.047167618 -0.06283439 -0.075738356 -0.07112407 -0.07746167 -0.05543059 -0.07356633
-0.06656787 -0.06146466 -0.073956676 -0.059443202 -0.06293002 -0.052803587 -0.043545764 -0.073808275
-0.047554724 -0.060518425 -0.07308011 -0.0703815 -0.05422822 -0.05528207 -0.060776196 -0.071398385
-0.04852391 -0.056649894 -0.08222278 -0.06406668 -0.06623969 -0.069785595 -0.07270656 -0.07856239
-0.037571132 -0.08089279 -0.03883382 -0.07798731 -0.06558296 -0.06939388 -0.072262384 -0.051932454
-0.0468189 -0.07503675 -0.070672795 -0.048394676 -0.06279935 -0.054484636 -0.048111513 -0.06847765
-0.07270942 -0.051642098 -0.06840009 -0.075233996 -0.071556464 -0.07065511 -0.03732112 -0.055656284
-0.050217234 -0.056980718 -0.07543173 -0.043577135 -0.06359459 -0.065956846 -0.04144855 -0.07167297
-0.055411305 -0.07946112 -0.04835294 -0.050982077 -0.07881221 -0.047309395 -0.05753566 -0.07182979
-0.040587407 -0.050245166 -0.05202649 -0.068523094 -0.07255956 -0.072326176 -0.051471364 -0.05389827
-0.07370454 -0.039279174 -0.046749003 -0.06875962 -0.048239533 -0.06972021 -0.05288346 -0.041050468
-0.080205545 -0.07135984 -0.06131353 -0.05659799 -0.0787844 -0.07502756 -0.062210154 -0.06330227
-0.05509952 -0.057122722 -0.05535124 -0.058510326 -0.057409134 -0.061352666 -0.05183614 -0.044453256
-0.07141812 -0.0718576 -0.050016645 -0.0765353 -0.045192253 -0.049487486 -0.056722187 -0.069926545
-0.059330437 -0.078066126 -0.08055795 -0.038527817 -0.08047802 -0.07895768 -0.06890987 -0.05875919
-0.05481533 -0.0712886 -0.06225501 -0.06513786 -0.0409463 -0.04023317 -0.050662044 -0.060183045
-0.042928103 -0.07847015 -0.0505102 -0.07331122 -0.04224902 -0.08022101 -0.051567618 -0.078810975
-0.046727918 -0.055875074 -0.040466428 -0.07726052 -0.0453595 -0.075277835 -0.07236593 -0.05136672
-0.06388787 -0.07806557 -0.079464726 -0.06597017 -0.053727902 -0.040001363 -0.04325966 -0.059672184
-0.074040726 -0.08039111 -0.039655954 -0.072768226 -0.06405752 -0.07845723 -0.07581785 -0.055615187
-0.06568642 -0.057433944 -0.060221884 -0.058885507 -0.06457173 -0.06093287 -0.05013038 -0.043378733
-0.040761106 -0.078669555 -0.07934174 -0.06346129 -0.061791424 -0.04745346 -0.03856709 -0.054188326
-0.07625867 -0.0626319 -0.045284107 -0.051624328 -0.07618472 -0.058713116 -0.082081795 -0.06924161
-0.044084944 -0.06994613 -0.046113838 -0.07866109 -0.039870743 -0.04916004 -0.045258697 -0.05381481
-0.058429774 -0.07128545 -0.07264014 -0.075718135 -0.04118549 -0.067967206 -0.059490595 -0.081500955
-0.053922042 -0.067826904 -0.07830144 -0.057223104 -0.08107168 -0.06229629 -0.07868512 -0.045620263
-0.07816888 -0.05631844 -0.048746917 -0.07828216 -0.045273248 -0.041460842 -0.074036986 -0.05813662
-0.05312697 -0.041146003 -0.042216547 -0.07918988 -0.078646764 -0.080225416 -0.07019424 -0.064648494
00000000: b264 95bd f958 97bd c9af 5cbd b0b1 68bd
00000010: aa4c 88bd 422f 26bd 1554 a3bd 4d04 55bd
00000020: e2b2 94bd 1c9f 85bd 5cfd a7bd 51df 9dbd
00000030: 14a3 a2bd fd2c 4dbd 5b88 8cbd e410 45bd
00000040: cb4f 94bd a48f 86bd 22a6 6abd c7a3 27bd
00000050: 4994 87bd d9c4 3fbd a32d 5cbd 371c 3dbd
00000060: 40ea 3abd 6807 50bd e313 89bd f619 88bd
00000070: 1b93 51bd 5a04 43bd e1e2 7abd c608 47bd
00000080: 5110 97bd d532 41bd 51af 80bd b61c 9bbd
00000090: 7fa9 91bd 39a4 9ebd 300b 63bd f2a9 96bd
000000a0: bc54 88bd 5ec2 7bbd 9976 97bd b77a 73bd
000000b0: 74e1 80bd 9348 58bd 0b5d 32bd cb28 97bd
000000c0: bec8 42bd 2be2 77bd 06ab 95bd 2d24 90bd
000000d0: 691e 5ebd 746f 62bd 76f0 78bd 5139 92bd
000000e0: 02c1 46bd b809 68bd 6b64 a8bd 6435 83bd
000000f0: ada8 87bd c0eb 8ebd 2de7 94bd 51e5 a0bd
00000100: 30e4 19bd 1eab a5bd 3610 1fbd d0b7 9fbd
00000110: 5c50 86bd 611e 8ebd 4dfe 93bd 20b7 54bd
00000120: 2dc5 3fbd deac 99bd e6bc 90bd 7f39 46bd
00000130: f29c 80bd 482b 5fbd 9410 45bd 033e 8cbd
00000140: ade8 94bd aa86 53bd 5915 8cbd 4814 9abd
00000150: 328c 92bd a0b3 90bd 08de 18bd d8f7 63bd
00000160: 96b0 4dbd 9d64 69bd f37b 9abd f07d 32bd
00000170: e13d 82bd 6214 87bd f4c5 29bd 47c9 92bd
00000180: f7f6 62bd 83bc a2bd bb0d 46bd 95d2 50bd
00000190: 4c68 a1bd 7fc7 41bd 83aa 6bbd 7f1b 93bd
000001a0: fb3e 26bd e0cd 4dbd bb19 55bd d655 8cbd
000001b0: 1b9a 94bd bf1f 94bd a3d3 52bd 6fc4 5cbd
000001c0: 68f2 96bd 33e3 20bd e27b 3fbd d8d1 8cbd
000001d0: d196 45bd 78c9 8ebd 549c 58bd 8924 28bd
000001e0: ce42 a4bd 1c25 92bd e523 7bbd 4bd3 67bd
000001f0: b759 a1bd 0da8 99bd 13d0 7ebd 9fa4 81bd
00000200: 09b0 61bd 84f9 69bd fbb7 62bd 86a8 6fbd
00000210: d725 6bbd ef4c 7bbd 2252 54bd 9e14 36bd
00000220: aa43 92bd 142a 93bd 41de 4cbd 8abe 9cbd
00000230: 831b 39bd 64b3 4abd 8655 68bd a635 8fbd
00000240: 7904 73bd 22e1 9fbd 91fb a4bd 58cf 1dbd
00000250: a9d1 a4bd 90b4 a1bd 9e20 8dbd 7aad 70bd
00000260: 0a86 60bd c2ff 91bd 1cff 7ebd 0067 85bd
00000270: 4fb7 27bd 89cb 24bd 0183 4fbd 7f82 76bd
00000280: 61d5 2fbd f5b4 a0bd c9e3 4ebd 3124 96bd
00000290: 4f0d 2dbd ea4a a4bd 9138 53bd a667 a1bd
000002a0: c665 3fbd 43dd 64bd 20c0 25bd c33a 9ebd
000002b0: e2ca 39bd 442b 9abd 9734 94bd e965 52bd
000002c0: a5d7 82bd d7e0 9fbd 67be a2bd 5e1b 87bd
000002d0: ca11 5cbd 78d8 23bd 0b31 31bd d26a 74bd
000002e0: aaa2 97bd 18a4 a4bd 486e 22bd 8207 95bd
000002f0: 9730 83bd 2fae a0bd 6446 9bbd c0cc 63bd
00000300: 9a86 86bd db3f 6bbd 39ab 76bd ee31 71bd
00000310: 2f3e 84bd bf94 79bd 8355 4dbd e6ad 31bd
00000320: 1ef5 26bd 811d a1bd ec7d a2bd fef7 81bd
00000330: 0119 7dbd 8f5e 42bd 86f8 1dbd 94f4 5dbd
00000340: 812d 9cbd 2745 80bd d47b 39bd 0874 53bd
00000350: bc06 9cbd 2a7d 70bd 801a a8bd 8cce 8dbd
00000360: 6a92 34bd eb3f 8fbd dde1 3cbd 1119 a1bd
00000370: 814f 23bd 0a5c 49bd 2f61 39bd eb6c 5cbd
00000380: 0f54 6fbd 1bfe 91bd 5bc4 94bd 1c12 9bbd
00000390: 1eb2 28bd 6432 8bbd 69ac 73bd f9e9 a6bd
000003a0: 5cdd 5cbd d5e8 8abd 815c a0bd c662 6abd
000003b0: e908 a6bd 652a 7fbd aa25 a1bd 50dc 3abd
000003c0: 0117 a0bd 2aae 66bd d9aa 47bd 6652 a0bd
000003d0: 7170 39bd d8d2 29bd b4a0 97bd aa20 6ebd
000003e0: aa9b 59bd b688 28bd 42eb 2cbd 4e2e a2bd
000003f0: 8e11 a1bd 394d a4bd ffc1 8fbd 6e66 84bd

conv2.bias f4 [32]
-0.069136776 -0.07135534 -0.03784711 -0.024824042 0.015192847 -0.047846954 -0.067582555 0.0224541
-0.022360137 0.05927744 -0.0005826255 0.034219664 0.010769114 0.05013591 -0.0467492 0.019394655
0.057164382 0.0930798 -0.07181794 -0.0805145 -0.066620156 -0.08964972 0.03105048 0.063094154
0.06277411 0.06762485 0.06575821 -0.01916421 0.07609101 -0.056731142 -0.11616404 -0.008185256
00000000: 9597 8dbd c022 92bd 9205 1bbd ca5b cbbc
00000010: 6beb 783c 2bfb 43bd b968 8abd a9f1 b73c
00000020: 9b2c b7bc e7cc 723d 56bb 18ba eb29 0c3d
00000030: f070 303c 505b 4d3d 177c 3fbd 8ae1 9e3c
00000040: 3325 6a3d 9fa0 be3d 4915 93bd c9e4 a4bd
00000050: 2670 88bd 469a b7bd 945d fe3c 8237 813d
00000060: b68f 803d e67e 8a3d 3eac 863d 43fe 9cbc
00000070: 9ad5 9b3d ea5e 68bd 6ae7 edbd 741b 06bc

conv3.weight f4 [16, 32, 10]
-0.07542721 -0.047317263 -0.04046858 -0.0798528 -0.036202095 -0.009986221 -0.015726406 -0.02159238
-0.032833975 -0.037117556 -0.025964059 -0.104919195 -0.024994336 -0.054619193 -0.084446184 -0.08260483
-0.06305143 -0.032452624 -0.090372145 -0.06327649 -0.093152255 -0.069028586 -0.006400695 -0.015715811
-0.103439935 -0.02948308 -0.050404955 -0.024562936 -0.026351135 -0.030152876 -0.11173728 -0.022916485
-0.072775334 -0.09089504 -0.10110072 -0.08429393 -0.09385722 -0.101867534 -0.039987683 -0.047737196
-0.055724334 -0.017629292 -0.045142278 -0.08072543 -0.11116665 -0.0074319313 -0.08463164 -0.02090966
-0.06371223 -0.038889382 -0.10008917 -0.043887008 -0.020485891 -0.11296389 -0.087648 -0.07285825
-0.057179213 -0.11021087 -0.027143383 -0.11447239 -0.05175639 -0.06925468 -0.03308851 -0.010890359
-0.03802324 -0.09741758 -0.0063250354 -0.062564634 -0.0075102434 -0.09765424 -0.011958181 -0.0051415283
-0.0748189 -0.013307084 -0.017769704 -0.10259112 -0.023928136 -0.030611265 -0.0140936915 -0.05325087
-0.04187171 -0.030086929 -0.084252685 -0.08181334 -0.025638204 0.08489827 -0.0825223 -0.036501728
-0.037734527 -0.032554764 -0.08824559 -0.09513786 -0.08795024 -0.045827538 -0.10806645 -0.0905413
-0.11463736 -0.04256478 -0.018711645 -0.0055247634 -0.0560799 -0.05789628 -0.031536214 -0.105993144
-0.03325972 -0.101989016 -0.09877929 -0.07958486 -0.07363466 -0.026159424 -0.11339787 -0.022463115
-0.011401589 -0.070191 -0.063472874 -0.087596335 -0.027767397 -0.01928132 -0.006186241 -0.048230756
-0.09061118 -0.04303895 -0.058643047 -0.08844453 -0.10456388 -0.10031526 -0.09420561 -0.08555966
-0.07800316 -0.07409985 -0.09694908 -0.087444395 -0.0070089307 -0.039621998 -0.07294261 -0.035171617
-0.104955755 -0.04642743 -0.007268994 -0.05717431 -0.088974476 -0.11404339 -0.09800562 -0.041172657
-0.11143672 -0.05963846 -0.090031266 -0.030179087 -0.10513094 -0.04346234 -0.04029091 -0.06254225
-0.06756727 -0.048310805 -0.055214103 -0.0144644575 -0.11108676 -0.03355118 -0.05583752 -0.01960853
-0.04590229 -0.052676804 -0.11389097 -0.03096144 -0.04936648 -0.047021493 -0.09348833 -0.059766404
-0.08733174 -0.10625007 -0.006418876 -0.016264055 -0.0749723 -0.05673242 -0.08194291 -0.048223015
-0.011814521 -0.10759818 -0.019460928 -0.0042523355 -0.039885562 -0.013172009 -0.11070194 -0.0497876
-0.10155829 -0.005507302 -0.035847463 -0.11450328 -0.11239406 -0.0995573 -0.030792983 -0.058522426
-0.016042117 -0.075338155 -0.012381662 -0.06371027 -0.008746677 -0.05492315 -0.08800616 -0.082007065
-0.015979968 -0.059269447 -0.101035446 -0.026707286 -0.042112064 -0.09020459 -0.044700615 -0.0939881
-0.057665315 -0.03162796 -0.026642943 -0.055929765 -0.020683706 -0.095855996 -0.0939958 -0.022965338
-0.0408647 -0.112804025 -0.051208615 -0.057168055 -0.045362215 -0.033076353 -0.08251783 -0.11328807
-0.019416852 -0.020726824 -0.103092685 -0.09015951 -0.015874986 -0.0625662 -0.08384757 -0.01738483
-0.09278872 -0.014706876 -0.07450068 -0.08547567 -0.017926676 -0.09754806 -0.063857846 -0.07066174
-0.045371033 -0.090591416 -0.102677286 -0.017982623 -0.11012422 -0.10473358 -0.09778154 -0.11091088
-0.06515095 -0.04868975 -0.06497675 -0.107083604 -0.07732488 -0.11316655 -0.04465382 -0.014507749
00000000: 9579 9abd bfcf 41bd 62c2 25bd dd89 a3bd
00000010: a648 14bd 3f9d 23bc aad4 80bc 81e2 b0bc
00000020: eb7c 06bd 9408 18bd 94b2 d4bc e0df d6bd
00000030: ecc0 ccbc 60b8 5fbd 1ff2 acbd b92c a9bd
00000040: 1c21 81bd 0bed 04bd 0815 b9bd 1b97 81bd
00000050: 9cc6 bebd dc5e 8dbd ecbc d1bb 72be 80bc
00000060: 51d8 d3bd 8086 f1bc 6d75 4ebd 3638 c9bc
00000070: 56de d7bc 2a03 f7bc 84d6 e4bd 5abb bbbc
00000080: 3c0b 95bd 2e27 babd e50d cfbd 4ca2 acbd
00000090: 3738 c0bd ed9f d0bd 20ca 23bd 1488 43bd
000000a0: 333f 64bd 4e6b 90bc 1ce7 38bd 6053 a5bd
000000b0: 57ab e3bd 8f87 f3bb 5a53 adbd bc4a abbc
000000c0: 8f7b 82bd 794a 1fbd 8dfb ccbd ddc2 33bd
000000d0: 07d2 a7bc 9d59 e7bd cb80 b3bd b536 95bd
000000e0: c034 6abd 3db6 e1bd cd5b debc 8070 eabd
000000f0: 82fe 53bd 66d5 8dbd d187 07bd 7a6d 32bc
00000100: 42be 1bbd de82 c7bd 3e42 cfbb e321 80bd
00000110: 7d18 f6bb f2fe c7bd 3fec 43bc 447a a8bb
00000120: a73a 99bd f505 5abc c591 91bc 4b1b d2bd
00000130: f004 c4bc 7ac4 fabc 3ae9 66bc 961d 5abd
00000140: ac81 2bbd dd78 f6bc ac8c acbd c18d a7bd
00000150: 3607 d2bc 25df ad3d 7401 a9bd d682 15bd
00000160: 858f 1abd 2558 05bd 1bba b4bd a3d7 c2bd
00000170: 411f b4bd a8b5 3bbd f151 ddbd b86d b9bd
00000180: fec6 eabd 6858 2ebd 2a49 99bc 1309 b5bb
00000190: 0ab4 65bd a624 6dbd 1e2c 01bd ef12 d9bd
000001a0: 583b 08bd 9edf d0bd cc4c cabd 63fd a2bd
000001b0: c5cd 96bd 4a4c d6bc 243d e8bd 9104 b8bc
000001c0: bbcd 3abc 4dc0 8fbd 11fe 81bd b565 b3bd
000001d0: 7478 e3bc dcf3 9dbc f3b5 cabb 9d8d 45bd
000001e0: 5b92 b9bd 9c49 30bd b133 70bd 6822 b5bd
000001f0: 9625 d6bd 1672 cdbd dfee c0bd e739 afbd
00000200: 1fc0 9fbd aac1 97bd 3d8d c6bd 0c16 b3bd
00000210: 2cab e5bb ad4a 22bd ef62 95bd 1d10 10bd
00000220: 0bf3 d6bd b02a 3ebd be30 eebb 9c2f 6abd
00000230: 4038 b6bd 958f e9bd 2cb7 c8bd a9a4 28bd
00000240: ef38 e4bd 7547 74bd 5062 b8bd 223a f7bc
00000250: e44e d7bd 9105 32bd 1508 25bd 2716 80bd
00000260: b560 8abd 8de1 45bd 2f28 62bd 55fc 6cbc
00000270: 7581 e3bd f66c 09bd e2b5 64bd 11a2 a0bc
00000280: 0a04 3cbd a2c3 57bd ab3f e9bd d9a2 fdbc
00000290: 8234 4abd 9c99 40bd cf76 bfbd 9ecd 74bd
000002a0: fcda b2bd a399 d9bd 6f55 d2bb 323c 85bc
000002b0: 148b 99bd 4160 68bd afd1 a7bd 7f85 45bd
000002c0: b191 41bc 6f5c dcbd 866c 9fbc 2d57 8bbb
000002d0: 0b5f 23bd 69cf 57bc b3b7 e2bd 15ee 4bbd
000002e0: cbfd cfbd 9976 b4bb cad4 12bd b280 eabd
000002f0: db2e e6bd b3e4 cbbd 9141 fcbc 36b5 6fbd
00000300: c26a 83bc e44a 9abd 74dc 4abc 887a 82bd
00000310: 394e 0fbc 19f7 60bd 933c b4bd 52f3 a7bd
00000320: 6ce8 82bc 85c4 72bd aceb cebd 3dc9 dabc
00000330: b37d 2cbd 2fbd b8bd fe17 37bd d57c c0bd
00000340: 7732 6cbd 528c 01bd 4d42 dabc 9c16 65bd
00000350: e070 a9bc 2650 c4bd df80 c0bd ce21 bcbc
00000360: be61 27bd cc05 e7bd 20c0 51bd 0d29 6abd
00000370: bbcd 39bd 127b 07bd 1cff a8bd 9303 e8bd
00000380: 1710 9fbc 4dcb a9bc 4222 d3bd 8da5 b8bd
00000390: 420c 82bc b522 80bd 46b8 abbd a26a 8ebc
000003a0: 0308 bebd 1cf5 70bc d093 98bd de0d afbd
000003b0: f7da 92bc 47c7 c7bd e7c7 82bd 1ab7 90bd
000003c0: fad6 39bd fe87 b9bd 7848 d2bd 4b50 93bc
000003d0: cf88 e1bd 8f7e d6bd b041 c8bd 3e25 e3bd
000003e0: dc6d 85bd e76e 47bd 8812 85bd a64e dbbd
000003f0: 825c 9ebd ddc3 e7bd ede6 36bd e9b1 6dbc

conv3.bias f4 [16]
-0.0666005 0.0392408 0.09247306 0.01534663 0.08251173 0.0020625885 0.08537465 -0.09206726
-0.04004951 0.052725784 -0.015579191 -0.0492183 0.016390126 -0.10830723 0.08932584 0.10269119
00000000: d865 88bd f6ba 203d 8462 bd3d 6e70 7b3c
00000010: e9fb a83d 7e2c 073b e8d8 ae3d c28d bcbd
00000020: f40a 24bd fef6 573d dd3f 7fbc 2199 49bd
00000030: 9644 863c 2ed0 ddbd 77f0 b63d c24f d23d

lstm.weight_ih_l0 f4 [128, 16]
0.06323914 -0.17588408 0.073768646 -0.16699266 -0.02476549 -0.053687256 0.22593904 -0.09647883
0.12089903 0.06014092 -0.07421083 -0.06150155 -0.06414054 -0.21973395 0.065458655 0.05624808
0.055420764 0.06607179 0.02813201 0.16264416 0.016564406 0.02983987 -0.08983369 0.08784281
0.045043442 -0.07333921 -0.007605085 -0.029382503 0.25082535 -0.102549344 0.120132245 -0.056937177
-0.08136689 0.21333137 0.09257477 0.14155942 0.044399336 -0.055104814 0.10986442 0.1288158
0.2358224 0.023824757 0.23089647 0.23234943 -0.15470837 0.000615296 0.23086448 0.18646203
-0.20955172 -0.21875715 -0.08404536 -0.15413886 0.12800029 -0.039079476 0.27054992 -0.08376135
0.06749019 -0.0014369966 0.09846233 -0.010799863 0.21878819 0.021433417 -0.22745627 0.18833655
-0.11023247 -0.14915177 0.15975946 -0.20397422 0.017679743 -0.106572315 -0.09173061 0.020744702
-0.015576649 0.2016177 0.073950246 -0.20436193 0.22834261 0.10346555 -0.06082571 0.16439462
0.18707922 -0.08160259 0.18847156 0.17231575 -0.08564911 0.13281222 0.15998603 0.115628034
0.011254379 0.115242876 0.17785865 0.13285856 -0.04393416 0.008838409 0.23402484 0.19084755
-0.029031198 -0.080862686 0.20741971 0.2013687 -0.022383288 -0.046404235 0.034740947 0.038513042
0.123930015 0.18296535 0.0005494528 0.17353964 -0.0342515 0.15723714 0.10040809 -0.0026719673
-0.03658936 -0.02951252 -0.0078072185 -0.12284668 -0.06632234 -0.19481926 -0.18785395 -0.1892268
-0.01163112 -0.112883545 -0.026550794 -0.14221922 -0.023630602 -0.21041073 -0.04714973 -0.22456908
-0.23338568 -0.20021476 0.23398983 0.110978864 0.1062832 0.03841113 0.20786838 -0.15239416
0.08521542 0.109810024 0.067568675 0.020791078 0.009081482 -0.20578663 -0.14162427 0.025702149
0.039255206 -0.042832844 0.10240629 -0.06823651 -0.14309445 -0.107094504 0.006462495 0.051217534
-0.021001402 0.22646533 0.06307566 0.2186643 0.070486546 -0.047254734 -0.14133109 -0.018131088
-0.08048844 -0.05921232 0.1725277 0.100503676 -0.06445972 0.11204856 0.2254795 -0.055794965
0.19099055 0.017012352 -0.09320287 0.10845676 0.07461662 -0.075849 0.20756325 -0.05099246
0.022399053 -0.040603917 -0.074846275 0.096520215 0.15179688 0.020735001 0.041977797 0.056909654
-0.12261401 0.17858925 0.037745737 -0.06928215 -0.06307178 0.06414874 0.023080232 0.12835877
0.132926 0.0426326 0.11079114 -0.055168338 0.12878285 0.043962535 -0.011650292 -0.0707331
0.057112627 0.08155193 -0.034072936 -0.0017528558 0.095941216 -0.04113646 0.01621392 0.15315479
-0.19552682 -0.09997776 -0.14310206 -0.20140687 -0.017765563 -0.14084397 0.055427358 -0.1946866
-0.17954528 0.011446673 -0.008103649 0.069522634 -0.15611117 -0.2288763 -0.018966075 -0.15054023
-0.061062552 -0.08043567 0.16242465 0.04485476 0.12542799 0.24708657 0.1284924 0.083916076
-0.027373184 0.10181042 -0.097778834 -0.17811932 0.12555072 -0.21185271 0.10638922 -0.027582815
0.15866333 -0.09918356 -0.030399516 -0.052333754 0.055666465 0.23621766 0.222936 0.23222247
0.08580353 0.08738912 0.028499106 0.1215112 0.11179443 0.06466783 0.12958562 0.1253083
00000000: 8683 813d f51a 34be 0414 973d 2000 2bbe
00000010: ffe0 cabc 2be7 5bbd 905c 673e b196 c5bd
00000020: e999 f73d 5356 763d d9fb 97bd 0de9 7bbd
00000030: 1e5c 83bd f001 61be 300f 863d 6364 663d
00000040: e200 633d a650 873d 1a75 e63c 318c 263e
00000050: 14b2 873c be72 f43c bafa b7bd eee6 b33d
00000060: 797f 383d de32 96bd 1434 f9bb 93b3 f0bc
00000070: 2e6c 803e 6405 d2bd e507 f63d f536 69bd
00000080: afa3 a6bd 8a73 5a3e d797 bd3d f4f4 103e
00000090: 14dc 353d 96b5 61bd 9900 e13d 4ae8 033e
000000a0: 6d7b 713e 232c c33c 2070 6c3e 02ed 6d3e
000000b0: df6b 1ebe d14b 213a bd67 6c3e e7ef 3e3e
000000c0: ba94 56be e001 60be f91f acbd 94d6 1dbe
000000d0: 8212 033e cd11 20bd 8585 8a3e 128b abbd
000000e0: 4c38 8a3d 9b59 bcba 9ea6 c93d e9f1 30bc
000000f0: 030a 603e 2295 af3c 4cea 68be 4cdb 403e
00000100: 90c1 e1bd 3ebb 18be fc97 233e 9ede 50be
00000110: 1cd5 903c 9642 dabd 42dd bbbd cbf0 a93c
00000120: 3435 7fbc df74 4e3e 3a73 973d 4144 51be
00000130: a5d2 693e bfe5 d33d 6124 79bd 1057 283e
00000140: b291 3f3e 421f a7bd b0fe 403e 8a73 303e
00000150: cd68 afbd edff 073e 61d3 233e 64ce ec3d
00000160: 4964 383c 7504 ec3d 9420 363e 130c 083e
00000170: 4ef4 33bd f9ce 103c 35a4 6f3e 8a6d 433e
00000180: d6d2 edbc 569b a5bd d565 543e 9933 4e3e
00000190: 285d b7bc 5e12 3ebd 864c 0e3d dabf 1d3d
000001a0: 05cf fd3d 455b 3b3e 2709 103a 60b4 313e
000001b0: 4d4b 0cbd c602 213e c2a2 cd3d 2c1c 2fbb
000001c0: bade 15bd 3ec4 f1bc b2d3 ffbb 0a97 fbbd
000001d0: 02d4 87bd b37e 47be c95c 40be acc4 41be
000001e0: 7490 3ebc 7d2f e7bd 0d81 d9bc eaa1 11be
000001f0: f794 c1bc e975 57be 1320 41bd 70f5 65be
00000200: a8fc 6ebe 1905 4dbe 089b 6f3e e348 e33d
00000210: 02ab d93d fd54 1d3d 73db 543e 370d 1cbe
00000220: 6c85 ae3d 14e4 e03d 7261 8a3d 0d52 aa3c
00000230: 7fca 143c bbb9 52be f405 11be 508d d23c
00000240: 11ca 203d 7e71 2fbd 64ba d13d 95bf 8bbd
00000250: 5a87 12be 5d54 dbbd 56c3 d33b 7ac9 513d
00000260: 220b acbc 87e6 673e d02d 813d 89e9 5f3e
00000270: 405b 903d 2e8e 41bd 19b9 10be a687 94bc
00000280: 20d7 a4bd 9e88 72bd 1aab 303e dfd4 cd3d
00000290: 7503 84bd b779 e53d 19e4 663e 4389 64bd
000002a0: 0793 433e 7d5d 8b3c 25e1 bebd 941e de3d
000002b0: 99d0 983d b856 9bbd 768b 543e 78dd 50bd
000002c0: 387e b73c 4b50 26bd 0149 99bd 64ac c53d
000002d0: a470 1b3e 73dc a93c e9f0 2b3d 191a 693d
000002e0: 0e1d fbbd 1ae0 363e 469b 1a3d cde3 8dbd
000002f0: c72b 81bd 6a60 833d c112 bd3c 7b70 033e
00000300: c11d 083e 859f 2e3d 77e6 e23d 32f8 61bd
00000310: a7df 033e 0f12 343d dee0 3ebc 84dc 90bd
00000320: eeee 693d b304 a73d 1090 0bbd 15c0 e5ba
00000330: d47c c43d b47e 28bd 0ed3 843c 9cd4 1c3e
00000340: 2f38 48be 24c1 ccbd 5989 12be 9a3d 4ebe
00000350: 1689 91bc 6739 10be cc07 633d ed5b 47be
00000360: b8da 37be d48a 3b3c 2bc5 04bc e261 8e3d
00000370: 9bdb 1fbe 8c5e 6abe be5e 9bbc 3827 1abe
00000380: ba1c 7abd 75bb a4bd a652 263e a0b9 373d
00000390: 3270 003e 4304 7d3e 8393 033e 31dc ab3d
000003a0: ba3d e0bc fb81 d03d 4540 c8bd e964 36be
000003b0: 5e90 003e ebef 58be 97e2 d93d 5bf5 e1bc
000003c0: a478 223e c020 cbbd 6808 f9bc eb5b 56bd
000003d0: 8502 643d 0be3 713e 5649 643e bacb 6d3e
000003e0: c3b9 af3d 11f9 b23d f576 e93c ddda f83d
000003f0: 7af4 e43d 9170 843d 18b2 043e d250 003e

lstm.weight_hh_l0 f4 [128, 32]
-0.015151803 0.09981787 0.08368921 -0.12508978 -0.052962124 0.0057703136 0.015043218 0.14888632
0.20942979 -0.047205914 -0.008900975 0.011273097 -0.056137487 -0.024123926 -0.009481293 -0.15124413
0.09310049 -0.29340926 0.115774184 0.22650036 0.06368869 -0.12904833 -0.21501143 -0.15444505
0.18491213 0.009309164 -0.05902909 -0.10589076 0.012037149 -0.016943255 0.034220885 -0.102297045
0.0025417923 -0.042681437 -0.065943375 -0.041734364 0.054194476 -0.041674327 0.032422766 0.07145299
-0.028668186 0.09151495 0.012764924 -0.11663663 0.09228403 0.122982875 -0.053329304 -0.13716835
-0.118067406 -0.027121088 -0.06747238 0.07144874 -0.1281598 0.020293212 0.22458413 -0.102503225
0.102892816 -0.052564822 -0.07174801 0.066144735 0.07941165 0.014150422 -0.11321299 -0.100873545
-0.18611562 -0.14224032 -0.06728774 0.22004041 -0.030056981 0.15261023 -0.083907135 -0.23189357
0.14060871 -0.019413 -0.06330902 -0.07600342 0.2221694 0.06076023 -0.013115836 -0.034533046
0.1514045 -0.19113548 -0.016824288 0.008340076 -0.23134859 0.025756646 -0.17155173 -0.23083496
0.062032674 0.012120633 0.0070754983 -0.0017156474 -0.021601414 -0.0129603315 0.08256952 -0.05235743
-0.20978267 -0.18829446 0.19908974 -0.052191768 0.083194666 0.06435472 -0.27577206 -0.09726264
0.27362427 0.10382554 0.03343419 0.042918712 0.015880762 -0.034616955 -0.010960927 -0.043175656
-0.095206045 -0.030190837 -0.04588099 0.14485358 0.060607065 -0.23036763 -0.10663951 -0.28596497
0.032322988 -0.29945996 -0.2407756 -0.122789904 -0.049484152 0.0609105 0.24307345 -0.10784308
-0.15992111 0.085375726 -0.057908095 0.045971178 0.036834136 0.058844686 -0.12985776 0.18739086
0.093407154 -0.10810846 0.15954374 0.06551319 -0.08075697 -0.04213365 0.18681249 0.05932024
0.011961702 -0.0460509 0.07315907 0.15810136 -0.10796886 -0.051730048 -0.20253032 -0.10445594
0.15264994 0.038638044 -0.08106269 -0.14851594 -0.113944516 0.273534 0.1641986 -0.053525116
0.042526104 0.16321294 0.018160032 0.029927395 -0.047178246 0.22764765 -0.19499314 -0.06739738
-0.06484265 0.114738524 0.1467315 0.12619437 0.1682943 -0.0016215062 0.11839802 -0.005800727
0.07216373 0.21362232 -0.107902214 -0.09720112 -0.14235511 -0.018517224 0.16453822 -0.017308926
-0.05553888 0.18756902 -0.043847557 0.03405998 -0.24149153 -0.19390346 0.18277995 0.08942868
-0.01916963 0.19641894 0.13960025 0.22181587 -0.051933028 -0.049646247 -0.063194275 0.063457645
0.117015764 -0.097540505 0.07691586 0.07201793 0.191346 0.07991676 -0.015615048 -0.09614671
0.18697543 0.15990333 0.09867912 -0.08895253 -0.034588933 -0.048863553 -0.0219138 0.096561365
0.20808992 0.2134083 0.1042906 -0.053878088 -0.14362751 -0.19527172 0.20007251 -0.056374427
-0.08378643 -0.21317677 -0.19453482 -0.10907587 -0.22147104 0.04773691 0.27134472 0.014312998
0.074168146 -0.20912267 -0.014472309 -0.13517286 -0.03836157 -0.050277997 -0.0868053 0.22565015
-0.09674218 0.08764411 -0.049806748 0.117662184 0.24477284 -0.1036029 0.1975258 -0.10945061
-0.23100516 -0.10063471 0.0031031822 -0.13827257 -0.04535278 0.05297826 -0.19244827 0.15439895
00000000: 453f 78bc 506d cc3d 4065 ab3d 8917 00be
00000010: d0ee 58bd e614 bd3b d477 763c a875 183e
00000020: c374 563e fd5a 41bd 65d5 11bc ccb2 383c
00000030: 6cf0 65bd 8a9f c5bc 6d57 1bbc bedf 1abe
00000040: 78ab be3d bd39 96be 041b ed3d b6ef 673e
00000050: 376f 823d 3f25 04be f52b 5cbe d826 1ebe
00000060: 9b59 3d3e 7785 183c 7dc8 71bd 41dd d8bd
00000070: 7637 453c 95cc 8abc 332b 0c3d 1d81 d1bd
00000080: 3394 263b bbd2 2ebd 520d 87bd a7f1 2abd
00000090: 07fb 5d3d b3b2 2abd bccd 043d f255 923d
000000a0: 8bd9 eabc 316c bb3d f923 513c 2fdf eebd
000000b0: 69ff bc3d 72de fb3d d46f 5abd dc75 0cbe
000000c0: 53cd f1bd 0b2d debc f62e 8abd b853 923d
000000d0: 533c 03be f33d a63c 62f9 653e 36ed d1bd
000000e0: 78b9 d23d 364e 57bd 9ff0 92bd e476 873d
000000f0: 93a2 a23d 2cd7 673c 36dc e7bd ca96 cebd
00000100: 1895 3ebe 72a7 11be 28ce 89bd 4652 613e
00000110: 0f3a f6bc db45 1c3e 81d7 abbd 8275 6dbe
00000120: bbfb 0f3e 0308 9fbc 29a8 81bd aea7 9bbd
00000130: 6080 633e b8df 783d cee3 56bc 8672 0dbd
00000140: c809 1b3e 05b9 43be 17d3 89bc d0a4 083c
00000150: a5e6 6cbe 9aff d23c 42ab 2fbe 0060 6cbe
00000160: f915 7e3d 9f95 463c 95d9 e73b 93df e0ba
00000170: 73f5 b0bc 9257 54bc 351a a93d bf74 56bd
00000180: 45d1 56be 43d0 40be 2ede 4b3e 09c7 55bd
00000190: f761 aa3d 68cc 833d ff31 8dbe a331 c7bd
000001a0: 7b18 8c3e 7ca2 d43d 4af2 083d 88cb 2f3d
000001b0: 5f18 823c 82ca 0dbd 7695 33bc f5d8 30bd
000001c0: 63fb c2bd c652 f7bc b4ed 3bbd 7f54 143e
000001d0: 1d3f 783d 7ee5 6bbe d165 dabd 006a 92be
000001e0: 1c65 043d d152 99be e18d 76be 4679 fbbd
000001f0: e5af 4abd 4a7d 793d 3fe8 783e d5dc dcbd
00000200: 5cc2 23be 78d9 ae3d 0a31 6dbd 464c 3c3d
00000210: 64df 163d 2007 713d 6ff9 04be 64e3 3f3e
00000220: 404c bf3d f867 ddbd 6f5f 233e c82b 863d
00000230: e963 a5bd 5694 2cbd c64b 3f3e c8f9 723d
00000240: 04fb 433c de9f 3cbd 6cd4 953d 53e5 213e
00000250: c71e ddbd e3e2 53bd 1c64 4fbe ffec d5bd
00000260: 4450 1c3e ed42 1e3d 3204 a6bd 9014 18be
00000270: be5b e9bd a60c 8c3e ae23 283e 273d 5bbd
00000280: da2f 2e3d 4b21 273e 59c4 943c 4c2a f53c
00000290: fa3d 41bd 771c 693e 48ac 47be a307 8abd
000002a0: 39cc 84bd 08fc ea3d c840 163e 1939 013e
000002b0: 5755 2c3e b888 d4ba a97a f23d 0614 bebb
000002c0: 94ca 933d cfbf 5a3e d6fb dcbd 6111 c7bd
000002d0: 8ac5 11be 6fb1 97bc b57c 283e 73cb 8dbc
000002e0: bd7c 63bd 1812 403e 7f99 33bd 7a82 0b3d
000002f0: 8e49 77be a18e 46be ab2a 3b3e 6226 b73d
00000300: a109 9dbc 0c22 493e 5ef3 0e3e b323 633e
00000310: bab7 54bd dd59 4bbd 006c 81bd 15f6 813d
00000320: f6a5 ef3d 51c3 c7bd 1086 9d3d 237e 933d
00000330: 35f0 433e 66ab a33d 42d6 7fbc 91e8 c4bd
00000340: 7d76 3f3e b3bd 233e 4718 ca3d be2c b6bd
00000350: 20ad 0dbd 2625 48bd 9284 b3bc f7c1 c53d
00000360: 8615 553e b587 5a3e 4f96 d53d 45af 5cbd
00000370: 1713 13be 4ff5 47be cfdf 4c3e dfe8 66bd
00000380: 3898 abbd 034b 5abe 2334 47be 2b63 dfbd
00000390: 4ec9 62be c787 433d b2ed 8a3e 1181 6a3c
000003a0: 78e5 973d 4124 56be 431d 6dbc c16a 0abe
000003b0: 0621 1dbd 4df0 4dbd fac6 b1bd d510 673e
000003c0: c420 c6bd c17e b33d 2902 4cbd dff8 f03d
000003d0: bba5 7a3e c22d d4bd 3444 4a3e a427 e0bd
000003e0: 9e8c 6cbe 9219 cebd c25e 4b3b 5397 0dbe
000003f0: d6c3 39bd bbff 583d 2911 45be c21a 1e3e

lstm.bias_ih_l0 f4 [128]
0.22718562 0.19796675 0.17358948 0.07716705 0.11086794 0.116243444 0.21196888 0.025450565
0.16899109 0.15485501 0.18524042 0.038580928 0.32477787 0.016258596 0.020422786 -0.013245847
0.19224334 -0.22143048 0.14198034 -0.20448385 0.030590855 -0.18326643 -0.16741437 0.09849406
0.25016916 0.122407965 -0.021850558 -0.26983005 0.23603041 -0.11931359 0.17905319 0.01595902
-0.10656497 0.15497033 0.13971561 0.13744338 0.15073301 0.17240907 0.07975193 0.06783957
0.24244368 -0.027700033 0.10262281 -0.009524004 0.26129267 -0.26798654 0.18366204 -0.043626614
0.120243244 -0.11432656 -0.026745496 0.0040602614 -0.09027861 -0.07360498 -0.059273276 0.052251033
0.07686603 0.06676079 0.08327703 0.0047679693 -9.587647e-06 -0.10257441 -0.035554666 0.12066673
-0.17833343 0.09587294 0.090565205 -0.021131335 0.03543318 0.18123966 -0.10533385 -0.09733723
0.09084272 -0.10068055 -0.01901974 0.18443252 0.19460699 0.09824517 0.22255768 -0.18802434
0.12019333 -0.060911335 0.11459438 -0.025974814 -0.09042623 0.062336292 -0.08088594 -0.06900614
0.1275264 -0.09408008 0.027029706 -0.04522529 -0.1770185 -0.19196285 0.1561278 -0.20725915
0.07307119 -0.19324619 0.068559065 -0.057765543 0.07746662 0.053106796 0.14966103 0.047564283
0.15821435 0.05169503 0.0997595 -0.02971963 0.21429041 -0.0952136 -0.008755481 0.20589775
0.057459086 -0.13952684 0.0784759 -0.19908184 -0.0819488 0.1569371 0.2722994 0.038135003
-0.053930182 -0.18090916 0.007140399 -0.2461229 0.058924526 -0.13104342 0.28781512 -0.029308598
00000000: 59a3 683e ccb7 4a3e 71c1 313e c209 9e3d
00000010: bb0e e33d 0b11 ee3d 5f0e 593e b47d d03c
00000020: 000c 2d3e 5092 1e3e aaaf 3d3e 0907 1e3d
00000030: 4949 a63e bf30 853c b04d a73c 1c05 59bc
00000040: 70db 443e acbe 62be 4b63 113e 3764 51be
00000050: ac99 fa3c 32aa 3bbe ac6e 2bbe 41b7 c93d
00000060: 2c16 803e 07b1 fa3d f1ff b2bc 2a27 8abe
00000070: f5b1 713e af5a f4bd b859 373e 7ebc 823c
00000080: bc3e dabd 8bb0 1e3e 9c11 0f3e f5bd 0c3e
00000090: c159 1a3e 018c 303e fb54 a33d 79ef 8a3d
000000a0: 2843 783e 2eeb e2bc e82b d23d 910a 1cbc
000000b0: 27c8 853e 8835 89be e711 3c3e d2b1 32bd
000000c0: 1742 f63d 0b24 eabd 5f19 dbbc f10b 853b
000000d0: fee3 b8bd 35be 96bd 89c8 72bd 2e05 563d
000000e0: f06b 9d3d e2b9 883d 268d aa3d a03c 9c3b
000000f0: a1da 20b7 8812 d2bd c5a1 11bd 1e20 f73d
00000100: 0a9d 36be 0859 c43d 407a b93d 9f1b adbc
00000110: 6222 113d e496 393e 46b9 d7bd be58 c7bd
00000120: bf0b ba3d 9b31 cebd 49cf 9bbc e1db 3c3e
00000130: 0e47 473e c434 c93d 29e6 633e 7489 40be
00000140: ec27 f63d 2a7e 79bd 75b0 ea3d 22c9 d4bc
00000150: 6331 b9bd 5754 7f3d 87a7 a5bd 1753 8dbd
00000160: 4896 023e 0fad c0bd 676d dd3c 273e 39bd
00000170: 5644 35be e991 44be f7df 1f3e be3b 54be
00000180: 59a6 953d 54e2 45be b268 8c3d 909b 6cbd
00000190: d2a6 9e3d 8386 593d be40 193e c4d2 423d
000001a0: f102 223e 2bbe 533d b54e cc3d 9576 f3bc
000001b0: f26e 5b3e 59ff c2bd 2673 0fbc dcd6 523e
000001c0: 385a 6b3d 20e0 0ebe f9b7 a03d 1cdc 4bbe
000001d0: c6d4 a7bd 1fb4 203e d46a 8b3e 7333 1c3d
000001e0: e5e5 5cbd 4040 39be 02fa e93b a407 7cbe
000001f0: d85a 713d 3f30 06be 815c 933e 9618 f0bc

lstm.bias_hh_l0 f4 [128]
0.087047644 0.009357815 0.1599926 0.00672411 0.10176468 -0.10057812 0.18578492 -0.25137842
0.03394096 -0.04496973 -0.109374896 0.07784376 0.072031125 0.011630791 -0.034128208 -0.09805963
-0.057440594 -0.11647572 -0.0826909 -0.22310086 0.21324308 0.0057962085 0.082363024 0.10961678
0.07759104 0.0047028046 -0.029115684 -0.106035605 0.032050014 0.11190429 0.02917327 0.004935739
0.113846794 -0.011802251 0.24482866 -0.07601435 -0.08802544 0.08745276 0.16309336 -0.13122591
0.14585708 0.21292844 0.07525386 -0.077141136 0.32635364 -0.012965779 0.041751932 0.068307005
0.16784394 0.015207714 -0.07178869 -0.19596647 -0.025385186 -0.066734344 -0.08894841 0.1774711
0.18494844 0.098963894 -0.23645234 0.06402423 0.110163465 0.019411681 0.08470238 0.13843752
-0.01884061 0.104045294 0.0492777 -0.10216072 0.13186374 0.20781057 0.060505137 0.011603611
0.065954596 0.05556585 0.21948831 0.0017619957 0.18061776 0.049682703 0.04120834 -0.011178884
0.12435927 0.08821363 0.1285464 0.14597261 -0.009503181 -0.21347725 0.01675434 -0.036893357
-0.08392935 0.087492034 -0.15837018 -0.027959209 -0.13818978 -0.16411853 -0.048258968 -0.21258265
-0.0069612395 -0.13201877 0.042891003 -0.046330627 0.13613352 0.09751102 0.20066774 -0.19104613
0.034089446 0.0013867827 0.26325038 0.008230579 0.08963235 0.048534233 0.04412652 0.30536866
0.032356486 0.024105167 -0.04543262 -0.05298273 -0.07553032 0.114195034 0.12189403 -0.017888486
0.1863075 -0.090215735 0.005302181 -0.2297909 0.29076767 -0.028043274 0.26122594 0.03407865
00000000: 0946 b23d 8551 193c 1ad5 233e ec55 dc3b
00000010: 006a d03d e7fb cdbd 673e 3e3e acb4 80be
00000020: ad05 0b3d 2e32 38bd f2ff dfbd 8d6c 9f3d
00000030: 0e85 933d 138f 3e3c 05ca 0bbd 7dd3 c8bd
00000040: d446 6bbd d38a eebd d959 a9bd 8d74 64be
00000050: 655c 5a3e 1fee bd3b f2ad a83d c37e e03d
00000060: 0de8 9e3d fc19 9a3b 0484 eebc 3229 d9bd
00000070: e046 033d 142e e53d c8fc ee3c fbbb a13b
00000080: 8228 e93d 3b5e 41bc 5db4 7a3e 69ad 9bbd
00000090: af46 b4bd 6f1a b33d f201 273e 1660 06be
000000a0: 8f5b 153e ea09 5a3e b21e 9a3d 2cfc 9dbd
000000b0: d317 a73e 6b6e 54bc 1304 2b3d 8be4 8b3d
000000c0: 48df 2b3e c729 793c f305 93bd 6fab 48be
000000d0: 98f4 cfbc 04ac 88bd 952a b6bd fcba 353e
000000e0: 2063 3d3e 95ad ca3d 9020 72be 231f 833d
000000f0: 629d e13d 3f05 9f3c 7178 ad3d 91c2 0d3e
00000100: 9f57 9abc b315 d53d 6ad7 493d a439 d1bd
00000110: 4a07 073e 4bcc 543e 3cd4 773d 121d 3e3c
00000120: 3413 873d 0499 633d 8bc1 603e c4f2 e63a
00000130: ddf3 383e 1780 4b3d 14ca 283d a327 37bc
00000140: 13b0 fe3d 59a9 b43d aba1 033e d879 153e
00000150: 3bb3 1bbc c899 5abe 6640 893c 7d1d 17bd
00000160: 27e3 abbd 062f b33d cb2b 22be b60a e5bc
00000170: 9f81 0dbe b00e 28be 32ab 45bd 44af 59be
00000180: 1c1b e4bb ee2f 07be 7aae 2f3d 2fc5 3dbd
00000190: 9666 0b3e dcb3 c73d d87b 4d3e 99a1 43be
000001a0: 60a1 0b3d b5c4 b53a c1c8 863e 8dd9 063c
000001b0: 2a91 b73d d5cb 463d 03be 343d 4859 9c3e
000001c0: 3c88 043d 3378 c53c 8e17 3abd 6b04 59bd
000001d0: a4af 9abd 16df e93d 94a3 f93d e08a 92bc
000001e0: 65c7 3e3e 07c3 b8bd ebbd ad3b 4e4e 6bbe
000001f0: 80df 943e 02bb e5bc 68bf 853e 0e96 0b3d

dense1.weight f4 [32, 32]
-0.219956 -0.17354211 0.3047045 0.24377486 0.19129205 -0.010973286 0.036886927 -0.14886944
0.08621028 0.19933078 0.30086073 -0.064796835 0.07066039 0.01688062 0.25554588 -0.13142243
0.073887676 -0.08128269 0.19731103 0.14553393 -0.24058616 -0.15154004 -0.0118116755 -0.0026720893
0.25269496 -0.09292515 0.08711406 -0.1322982 -0.1808456 0.2181128 0.020031976 -0.28634208
-0.18494421 0.049635325 0.28406882 0.10807502 0.22453488 0.17993096 -0.09228699 0.009795861
0.1202313 0.33606115 0.34303153 -0.03424619 0.28030574 -0.17162116 0.2503888 -0.2530395
0.10457838 -0.11247489 0.18345481 -0.036566984 -0.2910618 -0.20783116 -0.32197204 -0.20821267
0.2984944 -0.23265389 0.12033597 0.009397422 -0.32530394 0.15154974 0.32113275 -0.24503577
0.02987916 -0.21201737 -0.20692094 0.21523447 0.03860268 -0.1469763 0.24184655 0.016420845
-0.11392463 0.06366299 -0.22971597 0.0028704253 0.097706616 0.11345629 -0.02206369 0.19556886
-0.110201634 -0.047125723 -0.11203577 -0.0010781271 0.019089812 0.0050114077 0.1635461 -0.060749713
-0.15835525 0.10476038 0.03719266 0.08503846 0.17883822 -0.0647905 7.185905e-05 0.08737107
-0.062309626 -0.080839396 0.07511672 0.11986542 0.24693657 0.0636182 -0.25573727 -0.059028514
0.2057623 0.14551821 0.3528565 -0.063190006 0.22963943 0.1840292 0.28476417 -0.2971724
0.09496475 0.10694686 0.13817656 -0.013841084 -0.09945737 -0.24945416 -0.15906343 -0.2255256
0.11592563 -0.19018495 0.082144454 -0.18470545 -0.06158668 -0.051915903 0.080750674 -0.18860053
0.11878166 0.033079114 0.09028317 0.21676613 -0.18246613 0.12539326 0.17112249 0.06009672
-0.045809817 0.038652852 0.09133227 0.0837813 -0.035498813 0.024745254 0.11226133 0.20053875
-0.18233997 0.038465444 -0.16959623 -0.08924507 -0.08994235 -0.03144486 0.07625656 -0.1611735
0.10166802 0.08723453 -0.079339825 0.13617884 -0.13987552 -0.02343696 -0.05015567 -0.07993649
0.036916412 0.045841586 -0.10342899 -0.0398005 -0.04482975 -0.2006604 0.091421075 0.084731646
0.007123719 0.12733117 -0.17697181 -0.00392074 -0.15096866 0.1257983 0.1845956 0.02629992
-0.009047764 0.008051159 0.08066869 0.022126537 0.11179342 -0.14110605 -0.19774157 0.102476284
-0.12961316 0.07468536 -0.07948498 -0.14134015 -0.024249338 -0.0800658 0.11158019 0.068759404
-0.27440438 0.13839728 -0.0473378 0.044267084 0.2278767 0.17188153 -0.27790743 0.062829964
0.12524274 0.11035825 0.13645644 -0.0076582916 0.043337997 -0.16811638 0.117617615 -0.008147807
0.16236623 -0.26334894 0.08246315 0.19756258 0.007862806 -0.30354732 -0.266575 -0.21632332
0.27433154 -0.17885983 -0.027849885 0.05761407 0.0040983604 -0.022659404 -0.012151566 -0.29547462
0.008870644 -0.20585646 -0.088169076 -0.09140447 -0.16185036 0.07581454 0.018951202 -0.063698195
-0.06552579 -0.09435979 -0.11990693 0.08087861 -0.05716048 0.036542352 0.10887059 0.16474555
-0.07137228 -0.01530786 -0.16924371 -0.11271527 0.22069493 -0.06231439 -0.034976043 0.08760419
-0.1763031 0.18094356 -0.14329796 -0.18123955 -0.07967744 -0.24119082 -0.17726474 0.058190268
00000000: 253c 61be 06b5 31be 3a02 9c3e 1ea0 793e
00000010: 10e2 433e 4cc9 33bc bf16 173d 3b71 18be
00000020: 048f b03d 5e1d 4c3e 6b0a 9a3e 34b4 84bd
00000030: 65b6 903d 3a49 8a3c e9d6 823e 9a93 06be
00000040: 6c52 973d 8a77 a6bd e70b 4a3e d906 153e
00000050: 385c 76be 502d 1bbe c285 41bc 381e 2fbb
00000060: 3c61 813e 8b4f bebd db68 b23d 2e79 07be
00000070: 972f 39be f658 5f3e 191a a43c 6e9b 92be
00000080: 0462 3dbe 694e 4b3d 7871 913e 7056 dd3d
00000090: 79ec 653e d23f 383e f600 bdbd d27e 203c
000000a0: d43b f63d 3510 ac3e d4a1 af3e bc45 0cbd
000000b0: 3c84 8f3e 75bd 2fbe f632 803e 658e 81be
000000c0: 312d d63d 3c59 e6bd 94db 3b3e 43c7 15bd
000000d0: 0d06 95be b1d1 54be 85d9 a4be b435 55be
000000e0: 42d4 983e d23c 6ebe b472 f63d a5f7 193c
000000f0: 3d8e a6be db2f 1b3e 836b a43e a8ea 7abe
00000100: 24c5 f43c 151b 59be 15e3 53be 6d66 5c3e
00000110: d81d 1e3d f580 16be 9fa6 773e 0285 863c
00000120: 5151 e9bd be61 823d aa3a 6bbe bf1d 3c3b
00000130: 681a c83d c55b e83d e9be b4bc 3443 483e
00000140: 65b1 e1bd e706 41bd 0373 e5bd f14f 8dba
00000150: 3d62 9c3c bc36 a43b a178 273e b1d4 78bd
00000160: e127 22be 9c8c d63d 5557 183d a528 ae3d
00000170: 5e21 373e e2b0 84bd 09b3 9638 9bef b23d
00000180: 6138 7fbd 208f a5bd cbd6 993d 007c f53d
00000190: f1dc 7c3e 424a 823d ffef 82be e2c7 71bd
000001a0: 5ab3 523e ba02 153e 9ba9 b43e c369 81bd
000001b0: 9926 6b3e 2772 3c3e 9ccc 913e fb26 98be
000001c0: e17c c23d f506 db3d 287e 0d3e b7c5 62bc
000001d0: 4eb0 cbbd e970 7fbe 86e1 22be 2ff0 66be
000001e0: 6b6a ed3d d8bf 42be 5a3b a83d 6d23 3dbe
000001f0: 5142 7cbd c5a5 54bd 9c60 a53d 7f20 41be
00000200: cd43 f33d f77d 073d 62e6 b83d f1f7 5d3e
00000210: 67d8 3abe 1767 003e bc3a 2f3e fa27 763d
00000220: 13a3 3bbd 7452 1e3d 6a0c bb3d 8895 ab3d
00000230: 3467 11bd 8fb6 ca3c 45e9 e53d 085a 4d3e
00000240: 54b7 3abe f18d 1d3d a2aa 2dbe 1fc6 b6bd
00000250: b233 b8bd 53cc 00bd 662c 9c3d aa0a 25be
00000260: 5337 d03d 04a8 b23d eb7c a2bd 7772 0b3e
00000270: 873b 0fbe defe bfbc 0870 4dbd beb5 a3bd
00000280: aa35 173d 63c4 3b3d 94d2 d3bd d905 23bd
00000290: 669f 37bd eb79 4dbe f93a bb3d c987 ad3d
000002a0: 166e e93b 1a63 023e 1938 35be 8d79 80bb
000002b0: 8797 1abe 45d1 003e a106 3d3e ee72 d73c
000002c0: 133d 14bc 02e9 033c a035 a53d b642 b53c
000002d0: f3f3 e43d 1b7e 10be c47c 4abe 16df d13d
000002e0: 50b9 04be a3f4 983d 05c9 a2bd 79bb 10be
000002f0: 8ca6 c6bc 8af9 a3bd 2884 e43d bbd1 8c3d
00000300: bb7e 8cbe 04b8 0d3e 48e5 41bd 6751 353d
00000310: 8258 693e b601 303e e249 8ebe ffac 803d
00000320: a23f 003e 8203 e23d 3dbb 0b3e 68f2 fabb
00000330: 2f83 313d b326 2cbe 81e1 f03d 617e 05bc
00000340: 5543 263e acd5 86be 71e2 a83d d84d 4a3e
00000350: 00d3 003c 8e6a 9bbe 857c 88be dc83 5dbe
00000360: 2f75 8c3e 0827 37be 7125 e4bc bbfc 6b3d
00000370: 8a4b 863b 37a0 b9bc 5d17 47bc 7348 97be
00000380: 2d56 113c 09cc 52be fd91 b4bd 4432 bbbd
00000390: 1abc 25be a744 9b3d 8d3f 9b3c 3374 82bd
000003a0: 6332 86bd b53f c1bd c491 f5bd afa3 a53d
000003b0: 1c21 6abd 6fad 153d 8bf7 de3d 0fb3 283e
000003c0: a12b 92bd d2cd 7abc 394e 2dbe 43d7 e6bd
000003d0: dafd 613e 603d 7fbd 0a43 0fbd d369 b33d
000003e0: cd88 34be 4549 393e b3bc 12be dc96 39be
000003f0: ed2d a3bd bafa 76be e384 35be eb58 6e3d

dense1.bias f4 [32]
-0.009130211 0.0868739 0.04495907 0.27540904 -0.10193427 -0.023645127 0.071260855 -0.17057976
0.014330626 -0.17844464 0.24072683 -0.05473659 0.31379628 -0.15997061 0.3311457 0.16969766
0.30040327 0.11845445 -0.10524123 -0.18741536 0.025680762 -0.1304257 -0.116650045 -0.0052340166
0.18681835 -0.22432819 -0.11919802 0.077276446 0.00019707113 0.039454125 0.30983564 0.28589612
00000000: e196 15bc f1ea b13d 0027 383d 6a02 8d3e
00000010: eac2 d0bd 6db3 c1bc 36f1 913d 76ac 2ebe
00000020: 01cb 6a3c 31ba 36be 1881 763e 7933 60bd
00000030: e8a9 a03e 56cf 23be ee8b a93e 39c5 2d3e
00000040: 75ce 993e 3f98 f23d b788 d7bd d0e9 3fbe
00000050: 7660 d23c 518e 05be 38e6 eebd 1d82 abbb
00000060: 4f4d 3f3e 4ab6 65be 171e f4bd 1d43 9e3d
00000070: e1a4 4e39 a69a 213d c7a2 9e3e fa60 923e
