ecg/model.pth (torch, 351934 bytes, 15 tensors)

conv1.weight f4 [64, 1, 30]
00000000: 3640 213e b758 2d3e b1a4 cebc 867c 3d3e
00000010: 8222 bbbc 5484 5c3d 06b6 93bd 90b4 fd3d
00000020: 32bc 353e b1e7 f0bd ec1a 333e 8c2b 4e3d
00000030: e9a3 1a3e 4b47 273d 4962 d53d d92b 1abc
00000040: 3904 213e d576 323d ae10 8cbd b825 823d
00000050: 6067 89bd dbc4 8cbb 2c68 6abd ca12 0a3e
00000060: 9d87 08be 67f6 98bd 5f75 30bd 78a3 d1bd
00000070: df8d c13c 03a1 33be 055e 383e b270 0fbe
00000080: dfb7 1f3e 4ee3 393d dc5e 35bd 9308 033e
00000090: a3bd 323d 919b 283e d8ab 173d ef1d 26bd
000000a0: df69 873d 41a5 04bd 72b5 c03d b9d0 383e
000000b0: 2664 fc3d 9e3f 7dbd f838 fd3d 7e62 513d
000000c0: fb2e e43d 235d bdbd 3bb7 25be 588b 53bd
000000d0: fa75 f8bd d55d 2c3e 3e32 913d 2427 c03d
000000e0: 4575 9b3d 3c84 543c 6ad2 223e fd99 e8bd
000000f0: 6cac 94bb c0b1 0fbe 032f 273d c41c a0bd
00000100: 0e4a 273d f4ee 58bd 42d0 0b3e ce45 fcbd
00000110: c899 fdbd b790 fdbd 4bc9 183e 7680 3b3d
00000120: 0178 243e 03ed 29be bb34 49be 3921 22be
00000130: 91bb 0dbe 75fb 6e3d 620a 4c3d 8f62 0b3e
00000140: a648 e1bd 1090 0fbe c155 a63d 9a3b b7bd
00000150: 16d9 c23d e240 72bd 6716 b53d c5ab 21be
00000160: 2476 ddbd 96eb 213d 0b36 9c3c 9a8d 85bd
00000170: b549 ba3d 19bf da3d ade4 18be 0093 e9bd
00000180: c66d 1a3e f6cd 9fbd 9a8b a6bd d51e 46be
00000190: 4e9c f8bd 74a9 ec3c 3343 27bd 79ef 18be
000001a0: f19b 4cbc 14da 10be 7bc7 2fbe a959 f0bd
000001b0: 8dde 34be 533c 08be b7d9 293e 9bf3 913c
000001c0: 59af 213d 9aaa 3fbe 1722 0cbe bc3a 9fbd
000001d0: ede2 3b3c 6913 36be 7359 c4bd c49e 01be
000001e0: 2936 69bc 5948 a9bd 4041 dfbc cda9 0dbe
000001f0: 8c48 0fbe 88dd f7bd b3b1 9dbd a536 22be
00000200: b185 0e3e 9b7d 4cbd 022c 133e a9a3 313d
00000210: 5b64 2cbe f4d9 e63d db0d 83bd 96e4 abbd
00000220: 0c84 29be 8943 48be 51be 1c3d 2f9d 5cbd
00000230: 4589 683d 6875 28be 82ea f23d f23c 1bbe
00000240: 4cb8 4bbd 9844 a03c ab5c 9a3d d854 033e
00000250: 9aec 153e ac6b 29be 9276 fa3c e973 c0bd
00000260: d5e7 11bd d934 1cbe 45c9 173e f721 1cbe
00000270: a1d9 a13d 0851 3a3d e53f 243d 7511 f2bd
00000280: c1f2 153e d3e2 a83c c8c5 8b3b df11 38be
00000290: 5a17 763d 74e8 32bd 1120 ccbd 407e 103e
000002a0: e78d ce3c 3466 eebd 4c97 dcbd 5b1a c4bc
000002b0: 00c2 b13d 9ee9 7cbd d42e f4bd f4ee 9ebd
000002c0: de37 1bbe 7f32 4c3d 94e7 003e daf5 3fbe
000002d0: edf9 553d 82b5 d53d 0791 2a3d cfa9 6bbd
000002e0: dcef d43d da37 d63d 3b1e 9a3d a6d3 e6bc
000002f0: e0a2 3cbd ff25 a83c b74e 07bd 7bc1 5ebd
00000300: 331a fa3d 12c6 263e dac1 9fbc 281a 4bbd
00000310: 98c4 e1bb 104f afbc 2920 0c3d 0cad 223d
00000320: 19be 37be ee9c a3bd b953 133e 77a5 773d
00000330: ec54 b2bc 5789 fdbd 39d2 00be a9fb 35be
00000340: 980c 96bd 3bef 463d 006f cb3d cb4f 8a3d
00000350: 7643 36be ff51 01be f30a 39bd 303c 243e
00000360: 4385 273c a985 82bd 52a0 703d 6589 b1bd
00000370: d7c9 0abe 1d54 ed3d 7c97 cdbd 401b 5dbd
00000380: 6fd4 4bbe 7869 d63d e042 f73d 674b 483d
00000390: 0570 14be d19c 4abe 0c07 2abe 5825 f23d
000003a0: 4abc 8e3d 6f0e 0b3e 845d 9f3d ae32 e83c
000003b0: 243a a1bc 1874 20be 6755 32be eb18 41be
000003c0: 337e 6d3d 9094 d9bd 792d 59bd 393d f4bd
000003d0: 33a0 49bd a8ea 13be 7b48 0abe 3eea 383d
000003e0: 2135 8ebd bb13 c83d 5d7e 97bd 344a 19be
000003f0: 93e1 44bd 300c d6bd 23e6 93bd 1103 43be
0.15747151 0.16928373 -0.025225015 0.18504533 -0.022843603 0.053837135 -0.072124526 0.12387955
0.17747572 -0.11762942 0.17490739 0.0503345 0.1510159 0.040839475 0.10419137 -0.009409868
0.15724267 0.04357036 -0.06839119 0.063548505 -0.0670917 -0.004295928 -0.057228252 0.1348373
-0.13332982 -0.074688725 -0.043080684 -0.10236257 0.02362722 -0.1754189 0.18004616 -0.14007834
0.15597485 0.04538279 -0.044279918 0.1279624 0.043637883 0.16465594 0.037029117 -0.04055589
0.0661199 -0.03238416 0.09409608 0.18048371 0.12323789 -0.06182825 0.123643816 0.05111932
0.11141773 -0.0924628 -0.16183178 -0.05164656 -0.12131877 0.16832669 0.07089661 0.093824655
0.07590727 0.01297098 0.15900579 -0.11357496 -0.004537156 -0.1403265 0.04081632 -0.078179866
0.04084211 -0.05296226 0.13653663 -0.12318002 -0.12382847 -0.12381118 0.14920537 0.045776807
0.16061403 -0.16594319 -0.19649021 -0.15832986 -0.13841082 0.058345277 0.04981459 0.13611816
-0.11000185 -0.14019799 0.08121825 -0.08946915 0.09514062 -0.05914391 0.088421635 -0.15788181
-0.10813549 0.039531313 0.019068738 -0.06521149 0.0909609 0.1068098 -0.14930983 -0.11404991
0.15080938 -0.07802956 -0.08132096 -0.19347699 -0.12139188 0.028889395 -0.04083557 -0.14935102
-0.012488351 -0.1414569 -0.1716594 -0.11735851 -0.17663021 -0.13304262 0.16586958 0.017816355
0.039473865 -0.18717423 -0.13684879 -0.077748746 0.011467678 -0.17780842 -0.095873736 -0.1265822
-0.014234104 -0.08265752 -0.027252793 -0.13834305 -0.13992518 -0.121028006 -0.07699909 -0.15841158
0.13918187 -0.049924474 0.14372256 0.04336897 -0.16835158 0.1127204 -0.06399127 -0.08393209
-0.16554278 -0.19557013 0.038267437 -0.05386084 0.056771535 -0.16451037 0.11861135 -0.15159968
-0.049736306 0.019563958 0.07537206 0.12825334 0.14641038 -0.1654498 0.030574117 -0.09397108
-0.035621483 -0.15254535 0.14822872 -0.15247332 0.079028375 0.045487434 0.040099997 -0.11819736
0.14643385 0.02061597 0.0042655207 -0.17975567 0.060080864 -0.043678716 -0.09967054 0.1411066
0.025214149 -0.116405874 -0.10771045 -0.023938349 0.08679581 -0.061746232 -0.11922994 -0.077604204
-0.1515803 0.049852844 0.1258834 -0.18746129 0.0522403 0.104350105 0.041642215 -0.05753499
0.10397312 0.104598716 0.07525297 -0.028177094 -0.046053767 0.02052593 -0.033034053 -0.054383736
0.12212028 0.16286495 -0.019501615 -0.04958549 -0.006889891 -0.021400005 0.034210358 0.03971581
-0.1794361 -0.07988916 0.14387406 0.060460534 -0.02176901 -0.12379711 -0.12580194 -0.17771782
-0.07326621 0.04856799 0.09933281 0.067535006 -0.17799172 -0.12628935 -0.045176458 0.16038585
0.010224643 -0.0637315 0.058746643 -0.08668784 -0.13553558 0.11588309 -0.10038659 -0.053981066
-0.19905256 0.10469335 0.12073302 0.048900034 -0.14495857 -0.19786383 -0.1660425 0.11823529
0.06969507 0.13579725 0.077815086 0.028344478 -0.019681044 -0.15669286 -0.17415391 -0.18857162
0.05798168 -0.10624039 -0.05302188 -0.1192574 -0.049225044 -0.14444983 -0.13504212 0.045145266
-0.06943727 0.09769388 -0.07397149 -0.14969712 -0.048066687 -0.10451543 -0.072216295 -0.19044138

conv1.bias f4 [64]
00000000: 60f3 b1bd 6f9d e5bd e4cc 4bbc 7d52 bbbc
00000010: de00 0b3e 7f5d 3c3c 4373 ac3d 1e5e 5abd
00000020: 9c6c 313e e371 373e 432f 18be e9c9 babc
00000030: 9e24 10be c5ec d33d fc6e 16be 1715 92bd
00000040: 261b 553e 1975 1cbe f5d0 243e 78a3 233d
00000050: f3e6 2c3e 8eef 8ebd 946c 113e b26c 463d
00000060: a742 243d 1019 163e 7ffc 22be 3e65 02be
00000070: f29b 4e3e b101 afbd c7d3 e2bd fd02 813c
00000080: b168 06bd d6ee 37bb 91e9 d3bd 55bd bd3d
00000090: d6d4 09be aeac 1a3d 2a5b 073e 2375 6d3d
000000a0: 13f9 4e3d 6d56 593d 849e e0bc 3aec 0bbc
000000b0: 23b1 6abd 388d d2bd af77 9fbd 5ca5 523e
000000c0: 95df c2bb 1a15 b73d f84e 1c3e 2b96 363c
000000d0: 656a a1bd dbff e2bd 17d5 33bd 1aa1 b93d
000000e0: 9965 0cbe ea7d 713a e718 be3d 57a8 303e
000000f0: 704b 9e3d 21e7 653d f12e 183e e3ed e03d
-0.08688998 -0.11211669 -0.012438986 -0.022866482 0.1357455 0.011496901 0.08420422 -0.053312413
0.17326587 0.17914538 -0.14861779 -0.022801356 -0.14076468 0.103478946 -0.14690775 -0.07132929
0.20811138 -0.15279044 0.16095336 0.039950818 0.16884975 -0.06979285 0.14201576 0.048443504
0.040102627 0.14657998 -0.15916632 -0.12733933 0.20176676 -0.085452445 -0.110755496 0.015748495
-0.032814685 -0.0028065941 -0.10347284 0.09264628 -0.13460097 0.037762336 0.1321837 0.05797304
0.050530504 0.053060938 -0.027419336 -0.0085402075 -0.057297837 -0.102808416 -0.077865 0.20570892
-0.005947063 0.08939572 0.15264499 0.011144201 -0.07881621 -0.11083957 -0.04390439 0.09063931
-0.13710631 0.0009212183 0.092820935 0.17251717 0.07729232 0.056128625 0.14861657 0.10982873

conv2.weight f4 [32, 64, 30]
00000000: 3d48 813a b6eb 70bc e91b d0bc 1ec1 43bc
00000010: 7214 3cbc c544 b2bb 4903 13bc cf63 333b
00000020: 79eb 0e3c d5de 7cbc e0fe e2bc 852a 91bc
00000030: e69b 8abc 2d3c e33b 69be a9bc 2d82 05bc
00000040: 5996 31bc cea1 a2bc 4554 8e3b bc12 7ebc
00000050: 0a48 ebbb c18f b4bc d6ef 07bc 16a6 33bb
00000060: 5f4e e2bb e9c0 6dbc ef81 4f3a 7dd6 42bc
00000070: e956 9bbc e590 bcbc 96f1 3bbc 9f43 e7bc
00000080: cdef 483c d16e 8fbc a9d2 84bc 6af0 93bb
00000090: 511a 1aba a96d 0bbc 4f00 1d3c 2c74 9ebc
000000a0: de4d 0e3b 5652 c6bb c63f c9bc 6b25 73bc
000000b0: c70d 4bb9 4f1f d7ba 6c8e 2d3c 92d2 173c
000000c0: d21f 97bc 1ef8 80bc 2489 31bc c807 b7bc
000000d0: 2712 47bc f66d cabc 7244 2b3b 46c2 243c
000000e0: 2a79 8bbb 4552 b7bc fae9 bebc 9e24 78bc
000000f0: facc 073a dc36 b6bb e1d1 04bb c9cc 7c3c
00000100: 568e 933b 0b5e a0ba 8e5f 30bc 20b9 9b3b
00000110: 7110 133b 8f9b dabc f3c8 a0bc 6ead b1bb
00000120: 5ea4 233b 0cab a03b bacf a1bc defb eabc
00000130: ce6d edbb 6232 0ebc d824 0f3a 947b 4bbc
00000140: 6fe8 3a3c 6057 93bb d888 2f3c a6f2 b2bc
00000150: ad95 4c3b 17f5 58bb 0f8e 8ebc 0f73 af3b
00000160: a54d e9bc 08b4 4c3c 3e67 8bbb 473e 82bb
00000170: 6470 8f3b 6ea7 85bb a7eb 703b 32a3 063c
00000180: b4e2 c5bc 07e6 113c 5eff 1dbc 7c93 40bc
00000190: 6700 cbba 0fe3 3f3c a9e9 97bc b6f0 afbc
000001a0: c34c 043c adad 88bc fc6b a93a dd27 1abc
000001b0: 0b1f 8739 1448 3a3c 0d73 90bc 07b9 8bbc
000001c0: 0cd2 aa3b a19b 9abb 2c61 0abc 7ca3 d5bc
000001d0: efc7 593c 9629 debb 523d 26bc 38dd 7abc
000001e0: e346 2dbc 001c a33b 92c2 d7bb 3d24 5b3c
000001f0: 650f f3bb fed4 19bc 3b73 df3b 44e0 dcbb
00000200: eca0 2fbc 7098 b43a 1f45 403c d424 1cba
00000210: 672f 1e3c d0c5 0c3c ccc6 8b39 91ee de3a
00000220: a75b 953a aa14 81bb df70 583c e9c5 733c
00000230: 3b90 ff3a fb76 eebb 2d99 6b3c f455 c4bc
00000240: 1ba9 2d3c b3cf c03b 3b02 0b3c 9bd1 00bc
00000250: 0456 bdbc 2588 273c af6d 87bc 7b97 15ba
00000260: d16d cc3b 6f5d e5bc 089d a5bb 4a2f 6ebc
00000270: d54c 243c d7b5 a9bc 27ca fe3b 60f9 053c
00000280: 2b49 d83b 17ee 813c dd4e 29bb d1ce dabc
00000290: a9e3 283c 784e 80bb 069f b5bb 6978 e3bc
000002a0: ef9b 36bc b216 8cbc d1d5 853c dfd0 273c
000002b0: 5de4 343c a209 1d3c a4b1 a4bc fc2e 81bc
000002c0: e58b 74bc ef80 77bc 2e95 413c f149 ec3a
000002d0: 1234 413c c7d8 f9bb d377 ddbc 6899 58bc
000002e0: c475 163c e9b1 f53b c05b f739 f687 57bc
000002f0: 4dbe e4bc b768 97bc 0896 be3b 45d0 79bc
00000300: f27b a03b a9ad 6339 4230 72bc ec47 013c
00000310: 09aa 5abc 5501 debb 29df 70bc 07de e2bc
00000320: 4fdf 1bbb ed4f 0b3a 12e4 8fbc 4953 023c
00000330: 9f78 d9bc 2f38 e6bc 0dc7 a5bc 4cea 64bc
00000340: ebfa 0cbc a8ee 2dbc 477a 8a3b 365a d6bc
00000350: 8de5 2ebb 1405 b8bb a756 57b9 83f8 843c
00000360: eea7 fb3b 1c63 9bbc 63af cbbc 886c 40bc
00000370: da24 91bc 90a0 ee3a c3ca c0bb 6a55 493c
00000380: a197 423b 55ab 26bc 5158 aabb 61b4 14ba
00000390: 81a9 11bc fc26 4b3c 6bf7 c2bc 23f9 a83b
000003a0: 63b6 a7bc 084b d4bc a764 2dbc a8ea a83b
000003b0: 19fb 263c 1e68 16b9 f9fb 00bc dd82 ebbb
000003c0: 1f61 7abc 2d2a 05bc 42d7 fabb d42a 5a3c
000003d0: d110 ed3b 368c c7bc b4df c6bb ea65 a6bc
000003e0: a62f 21bc b5b4 c7bc 9872 9fb9 f72c babc
000003f0: 698b 853c 438a 343c 103f b3bc 87a0 e2bc
0.0009863448 -0.014704635 -0.025403934 -0.011947898 -0.011479484 -0.005440327 -0.008972951 0.0027372723
0.008723133 -0.015433987 -0.027709424 -0.01772047 -0.016920041 0.0069346637 -0.020720677 -0.008148712
-0.010839068 -0.019852545 0.004343542 -0.015507396 -0.0071802186 -0.022041203 -0.008296927 -0.0027412227
-0.006906315 -0.014511325 0.0007915785 -0.011891958 -0.01896234 -0.02301831 -0.011471173 -0.028230486
0.012264204 -0.017508896 -0.016213732 -0.0045147436 -0.0005878555 -0.008510032 0.009582593 -0.019342504
0.0021713893 -0.0060522957 -0.024566542 -0.014840464 -0.00019364721 -0.0016412529 0.010593038 0.0092665125
-0.01844779 -0.015743311 -0.0108359195 -0.022342578 -0.012150324 -0.024710637 0.0026133326 0.010056084
-0.0042563872 -0.022378096 -0.023304928 -0.015145449 0.0005180385 -0.005560739 -0.00202667 0.015429684
0.0045030518 -0.0012235058 -0.0107649695 0.004752293 0.002244022 -0.026685504 -0.01962707 -0.0054222858
0.0024969797 0.004903203 -0.019752372 -0.028684553 -0.0072457558 -0.008679004 0.0005460507 -0.0124196
0.011407956 -0.0044965 0.010713778 -0.02184422 0.0031217143 -0.003310507 -0.017401723 0.005354292
-0.028479407 0.012494095 -0.004254251 -0.003974709 0.0043774117 -0.004078797 0.0036761553 0.00821762
-0.024155952 0.00890494 -0.009643404 -0.011753913 -0.0015487791 0.01171185 -0.018544035 -0.021477085
0.008074942 -0.016684378 0.0012925859 -0.009408918 0.00025772335 0.011369724 -0.017632985 -0.017056001
0.005213028 -0.0047182594 -0.008446019 -0.026078932 0.013292297 -0.00677986 -0.010146456 -0.015311532
-0.010575983 0.004977703 -0.006584474 0.013375339 -0.0074176067 -0.00938916 0.0068191565 -0.0067406017
-0.010719519 0.001377834 0.01173523 -0.00059564156 0.009654856 0.008592084 0.0002666026 0.0017008354
0.0011395112 -0.003939231 0.013210504 0.014878728 0.001949794 -0.007277367 0.014379782 -0.023966767
0.0105994 0.0058841347 0.0084844185 -0.007862474 -0.023112305 0.0102253305 -0.016531793 -0.0005706471
0.006238677 -0.027998654 -0.00505412 -0.014537642 0.010028084 -0.02071659 0.0077755633 0.008177131
0.006600519 0.0158606 -0.002583436 -0.026709946 0.010308185 -0.003915604 -0.0055426387 -0.027767377
-0.011145576 -0.017100666 0.016337307 0.01024267 0.011040774 0.009584816 -0.020104237 -0.015769474
-0.014925932 -0.015106424 0.011815352 0.0018027407 0.0117922 -0.007624719 -0.027034676 -0.013220169
0.009183351 0.007498015 0.0004717987 -0.013154974 -0.027922774 -0.01848255 0.005816225 -0.015247409
0.004897588 0.000217131 -0.014782013 0.007890683 -0.013346204 -0.006775061 -0.014701643 -0.027693762
-0.0023784225 0.0005314339 -0.017564807 0.007954427 -0.026546774 -0.028102962 -0.020236516 -0.013971876
-0.008604745 -0.010615982 0.0042260024 -0.026166063 -0.0026687116 -0.0056158397 -0.00020536278 0.01623178
0.007679931 -0.018968157 -0.024863904 -0.011744626 -0.017717768 0.001820581 -0.005883546 0.012288431
0.0029692429 -0.010172685 -0.0051985164 -0.00056726305 -0.008890511 0.012399431 -0.023799619 0.0051566525
-0.020472711 -0.025914684 -0.010583079 0.0051549263 0.010191702 -0.00014343901 -0.007872575 -0.007187231
-0.015281945 -0.008127731 -0.0076550553 0.013315875 0.0072346707 -0.02435885 -0.006069148 -0.020312268
-0.00983802 -0.02437816 -0.00030412222 -0.022726519 0.016301828 0.011019292 -0.021880656 -0.027664436

conv2.bias f4 [32]
00000000: 0a70 263c 1c79 813c 3107 5bbc 85bd ab3c
00000010: 245e f93c cac8 4bbc ec93 92bc ed66 60bc
00000020: 31d1 b53c 0d7d 083c cb83 1cbb e3d1 2dbc
00000030: c096 333d fc52 ea3c a6e0 d13b 4193 f33b
00000040: 72d8 3f3c 56d4 103d 3059 6c3c c271 e63c
00000050: f264 fabb 24ae 353c ca30 a03a 3ce3 be3c
00000060: fa91 263d b145 eb3c 3a0e 053c ade0 053d
00000070: 8756 9e38 1b63 2b3c 2c61 773c efe2 8b3c
0.010158548 0.01580482 -0.013368414 0.020964393 0.030440398 -0.012438009 -0.0178928 -0.013696414
0.022194477 0.008330596 -0.0023882266 -0.010609123 0.04384494 0.028604023 0.006404954 0.0074333255
0.011709319 0.03535875 0.014425561 0.028130416 -0.007641428 0.011088882 0.0012221572 0.023301713
0.040666558 0.028719755 0.008121068 0.03268497 7.550144e-05 0.01046064 0.015098851 0.017075984

conv3.weight f4 [16, 32, 30]
00000000: 678d f7ba b117 86bb 0564 43bc abda c53b
00000010: 4660 c6bb dc33 c5bc eb48 af3c c99f dc3c
00000020: af17 113b b09b 0d3c b7e2 383c 6c32 95bc
00000030: e339 c6bc b218 f93c 6509 e83a 52a4 babc
00000040: e4f5 a3ba a823 bfbc 5b34 cabc af0d 1c3d
00000050: d5d3 fc3c 6f6d f9b9 d44e 123d ea8a 963c
00000060: 39b5 ae3b 6a1f 4dbc ca62 aa3c 30de 3d3c
00000070: df20 a13c 6e2c adbc 761b 563d 3544 923c
00000080: 55e5 383d e206 373d ef7b ba3b 72fc b13c
00000090: 4009 fcbb 5bfb a7bb 0f31 2abc f128 f939
000000a0: cbc6 0d3a 7bb0 b7bb c97e 2b3b f4d4 e93c
000000b0: bfb9 c43c 3f70 363c 670c 093d 6a54 583c
000000c0: a9b2 4f3d e542 443d 59d7 713c 2559 123c
000000d0: ad25 fc3c bf6a a43c 30cb 243c 3e5e a23c
000000e0: 6a55 093d c80c f13c a80f 2c3d 91f7 6c3c
000000f0: 4a74 5b3c 3444 a0bb f0f6 5abb 8d06 593c
00000100: 7cb4 fd3c 3f6c 2dbb 13c8 ae3c 0a55 aebc
00000110: 2575 e13c 76e6 95bc 9526 873c e725 afbb
00000120: dfb1 a63c 2be4 a23c d6c5 093c e563 523c
00000130: 2c48 0abc 2176 133c 2cd6 c53c d31d e9b9
00000140: aca0 6cba 1eb6 0d3d f60b e93c 72d9 533c
00000150: e2c6 94bc 8d4b 7abc 7542 44bc 01d9 6b3c
00000160: c14d fe3c 85e8 ab3c f9b9 223d 477e ecbb
00000170: e958 383c d2f8 f93b 2aab 263d 67b0 60bb
00000180: e9b6 6c3c bbf1 eeba 92d0 3c3d 9df7 5c3c
00000190: 68f8 2f3d 832b 423c 4a47 22bc 7c85 243d
000001a0: 4e95 a53c 101d 543d 1034 3b3d f398 173d
000001b0: 02e9 843c 709a 223d f967 073c 1a9c c4bb
000001c0: 947c 3039 0aea c5bb d5c7 a13a 4d4c ef3c
000001d0: 853a 293d a1b2 923c 3ede 203d 6d03 bc3c
000001e0: 2a96 5ebb 30d4 263d 1bb7 b4ba afde 9c3c
000001f0: 698d 273d da80 283d 5167 103c aa92 193c
00000200: 5036 303c 3924 1e3d dc31 4b3c 8f1e 0f3a
00000210: df66 a03c 5e54 3f3d acbb 0f3d 2dae 963c
00000220: cac4 883c bce1 1e3d ec92 f7bb 5ee5 1bbc
00000230: 7be4 a63c 44a9 513c 41e6 0f3c 113d dd3b
00000240: 1885 fc3c 294f 343d 010d 0c3c c492 613c
00000250: 6c2b 993b f6ba 33bc ffb5 1a3b b611 e939
00000260: 8260 843c 5c4d 8abc 33fb bb3c 92e3 bdbc
00000270: 6100 d6b7 add3 73bc e3a0 0e3c c5b9 6c3b
00000280: d186 b5bb 1783 0a3d a0f1 bdbc 2678 d5bb
00000290: 2a93 c93c d352 b5bb 1041 ee3c 7b1d c3bc
000002a0: 689d 8bbc c053 c03c c3a2 d3bb 49b0 63bc
000002b0: e556 9ebc 6f28 81bc fcf8 013d a9d1 8eba
000002c0: be62 64bc 9478 183d 49fc d0ba 701d 983c
000002d0: ec29 f63c 5876 a3bc 2d34 1b3d 79b8 74bb
000002e0: 3a31 a0bc e098 133d 1ee1 db3c 374c 1d3d
000002f0: 0197 bbbc f9db adbc afc9 35bc f822 203c
00000300: 0caf d2bc ac33 bcbc a37e c0bb a473 fd3c
00000310: 9adb 013c 266a 7ebc ba20 8cbc 4589 5abc
00000320: 0f6d 86bc ea87 dabb d6f9 c03c ade0 a23b
00000330: 966b c0bc 24fe aabc c8c1 b4bc 9964 1e3d
00000340: a977 0a3d 4319 173d 765d c33c 1a38 7dbc
00000350: 4dd9 f6bb 58cc 21bb fb20 8d3c 257d 353b
00000360: 831f 3b39 42a5 033d a714 613c 303d dd3b
00000370: 9088 59ba f8fe f73c 0db1 253c 6113 ee3c
00000380: aa41 67bc bfbc fd3a d2bb 0a3d 5c46 ea3c
00000390: 10d9 173d 3355 77bb 799e b53c a926 c03c
000003a0: 93d8 b73c 04a9 a73c 08d8 1639 2f7c 023d
000003b0: 39f3 0d3c 6a23 9bba 5317 583c 48ac 773c
000003c0: cd89 3b3d fb67 ae3b c095 cd3c 3cb9 aa3c
000003d0: b540 e53c c8f0 ff3c fb78 a4ba 5b76 8abb
000003e0: 3378 9c3c daf5 153c e276 0d3d 90ef 473c
000003f0: 5fba 00bb 4de7 403c 4845 4a3c f903 ef3c
-0.0018886746 -0.0040921797 -0.011925702 0.00603803 -0.006053957 -0.02407258 0.021397075 0.02693166
0.002213936 0.008643076 0.011284522 -0.01821252 -0.024197524 0.030407283 0.0017702995 -0.022783432
-0.0012509194 -0.023332432 -0.024683168 0.038098987 0.030862728 -0.00047574515 0.035719708 0.018376786
0.005331662 -0.012519697 0.02079906 0.011588618 0.019668994 -0.02113935 0.052272283 0.01785479
0.045140583 0.0446843 0.0056910436 0.02172682 -0.0076915324 -0.0051263995 -0.010387673 0.00047523485
0.00054083456 -0.005605755 0.00261681 0.028543927 0.024014352 0.01113516 0.033459093 0.01320372
0.050707493 0.047915358 0.014760816 0.0089323865 0.030779684 0.020070432 0.010058209 0.019820329
0.033528723 0.02942504 0.04200712 0.014463321 0.013394425 -0.004890943 -0.0033411346 0.013246191
0.03096985 -0.0026462225 0.021335637 -0.021280784 0.02752168 -0.018298369 0.01649789 -0.0053450945
0.020348487 0.01988419 0.008408984 0.0128411995 -0.008440059 0.009000332 0.024149977 -0.00044463444
-0.00090266275 0.03459751 0.028448086 0.012930261 -0.018161241 -0.015276802 -0.011978735 0.0143949995
0.031042935 0.020984897 0.03972814 -0.007217202 0.011251667 0.0076285386 0.04069058 -0.0034284831
0.014447906 -0.001823 0.046097346 0.01348677 0.042961508 0.011851194 -0.009904692 0.040166363
0.020212796 0.05178553 0.045703948 0.037011098 0.016224388 0.039698064 0.008264535 -0.006000054
0.00016831077 -0.0060398625 0.001234288 0.029211188 0.041315574 0.017907443 0.039274447 0.022950852
-0.0033964016 0.0407297 -0.001378748 0.019149153 0.040906344 0.041138507 0.008813695 0.009373346
0.010755137 0.038608763 0.012402024 0.00054595707 0.019580303 0.04671132 0.035091087 0.0183936
0.016695399 0.038789496 -0.0075553562 -0.009515135 0.02037262 0.012796704 0.008782924 0.0067516644
0.030825183 0.044020806 0.008548022 0.013767902 0.0046743657 -0.010969868 0.0023607013 0.0004445442
0.0161593 -0.016882591 0.02294693 -0.023179803 -2.5510964e-05 -0.01488201 0.008705351 0.003612147
-0.005539753 0.033816423 -0.023186505 -0.006514567 0.024606306 -0.005533555 0.029083759 -0.023817768
-0.01704283 0.023477435 -0.0064586117 -0.01389701 -0.019328544 -0.01576635 0.03173159 -0.0010896224
-0.013939558 0.037224367 -0.0015944327 0.018568724 0.030049287 -0.019953892 0.037891556 -0.00373414
-0.019554723 0.036034465 0.026840743 0.038402762 -0.022899153 -0.021223055 -0.011095448 0.009773962
-0.025718234 -0.022973858 -0.0058744713 0.03093893 0.007925892 -0.015528237 -0.017105449 -0.013338392
-0.016409425 -0.0066690343 0.023556631 0.004970631 -0.023488801 -0.020873137 -0.022065058 0.038670156
0.033805523 0.036889326 0.023848277 -0.01545527 -0.0075332285 -0.0024688449 0.01722764 0.0027693
0.00017845449 0.032140024 0.013737834 0.006751679 -0.00082982425 0.030272946 0.010113013 0.029061975
-0.014114777 0.0019358619 0.033870526 0.028598003 0.03707224 -0.0037739992 0.022170292 0.023455935
0.022442138 0.020466335 0.00014385593 0.031856712 0.008663946 -0.0011836116 0.013189155 0.015116759
0.045785714 0.005322454 0.02509582 0.02084028 0.027984956 0.031242743 -0.0012548262 -0.004225535
0.019100284 0.009152854 0.034537204 0.012203112 -0.0019642336 0.011773896 0.0123456195 0.029176699

conv3.bias f4 [16]
00000000: 9aff 17bc 3a78 85ba c08e f83c 6a5d 9e3c
00000010: 1f16 5d3c fbb4 1a3d 0d9d e13c 5611 b83b
00000020: b09d f9bb ab0b dfbc d90d a83a fe07 91bb
00000030: d2d3 523c ba31 4f3c 83b4 ccbc 54e2 4cbc
-0.009277249 -0.0010182925 0.030341506 0.019331653 0.013494044 0.037770253 0.027540708 0.005617301
-0.007617675 -0.027227243 0.001282151 -0.0044260016 0.012867885 0.012646133 -0.024988418 -0.012505133

lstm.weight_ih_l0 f4 [128, 16]
00000000: b9e7 1d3d c17c 91bc 7278 e5bd 2ba2 003e
00000010: 1166 cc3d 6a07 cbbd 03da 6c3d 950d 293c
00000020: 4efe 073e 8233 0d3e ab3a 953d 84aa ea3d
00000030: 6b41 233e 1e03 28be 33c9 f4bd 98c2 5a3d
00000040: 32bb f93d 6ac1 463a 7a3a 343e f44d 863d
00000050: 3b42 2d3e 27b2 4e3d 9894 9d3d 46b2 fc3c
00000060: 926d 4d3e 4cab 293e 1dab 113d 0bd4 babd
00000070: e5bd 52bd d5f1 163e 16dd 42bc 4542 063e
00000080: 00d2 c23d cbe7 8ebd 26a4 333e 4e1d 293e
00000090: 63b4 ce3d 2391 af3c 608a 473e ff6c 90bd
000000a0: 7e47 203e b2f0 fdbd 2503 78bd 8dea c4bd
000000b0: 07c6 ec3c 1719 f73d 47a6 843b 7d7e 253d
000000c0: 5c90 0abe fd30 c2bd f83e df3c db30 0c3e
000000d0: 05bc 0ebe d05f 96bd 0d6d ef3d 1b9b c93d
000000e0: a0b0 33be 3d67 ea3d 2ba7 943d ad0c 113e
000000f0: 1e33 19bb d924 513d 6be8 adbd 9ff9 c5bd
00000100: 0305 293e a0d1 683d 6e5b 20be f6ed b93d
00000110: a285 27bd 556a 273d 16cf 3b3e e594 37be
00000120: 9c3e debd f311 e5bd d816 cabd d4f1 783d
00000130: 5b59 553d 9a8d 0ebd 1c08 833d 0a42 a0bd
00000140: 0452 1f3e f2b0 28bd 116f 763c 3377 42bd
00000150: a475 1cbe 3079 4a3d 4a3c 35bd 753f f5bd
00000160: ef08 0b3d f541 283e c41f b83c 591a a73d
00000170: d8ff 0fbd ba28 183e 2454 d2bd 243d 213c
00000180: 0dd3 713d 2fa6 c5bd 788c 4c3e 34be 60bd
00000190: d04b 133d f7ec 8c3d fc31 413e dd5a 443d
000001a0: bdad babd 61f6 17be d64d 11be 71cb ebbc
000001b0: 3d9e da3d dd16 a43d e8d8 213e 8259 033e
000001c0: 0709 343d 0f3e 2f3e f25e 20bd 6e96 383e
000001d0: c8e7 e8bd fb18 1a3e abe3 373e f0ed ea3d
000001e0: 6567 81bb fb7c 0bbd 6595 933b 07c1 26be
000001f0: 8622 0abd d217 16be 0c0e 5e3d 5613 c63d
00000200: 8030 4ebe 1967 e43d a6e2 dcbd 3561 bdbd
00000210: 5ae9 9abd 8ca4 05be 7081 1c3d 64b7 2f3d
00000220: c1f6 663c a24e 39be 7277 d23d f4a5 123e
00000230: b4c2 26be 9dbf cabc 2349 0f3e 6126 1abd
00000240: 952d 8e3c a50e 56bc fe14 3d3e 2607 eabd
00000250: 42de 373d 3110 e33d ce80 3b3e 5c4f 92bc
00000260: 1c8f e5bb 64a1 bf3d c7f2 55bd 1bae 45bd
00000270: 75ef a4bd bb1a ddbd 5800 1abe b49d 163d
00000280: 783e 273d b7dc 5cba 11a2 f13d 58b6 1bbe
00000290: 0f63 97bd 5a64 543d 2a81 e5bd 315b 813d
000002a0: be57 f43d be26 183e f832 913c aff9 143e
000002b0: 44f0 f63d 486a bc3d 58f9 13be 2b6d 1abd
000002c0: 1ec3 1abc d551 a2bc a375 e4bd 045d 0fbe
000002d0: c851 c53d cd38 603d c1cb debd 0db3 0fbe
000002e0: 1a1e 2d3d 658b c5bd 70af b83d 9640 263e
000002f0: 86f0 9fbd c76e eb3d 05f5 6a3d 953e 22be
00000300: cc16 eb3d 0fc8 c03b e7fe 323c eaa2 5abd
00000310: 514e ad3c fe8e c53c 8b29 edbd 8a04 5b3d
00000320: 7e15 393e b537 e33d 152d b1bc 0bac b93d
00000330: 761d 9c3c 44ec 8c3d baa4 213e 013c c83c
00000340: b2f0 6c3c 05fd 293e b251 f6bd 509e 1abe
00000350: 6545 0b3e 1552 56bd f4cb 073e 9ec0 013d
00000360: 40ae d5bd cc4e 213e e933 48bd 39ac 2abd
00000370: c3e2 253e 6a51 8fbd 22e1 99bd 3f6f aebd
00000380: 0232 983d 8ea6 8f3d 12c1 15be c067 f03b
00000390: 282c efbd d1c6 a8bd 6a66 573d 4421 01be
000003a0: 4b42 843d 6a85 b23d 9321 0fbe 019b 963d
000003b0: c371 fb3c 8501 c8bb 54d8 2b3e e111 96bd
000003c0: 7dd6 17be 72a1 643d a1c5 d2bd 8784 c63d
000003d0: 7ec6 19bd f80f ea3a 8e33 4abd 7589 a73d
000003e0: ba57 b13d 35a0 fe3d 484e 323e 2191 1f3d
000003f0: 5c05 80bd 6871 50bc 3fdf e2bd ea9e a4bd
0.038551066 -0.017759683 -0.11204614 0.12561862 0.09980405 -0.099135235 0.0578251 0.01031818
0.13280603 0.1378918 0.07286581 0.114583045 0.15942924 -0.16407439 -0.11952438 0.053408235
0.12193908 0.00075819215 0.17600432 0.06557837 0.16919796 0.050462868 0.07694358 0.030846726
0.20061329 0.16569251 0.035563577 -0.09122475 -0.05145063 0.14740689 -0.011893531 0.13111217
0.095127106 -0.06977805 0.17543086 0.16515085 0.10093 0.021431511 0.1948638 -0.07052039
0.15652272 -0.123994246 -0.060549874 -0.096150495 0.02890302 0.120653324 0.004048142 0.04040383
-0.13531631 -0.09482 0.027251706 0.13690512 -0.13938911 -0.073424935 0.11690722 0.09844037
-0.17547846 0.114454724 0.07258447 0.14164992 -0.0023376415 0.05106053 -0.08491596 -0.09666752
0.16505818 0.05684054 -0.15659878 0.090785906 -0.040898927 0.04087289 0.18340716 -0.17927893
-0.108517855 -0.11185064 -0.09867638 0.0607775 0.05208717 -0.03480301 0.06398031 -0.07825096
0.1555863 -0.041184373 0.015041129 -0.04747696 -0.15279251 0.04943198 -0.04424695 -0.11974994
0.033944067 0.1643141 0.022476085 0.08159322 -0.0351561 0.14859286 -0.10269955 0.009841237
0.059039164 -0.09650838 0.1997546 -0.05486889 0.035960972 0.06881135 0.18866724 0.047938216
-0.09115169 -0.1484008 -0.14189848 -0.028783532 0.10674713 0.08012173 0.158054 0.12827113
0.04395392 0.17113517 -0.039153047 0.18026134 -0.11372334 0.15048592 0.17957942 0.11471164
-0.003949093 -0.034054738 0.004503893 -0.16284572 -0.03372433 -0.14657524 0.054212615 0.09671657
-0.20135689 0.11152477 -0.10785417 -0.092470564 -0.075640395 -0.13051051 0.03820938 0.042899504
0.014096917 -0.18096402 0.10276689 0.14321119 -0.16285211 -0.024749571 0.13992743 -0.037634257
0.01735572 -0.013065015 0.18465039 -0.11427145 0.044889696 0.11087073 0.18310854 -0.017860107
-0.0070055854 0.09356955 -0.052233484 -0.048261743 -0.08053485 -0.10796114 -0.15039194 0.03677149
0.04083106 -0.0008425223 0.1179849 -0.15206277 -0.07391941 0.051853515 -0.11206277 0.063162215
0.11930798 0.14858529 0.0177245 0.14548372 0.12057546 0.09199959 -0.14450586 -0.037701767
-0.009445934 -0.019814411 -0.1115525 -0.14000326 0.09634739 0.05474167 -0.10878707 -0.14033146
0.042265035 -0.09645728 0.09017837 0.16235575 -0.07809548 0.114957385 0.057362575 -0.15844186
0.114789575 0.005883224 0.010925031 -0.053378023 0.021155508 0.024116036 -0.11580189 0.053471126
0.18074605 0.1109461 -0.021627942 0.09066018 0.019057017 0.068810016 0.15785494 0.024442675
0.014461683 0.16600426 -0.12027301 -0.15099454 0.1360069 -0.052324373 0.13261396 0.031677835
-0.10433626 0.15752715 -0.04887763 -0.04166815 0.16199784 -0.069979504 -0.07513644 -0.08517312
0.07431413 0.0701419 -0.14624432 0.0073365867 -0.11678344 -0.08241046 0.052587904 -0.12610346
0.06457957 0.08716853 -0.13977651 0.073537834 0.030693894 -0.006103697 0.16781741 -0.07327629
-0.14827915 0.05581803 -0.10291601 0.09693246 -0.037542813 0.0017857542 -0.049365573 0.08180515
0.08659311 0.12432901 0.17412674 0.038956765 -0.06251022 -0.012722351 -0.11077737 -0.08038123

lstm.weight_hh_l0 f4 [128, 32]
00000000: 1918 a83d a18d 8f3d 46f8 fdbd a287 a0bd
00000010: c019 9c3c ffaa 25bd 6b77 953d b319 f53d
00000020: fd85 e4bd a26a 13be a6ea f93d 5407 e6bd
00000030: 262e e8bc 9055 2bbe aba8 7dbd 1202 353e
00000040: d73c 23be 0600 89bd 9cb4 fe3d 8933 d53c
00000050: 2607 043e 1112 25be c244 febd 4583 363e
00000060: c6ba d3bd 81d6 5d3d 007d 3abe 5a0e 21bd
00000070: c017 aebd def7 f7bd 3d3c 57bb 134d 213e
00000080: 5306 833d c783 07be 0d48 6abb a2c6 a73c
00000090: abc5 e5bd 19aa c13d 9450 8abd 4be3 3fbd
000000a0: 2e41 27bd dbea b2bd afd4 d0bd 8500 4bbd
000000b0: 481a adbd f5f2 a03d c047 053d be11 37bb
000000c0: f475 a1bd 7fae 21be 3e26 483e 401c c6bb
000000d0: 759b e83d 543d 51bd 382b 37bd 461e fdbc
000000e0: 32b9 173a 670e afbd 0514 163e 19dc b63d
000000f0: a0b4 dcbc 38cd 3e3e 28f7 a7bd 71cd 0ebe
00000100: 52da 8fbb fafa c93c b3dc fd3b 890c 0c3e
00000110: d4a6 72bd 1bdd c23d 6ade 0f3d 50e8 b1bd
00000120: f1b7 e53d 0213 5c3d 43eb e23d 89df d9bc
00000130: fd31 d7bc edb7 3a3e 8f3c 693d 6566 8ebd
00000140: 301e 27bd c43c f0bd f084 903d c888 7fbd
00000150: e288 15be 62a5 d23d 9ad1 90bd d2bb 9a3d
00000160: 09b7 c83d 9bfa 403e 1b1d 06be 3191 683d
00000170: 87c5 853c 8575 6c3d c067 023e c194 c8bd
00000180: 7cba eebd 73bb 4e3d c36a 3c3d cb41 983d
00000190: 15b1 07bd 45e3 f8bd 9d82 f5bd 7778 02be
000001a0: a279 e1bd 5a51 5a3d 3f57 0ebe b5e5 18be
000001b0: 5b82 143d 1378 11be 55ff 69bd 141a 613d
000001c0: 4f26 973d 9a1b b23d 6452 21bb ee68 e33c
000001d0: f0ec 213e ad82 b1bd b1c2 393e 1838 d03c
000001e0: a667 2bbd e90f 0dbe 89b2 aabd 1c5e 913d
000001f0: 8814 773d cc32 003d d5c4 cc3d e97e 05be
00000200: 5664 36bd bb7b 313e 50cd 093e de72 c63d
00000210: 85ba c03b 688e eabd 2d28 48bd 2a55 be3d
00000220: cb8d 363e e38d 013c e3c3 15be e57c 09be
00000230: fe4a 9e3d 0a55 463d 78a2 bbbd a5a6 1fbe
00000240: 8f46 69bd 1614 c63d 5edb 78bc 0b64 aa3c
00000250: 02a1 01be 5790 87bd a0fb 5b3d 5be7 71bd
00000260: ccd5 803b 60e1 fb3c a3be c23d 6b7a e93d
00000270: bdeb 01be 9ce7 a13d 0849 6fbd 4405 1b3e
00000280: 39dc 5d3d 63e6 33be bbd6 21bd 6a09 19be
00000290: 6852 ae3d ccd8 e3bd c2e1 32be f12f 1e3e
000002a0: 408b 3abd 616c 7dbc a451 19be 46bc eebd
000002b0: f1d0 10be 34be e2bc 1de7 123d 1638 103e
000002c0: 295c 24be 7538 903c e61a 043d 14ba 05be
000002d0: 3819 023e 2293 f33d 2c70 873b 2595 b73d
000002e0: b742 4f3d c7f1 95bd a805 bdbd 0b9a aabd
000002f0: e7ee dfbc c263 a43d 5336 ce3b 8d05 cb3d
00000300: d37e babd 0f7f 12bd c6a0 c03d 241c 083d
00000310: 8ab1 58bd e35b 04bc 669e c13d 17b4 983c
00000320: c739 ffbd 5d01 2fbe 110e bd3d 3be7 e1bd
00000330: 7d89 b4bd ef05 90bd 7206 adbd 64b6 423e
00000340: 8056 ecbd 017a 44be 722a 0e3c b55a ac3d
00000350: ac58 323d 3f59 9fbc 6244 19be c349 143e
00000360: 23f9 31be f9d7 ce3d 9637 10be 50da e0bd
00000370: 55e6 bb3d b910 f1bd 9b9b d53d fe5a 10be
00000380: a587 92bd a10b 323d 404f 243e 0dc0 2ebd
00000390: ab27 14bc f56c 223e d7cb f0bb 5e04 f0bd
000003a0: 4e03 bfbc 2666 d4bd a104 1abe 5ea9 8abd
000003b0: e72a bc3d 1a52 313e 1f3a c0bd e867 2fbe
000003c0: 5e6b 1bbd a616 98ba ba92 00be 2beb bc3c
000003d0: a4c1 d0bd 35f4 2ebd f8f8 53bd 9226 6ebd
000003e0: 9ad4 e53d 3669 b43b 008c 9abd 9121 73bd
000003f0: 19fa 3dbd c34d 0a3d 498d c13d d21c 5c3d
0.08207721 0.070094354 -0.1240087 -0.0783837 0.019055247 -0.040446278 0.07298168 0.11967792
-0.11158369 -0.14396146 0.12202959 -0.112318665 -0.028342318 -0.16731858 -0.061928432 0.17676571
-0.15941177 -0.066894576 0.12436792 0.02602555 0.12893352 -0.16120173 -0.12415458 0.17823513
-0.103383586 0.054159645 -0.18211746 -0.039320327 -0.08500624 -0.12107824 -0.0032842301 0.15752058
0.063976906 -0.13233863 -0.0035748512 0.020480458 -0.11219343 0.09456272 -0.0675365 -0.046847623
-0.040833645 -0.087362014 -0.10196816 -0.049561042 -0.084522784 0.078588404 0.03253913 -0.002793416
-0.07883826 -0.15789221 0.19545838 -0.006045848 0.11357776 -0.051083878 -0.04471895 -0.030898225
0.0005787789 -0.08547669 0.14656074 0.08928699 -0.026941597 0.18632972 -0.08201438 -0.13945557
-0.0043900395 0.024655808 0.0077472567 0.13676657 -0.05924113 0.09514829 0.03512422 -0.08686888
0.11216725 0.053729065 0.11080029 -0.026595848 -0.026268953 0.18234225 0.05694252 -0.06953124
-0.040800273 -0.1173034 0.07056606 -0.062386304 -0.14602998 0.102854505 -0.07071228 0.07555355
0.09800536 0.18845598 -0.1309704 0.05677909 0.01632954 0.057729263 0.1273489 -0.097939976
-0.11656663 0.050471734 0.046000253 0.07434424 -0.033127863 -0.12152723 -0.11987803 -0.12741266
-0.11009528 0.05330024 -0.13900469 -0.14931376 0.03625713 -0.14205961 -0.05712827 0.05495651
0.07380354 0.08696671 -0.002461576 0.027759995 0.1581304 -0.086675026 0.18140675 0.025417373
-0.041846894 -0.137756 -0.08334834 0.07098028 0.060322315 0.031298444 0.0999848 -0.13036694
-0.04452928 0.17332356 0.13457227 0.09689878 0.00588161 -0.11452943 -0.04886644 0.092935875
0.17827527 0.007907364 -0.14625506 -0.1342655 0.077291474 0.048420943 -0.09161848 -0.15590914
-0.056952056 0.096718 -0.01518902 0.020799657 -0.12659076 -0.066193275 0.053706765 -0.05905853
0.0039317366 0.030747116 0.09509017 0.114003025 -0.12687583 0.07905504 -0.058419257 0.15138727
0.0541651 -0.17568354 -0.039511424 -0.14944997 0.085118115 -0.11125335 -0.17468932 0.15447976
-0.045542955 -0.015467734 -0.1497255 -0.11657004 -0.14142205 -0.027678587 0.035864938 0.14083895
-0.16050781 0.017605046 0.032252215 -0.13059264 0.12704933 0.11893298 0.004133245 0.08963994
0.050600734 -0.07321506 -0.092295945 -0.083301626 -0.027335597 0.0802684 0.006293097 0.09913168
-0.09106221 -0.035765704 0.09405665 0.033229962 -0.05290369 -0.008078548 0.0945404 0.018640561
-0.12462192 -0.17090364 0.092311986 -0.11030432 -0.08815286 -0.07032382 -0.08448495 0.19014889
-0.11539936 -0.19187166 0.008677112 0.084157385 0.043541595 -0.019451736 -0.14967492 0.14481263
-0.17380194 0.10099787 -0.14083704 -0.1097914 0.09174792 -0.11770768 0.1043007 -0.14097211
-0.071547784 0.04346812 0.16045856 -0.042663623 -0.009042661 0.15861876 -0.0073485184 -0.11719583
-0.023317005 -0.10371046 -0.15040828 -0.067705855 0.091878705 0.17316476 -0.09386086 -0.17129481
-0.03794419 -0.001160343 -0.12555972 0.023061356 -0.10193184 -0.042713363 -0.051751107 -0.058142252
0.11222191 0.005505706 -0.07546234 -0.059358183 -0.04638109 0.033765566 0.09450776 0.053738423

lstm.bias_ih_l0 f4 [128]
00000000: 19c2 aebd e038 0bbe ebeb 713d a453 ab3d
00000010: 2a48 af3d 6106 3f3d 7cb6 293c 8958 5abc
00000020: 06d3 183e 2883 d23d e7d0 ffbd ad4b acbd
00000030: 555d 323e bf4f a53d 0441 66ba b835 373d
00000040: 92da e23c 2814 403d cab2 4a3d 7e28 b93c
00000050: ec5c febd 71c2 2abe be0c eabd e1d4 083e
00000060: 64ad b63d b3dd 1c3e fbe6 853d 0e23 be3d
00000070: ca4f 15bd 442d d8bd ed37 07be dac9 323e
00000080: b5fd d2bd 0dea 00be ae09 773d 024e 30be
00000090: 39c2 05be fd73 f2bd 64c1 b4bd 33e4 debd
000000a0: 8aa2 813c 6fdd 203e 9b80 31bd 6cbd 823c
000000b0: 0852 0d3e 87e0 2f3d a605 b0bd 29a7 8fbd
000000c0: 2688 c3bd 9652 a23b 869c 51bd 19a3 6439
000000d0: 37f8 0d3e ff27 a2bd fcf6 993d e432 8dbd
000000e0: b214 b7bc 67c1 ccbd d8b3 203e 85dd 72bd
000000f0: 02db cc3d 5851 9e3d 494d 413e e8c3 ba3b
00000100: f8df 2a3c 9385 453e 61cf afbd 5db0 f7bd
00000110: fcb2 dfbc 7dcc d53b 51fe e6bd 0825 47bc
00000120: c13a 1c3e f665 14be 23d1 2e3e a83f 0abe
00000130: 8aab acbd 8a50 18be a80d 4dbb 69a9 03bd
00000140: 9ad8 17be b295 a93d b4e8 1d3d 37d3 81bd
00000150: 9d32 ca3d 9344 ce3d f9d4 e3bd 2638 2b3e
00000160: 8d7b febd 0aae 04be 0c65 3cbd aef0 e8bc
00000170: 3e82 66bd 77e4 893d 572a bebc 1520 fdbc
00000180: 7f66 a8bd 492a 533e 2b35 80bd 4978 2abe
00000190: 0a5a 0d3e 50c1 863d 5278 af3d f1b9 30bd
000001a0: 764c dd3d 88f0 ae3d e8b5 05be f843 c1bd
000001b0: ccfe 52bc c6af 343e 6d6a 663e 89e6 0ebd
000001c0: 7c5c 013e 7a7f a0bc b83b 843d f1b6 e4bd
000001d0: ce26 4b3d 68f0 8e3d 1214 09be 1e81 e83c
000001e0: 68dc a7bd 0668 fc3d 3d4c 76bc a4b5 093e
000001f0: 9549 5a3e ddbd d53a b89c c2bd dbff 093e
-0.08533115 -0.13595915 0.05906288 0.083655626 0.08558686 0.046636943 0.010358449 -0.0133267725
0.14924249 0.10278922 -0.12491017 -0.084128715 0.17418416 0.08071851 -0.0008783492 0.044728965
0.027692113 0.046894222 0.049486913 0.022602316 -0.12420067 -0.16675736 -0.11428212 0.13362457
0.089197904 0.15318947 0.06538197 0.0928403 -0.036453046 -0.10555509 -0.13204928 0.17459813
-0.10302297 -0.12589283 0.060311966 -0.17217258 -0.13062371 -0.11838529 -0.08825949 -0.10883369
0.015824575 0.1570947 -0.04333554 0.015959464 0.13800824 0.042938735 -0.08594827 -0.07014305
-0.09547453 0.0049536927 -0.051174663 0.00021804533 0.13864218 -0.07917785 0.07517812 -0.06894472
-0.022348735 -0.09997826 0.15693605 -0.05929329 0.1000271 0.07730359 0.18877138 0.0056996234
0.010429375 0.19289236 -0.08584476 -0.120941855 -0.027307026 0.006524621 -0.11278976 -0.012154825
0.15256788 -0.1449202 0.17071967 -0.13500845 -0.08431156 -0.14874473 -0.0031288657 -0.032143984
-0.1482872 0.08280505 0.038552 -0.06339114 0.09872935 0.10071673 -0.11124606 0.16720638
-0.12425909 -0.12957016 -0.045994803 -0.028435078 -0.056276552 0.06733029 -0.023213549 -0.030899087
-0.082226746 0.206216 -0.06260141 -0.16647448 0.13803878 0.0657984 0.08567871 -0.043146078
0.108055994 0.085419714 -0.13057673 -0.09436792 -0.012878131 0.17645177 0.22501536 -0.034887824
0.12632936 -0.019592036 0.06456703 -0.11167706 0.049597554 0.069794476 -0.13386562 0.02838188
-0.08196336 0.123245284 -0.015032825 0.13448197 0.21317132 0.0016307194 -0.09502548 0.13476507

lstm.bias_hh_l0 f4 [128]
00000000: b29d 65bd e79e 1dbc 375a 1e3e 08a5 11be
00000010: a8eb 3f3d 48da e5bc d112 413e 2cb5 0a3d
00000020: 03fa af3d 4f09 113e 9397 853d eba0 90bd
00000030: 26bd 1e3e 712e 103e 2ad4 7a3d 70e5 b63c
00000040: 170f d63d 8224 343e 0b92 443e 6f63 033e
00000050: b26b 93bd fac9 11be 0947 e83d 794c 2c3e
00000060: 2d2b 87bc 2ff8 f2bc 7c9b 9cbc 7b33 cfbd
00000070: d551 83bd dd30 803d 08ef c83d 869f e33d
00000080: c768 553c fa0d 02be 34d1 51bd b4ab b93c
00000090: fc20 1d3e c928 33bc 08c4 fe3d 9545 f2bd
000000a0: 44fb 483e 7e0b 3c3e d657 253e e473 06be
000000b0: 35aa f8bd 6db0 26bb 6ce3 b53c 603d 633d
000000c0: 259f 8f3d a7da d03d eb88 8fbc 8c84 d5bd
000000d0: 3222 02bb af38 d8bd e70b b0bd d5f1 993d
000000e0: 4eca 53bc 1b1e fe3d 0db4 cfbd 6fd3 9dbb
000000f0: 49d3 4d3d 467b 363e c619 033e 71a8 b23d
00000100: f2eb 27bd c69c 343e aab8 8dbc 23c3 313e
00000110: 7a3d 0e3c 05cd d6bc d854 f93d d717 963d
00000120: 7e64 15bd 5bb6 e9bd efe2 ea3d 083b d93d
00000130: 7637 a33c 2239 373e dbfa 3dbd f118 02be
00000140: f571 233e 21c4 cabd 9572 2b3e deae 293d
00000150: 2c84 40be 6e15 c83d 0cd0 01be e903 003e
00000160: 8b06 4abe 9889 f23d 5d8a da3d 6d0c 8fbc
00000170: 36d5 25be e101 393e e744 733c 3778 0bbe
00000180: 034f 913d 001d 2d3e 2084 463e 3075 16be
00000190: d4dd 133c 56ad 4a3d 8905 19be 11e1 063e
000001a0: d1d9 403e 8c6d acbd ae81 593e 0210 1bbe
000001b0: c47b b2bd 5126 55bd 7d95 01bc 3423 dfbc
000001c0: ab0f 4bbd 5e64 03be 6cea 08bd 2805 cb3d
000001d0: ff23 353e 1761 003e 6949 b03d 071e 763d
000001e0: dbde 0d3e 2681 e1bc 00d8 123e 34fc 2e3c
000001f0: 9b0d 1d3e 3c81 6abd a959 cfbd 5cc4 ca3d
-0.056058593 -0.009620405 0.15464102 -0.1422311 0.0468556 -0.028058186 0.18854834 0.033864185
0.08592608 0.14163707 0.06523051 -0.07061943 0.15501842 0.14080216 0.06123749 0.022326201
0.10452097 0.17592052 0.19196336 0.128309 -0.071982756 -0.14237204 0.11341674 0.16826047
-0.01650008 -0.029659359 -0.01911711 -0.10117241 -0.064120926 0.0625932 0.098112166 0.11114411
0.013025469 -0.12700644 -0.051224902 0.022664882 0.15344614 -0.010935017 0.12439734 -0.11829678
0.196271 0.18363759 0.16146788 -0.13130146 -0.121418394 -0.0025434748 0.02220317 0.055478454
0.07012776 0.101979546 -0.017521342 -0.10425672 -0.0019856808 -0.105576865 -0.0859602 0.07516829
-0.012926651 0.12408086 -0.10141764 -0.0048164646 0.050250325 0.17820463 0.128028 0.08723534
-0.0409965 0.1763793 -0.017299969 0.17359595 0.008681649 -0.026220808 0.12174386 0.07328766
-0.03647279 -0.11411735 0.114690654 0.106069624 0.019923907 0.17892888 -0.046381813 -0.12704827
0.1596144 -0.0990069 0.16742928 0.041426532 -0.1880042 0.097697124 -0.1267702 0.12501492
-0.19729058 0.1184265 0.10670922 -0.01746198 -0.16194615 0.18067123 0.014847971 -0.13620077
0.070951484 0.16905594 0.19386339 -0.14693141 0.009025056 0.049481712 -0.14943518 0.13171794
0.1883309 -0.08419332 0.21240875 -0.15142825 -0.08715013 -0.052038494 -0.007909176 -0.027238466
-0.04957549 -0.12831256 -0.033426687 0.09913093 0.17689513 0.12537037 0.08607752 0.06008723
0.13854544 -0.027527403 0.1434021 0.010680247 0.15337221 -0.057252154 -0.10124523 0.09900734

dense1.weight f4 [32, 32]
00000000: f52e 273e c893 abbd 05b5 193c 747c 283e
00000010: f10e 1abe 18fb 7d3d 8448 1bbe 130c 16be
00000020: 5cc3 623d 6bc3 0b3e 15a7 b33a 9eb1 1b3d
00000030: dea2 0fbd d915 98bd 997b 313e c214 243e
00000040: a7cf d73d c69c 173e d6b6 b23d 20b2 b63b
00000050: 811e 1cbe f718 adbc fdb2 de3d d8f7 2cbe
00000060: 33e3 383e c05a dd3d 138c c7bd 7141 413c
00000070: 14f6 963d 0b1b 43be bcd3 24be dea7 4cbc
00000080: b70c adbd 8311 3bbd 8a21 2f3e a80c 87bd
00000090: c9c7 1abe 861a dbbd de6d 07be a957 993d
000000a0: 2ec6 0bbe 8b6c 013d 6a63 f2bd e400 2ebe
000000b0: 3ca3 d33d 581b e5bd 0c7e c8bb e69d d9bd
000000c0: d9a0 cebd 1bd1 c33c aaa9 aabd ff8a 91bd
000000d0: 5ba4 023e ebb0 8f3c 945c 053e 04ac 103d
000000e0: d9aa 973d 7d65 22be 45d4 90bc 6f5b e4bd
000000f0: 82b0 f33d 9ada df3d ba66 3c3d 9151 1b3e
00000100: c566 4bbe 56cc 3d3e 40fe b1bd c023 56bd
00000110: 1833 64bd d61c 1c3e f2f0 353e 8ece 973a
00000120: 31eb fd3d a445 b2bd a525 633e c1b6 813e
00000130: 6314 503e 58fd a7bd ef00 7abe df26 c53b
00000140: a873 3ebd 012f d53d 0373 45bc 8698 24be
00000150: ac04 c9bd 9269 89bd 921e 4ebd d081 2c3e
00000160: e726 59bd 28ba d9bd 09c0 463d 0cb5 453d
00000170: 900a 85be 6b0c 8cbd 123c fdbd f5ca 58be
00000180: 4122 5fbe e040 5abd 0ff3 6bbb 3b07 3abd
00000190: d62e fbbc 03e5 1d3e d342 663e 74cf 523e
000001a0: 685f 203e e019 4bbc a55d 06bd fa3a c23d
000001b0: edbd 1e3e 1ac4 313e 5fef 523d e816 55bc
000001c0: 81c2 febd 91fb e1bd 4c1b 3a3e 7c34 7b3d
000001d0: d55d 15be 49e8 1bbe 7edc 11bc 4f82 af3d
000001e0: 7e00 efbc 6846 dabd a288 683d d54b 04be
000001f0: f94f 5fbe bcee 023e 588c 0ebc bb29 4e3d
00000200: 18ac 533c 454a 7f3d bc92 2fbe 5b96 a8bd
00000210: 9ca8 bfbd a8e1 c1bd 7391 f5bd 59a3 7d3d
00000220: c4b9 95bd 2054 60bd 0022 0d3b 95aa 52bd
00000230: 47c9 243e 3a12 c23d 78ba 3dbe 1bc3 4f3e
00000240: 638a e43c 35ed ebbd 6331 6ebd b7d7 28be
00000250: 3633 53be 2e0b 05be 0196 3e3c 651b 3d3e
00000260: 9e5d 57be d28b 883d a28b e53d ea52 383e
00000270: 7a00 23be f3dc f83d 2db3 45be bbfb 8fbd
00000280: 1b9f b7bd 6c23 043e bcfd af3a 45f9 1d3e
00000290: c2ea 323e 378f 9b3d 8932 5bbd 1cd6 81bd
000002a0: ce1a 393e 7f31 edbd bc32 b93c 85bc 16be
000002b0: 1d55 08be c554 a1bd 963e da3d e4f4 1abe
000002c0: d7f1 6c3c 66f3 ecbd 2c24 853d 78ed 3a3e
000002d0: e269 653d a4c3 debd 50db ca3d 47e6 eabd
000002e0: 944a 6d3d fdf8 bc3d 8643 27bd f4f6 21be
000002f0: e9fa ac3d 787e 40bd 3372 db3d 59ee a13d
00000300: af1c 4a3e 885b aa3d b7da 98bd e635 cb3c
00000310: 6ca6 b73c 8867 39be cae8 21bd f398 ebbc
00000320: f7cd 003d 2559 dbbb a8f5 31be 569b 43be
00000330: c016 e93d 7b1f 113d 0354 1b3c f31e 2e3d
00000340: a4c9 cebd 9da6 cd3d 1db4 023e 8bc0 e9ba
00000350: 6998 243e bfb8 0f3e 217d ce3c 3029 e33d
00000360: 201d 413e dcb4 41be bf34 743d 1bd4 c63d
00000370: c8e9 073e a91d cebd f4c7 14bd c725 c03d
00000380: e52a da3a 59a8 733e b38a 8cbd 3cd1 a3bc
00000390: 6d5c c43d 6c0e 4f3e 1a8f ecbc 50f4 03be
000003a0: 4c87 a13c 39bf 45bc 431a 3c3e 7f9b 83bd
000003b0: 5dd3 69bd face a23b 8bed 1abe ca72 5f3e
000003c0: 1d22 7dbd d59d 463d d772 d5bd 27d3 7bbe
000003d0: 7467 5cbe 5c95 28be 1c51 843d 92c6 733d
000003e0: 387e 8c3c 6b5c a63d 5ec6 69be a70c 313e
000003f0: 7820 963b c80f 123e 28be 8cbb 8f5b 1abd
0.16326506 -0.083777964 0.009381537 0.16453725 -0.15044762 0.06200704 -0.15164381 -0.14653043
0.05536209 0.13648765 0.001370641 0.038011186 -0.03506743 -0.07426042 0.17332305 0.16023543
0.105376534 0.14805898 0.087262794 0.0055754334 -0.15246011 -0.021130068 0.10873983 -0.1689142
0.1805542 0.10808325 -0.09743514 0.011795388 0.073711544 -0.19053285 -0.16096395 -0.0124911945
-0.08449691 -0.045670997 0.17102638 -0.06594211 -0.15115274 -0.10698418 -0.13225505 0.07487423
-0.13649818 0.031597655 -0.11835368 -0.16992527 0.10333869 -0.11186856 -0.0061185416 -0.1062582
-0.10089273 0.02390342 -0.08333142 -0.071065895 0.12758009 0.017540416 0.13023597 0.035320297
0.074056335 -0.15859027 -0.017679343 -0.11150252 0.118989006 0.10930367 0.045996405 0.15167834
-0.19863422 0.18534979 -0.086910725 -0.052280188 -0.05571279 0.15245375 0.17767695 0.0011581944
0.12398375 -0.08704689 0.22182329 0.25334743 0.20320277 -0.08202618 -0.24414419 0.0060165967
-0.046497017 0.10409356 -0.012051347 -0.16073808 -0.09815344 -0.06709589 -0.050322123 0.16846395
-0.053015616 -0.106312096 0.048522983 0.048268363 -0.2598462 -0.06838306 -0.12364973 -0.21171172
-0.2179041 -0.053284526 -0.0036003029 -0.04541705 -0.030661982 0.15419392 0.22486429 0.2058695
0.15661395 -0.012396306 -0.03280415 0.09483905 0.15502138 0.17359963 0.051497813 -0.01300595
-0.124394424 -0.110343106 0.18174475 0.06132935 -0.14586575 -0.15225329 -0.008902667 0.08569776
-0.02917504 -0.1065796 0.05677093 -0.12919553 -0.21807851 0.12786382 -0.008700453 0.050332766
0.012919448 0.06232669 -0.17145818 -0.08231803 -0.093583316 -0.09466869 -0.11990633 0.06192336
-0.073108226 -0.054767728 0.0021535158 -0.05143221 0.16092406 0.09476133 -0.18528163 0.2028927
0.02789802 -0.11519853 -0.058152568 -0.16488539 -0.20625004 -0.12992546 0.011632443 0.18467481
-0.21031806 0.066672936 0.112082735 0.18000379 -0.1591815 0.12151518 -0.19306631 -0.07030436
-0.08965894 0.12904137 0.0013427059 0.1542712 0.17472365 0.075956754 -0.05351499 -0.06339666
0.18076631 -0.11581706 0.0226072 -0.14720352 -0.13313718 -0.07877497 0.106564686 -0.15132481
0.014461956 -0.11569862 0.0650104 0.1825465 0.05600918 -0.10877159 0.09905112 -0.11469703
0.05793245 0.09227178 -0.04083588 -0.15816861 0.08446295 -0.04699561 0.10715141 0.07906789
0.19737504 0.083182395 -0.074635915 0.024805974 0.022418223 -0.181059 -0.039528646 -0.028759455
0.031446423 -0.0066939765 -0.17378867 -0.19102225 0.11381292 0.035430413 0.009480479 0.042509984
-0.10097054 0.100415446 0.1276402 -0.0017833872 0.16073765 0.14035319 0.02520615 0.1109184
0.18858767 -0.18916649 0.059620615 0.09708425 0.13272774 -0.10064251 -0.036323503 0.093822055
0.0016644864 0.23794688 -0.06862392 -0.019997232 0.09587941 0.20220345 -0.02887683 -0.12886167
0.019717835 -0.012069517 0.18369393 -0.06426143 -0.057086337 0.004968521 -0.15129678 0.21821132
-0.06180011 0.048490364 -0.104222946 -0.24592267 -0.21523839 -0.16463226 0.06460783 0.059515543
0.01715003 0.08123096 -0.22829577 0.17289983 0.0045815073 0.14263833 -0.0042951293 -0.037684973

dense1.bias f4 [32]
00000000: 39ca 943d 75a8 16be 5bf3 3c3e 50c9 d23d
00000010: ced3 3d3e 3c13 21be c651 fe3d 6fb5 22bc
00000020: 797e 463c 6e54 c3bc 203a ef3c fc49 bc3d
00000030: 1fa5 633e 1ca6 bcbd 9b3d da3c f708 e0bb
00000040: 2620 633e 2bfd b4bd 4a31 a6bd d35c a43d
00000050: 7a94 f13d b02b 4e3c 5849 b7bd 253b ba3d
00000060: 1be3 403e 00bf 96bd 437d 653d 60d8 d93d
00000070: e5ad 2a3d c9b3 11bd b1eb eb3c c622 b0bd
0.072651334 -0.14712699 0.18452208 0.102923036 0.18537828 -0.15729994 0.12417941 -0.009930952
0.012115114 -0.02384397 0.02920252 0.09193799 0.22230957 -0.0921137 0.026640704 -0.006837006
0.22180232 -0.088373505 -0.0811487 0.08025517 0.11795898 0.012583658 -0.08949536 0.09093312
0.18836634 -0.07360649 0.056027662 0.106369734 0.041669745 -0.035571847 0.02879891 -0.086003825
